stock_models/AAPL.pth (torch, 72386 bytes, 11 tensors)

linear_1.weight f4 [32, 1]
-0.606066 -0.76774186 0.6410182 0.5571136 0.060541555 0.65536165 -0.2808039 -0.2006347
-0.007341803 -0.39742243 -0.7080192 -0.13745913 0.7367031 -0.013709495 -0.7657459 -0.14308669
-0.13204789 0.07271374 0.3240846 0.27670926 -0.16722716 -0.6562529 -0.00851072 0.7715904
0.5529299 0.004721042 -0.2939233 -0.12278128 -0.5107737 -0.91090757 -0.21706831 -0.011033552
00000000: 2427 1bbf bb8a 44bf c519 243f ff9e 0e3f
00000010: 6cfa 773d c8c5 273f 87c5 8fbe 2f73 4dbe
00000020: 8293 f0bb f47a cbbe bf40 35bf 16c2 0cbe
00000030: 9398 3c3f ca9d 60bc ec07 44bf 5185 12be
00000040: 9037 07be f1ea 943d 6bee a53e d6ac 8d3e
00000050: 993d 2bbe 3100 28bf 8c70 0bbc f386 453f
00000060: d08c 0d3f f8b2 9a3b 1d7d 96be c074 fbbd
00000070: 11c2 02bf 3d31 69bf 2847 5ebe 12c6 34bc

linear_1.bias f4 [32]
-0.55050427 0.3105785 -0.9223145 -1.421172 -0.37962785 -1.3136005 0.12571374 -0.2601736
-0.051505055 -0.5674435 0.59129626 0.635694 -0.06824111 0.36669165 -0.28074872 0.5855571
-0.18440247 -0.28862464 -1.2288603 -0.53186077 0.76484907 -0.111709945 -0.052239608 0.16505297
-0.46176195 -0.093225665 -0.37119555 -0.17481935 0.06395631 0.052192733 -0.80180335 -0.027920483
00000000: d9ed 0cbf 2504 9f3e ce1c 6cbf f7e8 b5bf
00000010: 955e c2be 1024 a8bf 1abb 003e 7935 85be
00000020: f7f6 52bd fa43 11bf 315f 173f d8bc 223f
00000030: ffc1 8bbd 02bf bb3e 4cbe 8fbe 12e7 153f
00000040: 00d4 3cbe 9cc6 93be 4b4b 9dbf 0728 08bf
00000050: 26cd 433f 2fc8 e4bd 33f9 55bd a503 293e
00000060: 106c ecbe 19ed bebd 580d bebe d803 33be
00000070: 87fb 823d 0cc8 553d fc42 4dbf 7fb9 e4bc

lstm.weight_ih_l0 f4 [128, 32]
0.5102479 0.18380554 0.38466445 0.06262695 -0.0750502 0.16158782 0.18200183 0.20310737
-0.16700481 -0.15007955 -0.040395174 -0.10214264 0.15675223 0.06978887 0.5722877 -0.095555104
-0.028603718 -0.004916061 0.09363926 0.29855886 -0.40416917 0.29104912 -0.016434321 0.03240196
0.30955327 -0.1955341 0.09646773 0.0992361 0.21875583 0.26282042 0.11397376 0.17557555
0.46509928 0.19063906 0.21352778 0.27422246 -0.11686392 0.07658605 0.03316973 0.29281527
-0.077319905 0.018261028 -0.031702857 0.050842743 0.2536872 -0.15477557 0.29342613 -0.21718353
-0.041469462 -0.009491704 0.22953996 -0.09475474 -0.22333002 0.23788683 -0.030832605 0.12590358
0.20319475 -0.13773844 0.10138628 0.10073438 0.16779076 0.1625916 0.027990628 0.26308605
0.51481235 0.27849162 0.21997029 0.05633884 0.15969783 0.23767048 0.17895056 0.17846923
0.17924465 -0.013257817 -0.034990337 -0.20503373 0.22205754 -0.19642502 0.46336368 -0.14895727
0.02807882 0.13551328 -0.29344666 0.1721354 -0.105764136 0.36563373 -0.1641513 0.20898151
0.25182012 -0.03755298 0.4916205 -0.16542579 0.21429625 0.27763292 -0.112219185 0.08097983
0.645876 0.09256736 0.42906353 0.36725056 0.038198344 0.6165857 0.026545132 0.3385679
0.05196705 0.12009864 -0.15796034 -0.48272768 0.3801339 -0.09440324 0.71124023 -0.22650643
0.04951117 0.14439154 0.3514448 0.3834165 -0.44068995 0.43501252 -0.090083376 0.31908575
0.50806785 0.052806363 0.24381891 -0.10208038 0.22442257 0.6248899 0.09303735 -0.09593764
0.48881924 0.23068802 0.050103225 -0.20844816 0.08782127 0.24006706 0.06910668 0.27391598
-0.16016918 -0.08818682 0.0065666195 -0.15469483 0.2801135 -0.25368148 0.47252613 -0.41231215
0.06671403 -0.23807092 0.0079164 0.2013996 -0.23992537 0.50456136 -0.04128206 -0.08685179
0.34078678 -0.03105053 0.20215443 -0.099461965 0.28224146 0.19350208 -0.07463884 -0.11959808
0.4099734 0.14513898 0.035660528 0.36974072 0.11202151 0.41965267 -0.082122445 0.18292116
-0.32338738 0.12850279 0.022966687 -0.25995734 0.07866626 0.034875017 0.35062063 -0.17498493
0.15608302 -0.20738451 0.41489574 0.10872906 -0.33864722 0.37678003 -0.0059085903 0.1454246
0.17869881 -0.10472818 0.3969454 0.07134258 0.24084012 0.43327525 0.052552335 -0.03021804
-0.03493935 0.036312718 0.2710106 0.48537105 0.08501621 0.37889567 -0.0143020395 -0.05228965
-0.14498478 -0.041808262 -0.27095753 -0.21795128 0.11073339 -0.1336997 0.4020183 -0.21285038
-0.07739784 -0.03195783 0.37867388 0.07548242 -0.47105303 0.03646502 -0.17991316 0.34728724
0.1971672 0.11307731 0.15969197 -0.0052176323 -0.1227223 0.3484095 -0.13701288 -0.0512109
0.33337456 0.20255996 -0.02354351 -0.062180188 0.12726603 0.030448282 -0.10860975 0.30314273
-0.0546548 0.08864352 0.09712597 -0.3173674 -0.025347587 -0.0048671393 0.61672884 -0.3461818
0.065095045 0.029606346 0.3736632 0.0928881 -0.42677623 0.32806098 0.015718425 0.102279045
0.092528015 -0.21306348 0.4322208 -0.15606129 0.14310673 0.32303864 -0.17389555 0.17755796
00000000: 9b9f 023f 8537 3c3e bdf2 c43e 8f42 803d
00000010: ebb3 99bd 4777 253e b05e 3a3e 61fb 4f3e
00000020: 4f03 2bbe 74ae 19be 6975 25bd 2930 d1bd
00000030: a883 203e 78ed 8e3d 7281 123f 65b2 c3bd
00000040: 5852 eabc e916 a1bb f1c5 bf3d b5dc 983e
00000050: 43ef cebe 6404 953e 45a1 86bc ebb7 043d
00000060: c47d 9e3e 173a 48be e090 c53d 4c3c cb3d
00000070: 8701 603e 6690 863e 136b e93d 14ca 333e
00000080: 7e21 ee3e e336 433e 07a7 5a3e e366 8c3e
00000090: 5a56 efbd 26d9 9c3d fcdc 073d e2eb 953e
000000a0: e659 9ebd 2798 953c dbda 01bd 7b40 503d
000000b0: 4ae3 813e 7d7d 1ebe f33b 963e 5c65 5ebe
000000c0: e2db 29bd 1883 1bbc 860c 6b3e c60e c2bd
000000d0: a0b0 64be 9b98 733e a994 fcbc deec 003e
000000e0: 4912 503e 4e0b 0dbe 9ca3 cf3d d44d ce3d
000000f0: 57d1 2b3e 6a7e 263e 9a4c e53c 37b3 863e
00000100: beca 033f 7496 8e3e e43f 613e 8ec3 663d
00000110: d487 233e e45f 733e d13e 373e a3c0 363e
00000120: e98b 373e 5137 59bc 0752 0fbd 5df4 51be
00000130: 0d63 633e a423 49be 013e ed3e 4188 18be
00000140: 8e05 e63c fec3 0a3e a43e 96be 4344 303e
00000150: de9a d8bd 5834 bb3e 4717 28be 40ff 553e
00000160: 91ee 803e 27d1 19bd afb5 fb3e 6165 29be
00000170: 7a70 5b3e e725 8e3e 2cd3 e5bd c1d8 a53d
00000180: 2158 253f f593 bd3d 37ae db3e 4408 bc3e
00000190: de75 1c3d 8fd8 1d3f 2d75 d93c c658 ad3e
000001a0: 67db 543d 47f6 f53d 5bc0 21be 1528 f7be
000001b0: e9a0 c23e 7c56 c1bd d713 363f 4df1 67be
000001c0: 39cc 4a3d 60db 133e 93f0 b33e 2b4f c43e
000001d0: 1da2 e1be f6b9 de3e a27d b8bd 355f a33e
000001e0: bc10 023f 7c4b 583d aaab 793e 850f d1bd
000001f0: 08cf 653e c9f8 1f3f 5e8a be3d f47a c4bd
00000200: 8446 fa3e 7b39 6c3e 0a39 4d3d 6f73 55be
00000210: a3db b33d 24d4 753e ce87 8d3d b73e 8c3e
00000220: 6403 24be 4b9b b4bd cc2c d73b 5268 1ebe
00000230: 096b 8f3e 8ae2 81be f2ee f13e 941a d3be
00000240: 5ea1 883d ddc8 73be cab3 013c b23b 4e3e
00000250: ffae 75be ef2a 013f 6117 29bd 5adf b1bd
00000260: 9b7b ae3e ae5d febc 9201 4f3e b7b2 cbbd
00000270: f481 903e 6925 463e 40dc 98bd d7ef f4bd
00000280: 09e8 d13e 509f 143e c610 123d a84e bd3e
00000290: 896b e53d b7dc d63e d02f a8bd af4f 3b3e
000002a0: 0893 a5be 3c96 033e a224 bc3c 2119 85be
000002b0: c71b a13d 1bd9 0e3d 8c84 b33e 402f 33be
000002c0: 3ad4 1f3e 9b5c 54be 376d d43e 57ad de3d
000002d0: 2b63 adbe 50e9 c03e d99c c1bb 30ea 143e
000002e0: d2fc 363e ba7b d6bd 6d3c cb3e 0f1c 923d
000002f0: cb9e 763e 41d6 dd3e 1e41 573d d38b f7bc
00000300: 901c 0fbd a5bc 143d e7c1 8a3e 8e82 f83e
00000310: fb1c ae3d 9dfe c13e 1a53 6abc ac2d 56bd
00000320: e476 14be 243f 2bbd f2ba 8abe 9f2e 5fbe
00000330: 30c8 e23d 93e8 08be 58d5 cd3e 73f5 59be
00000340: c282 9ebd 37e6 02bd 8be1 c13e 8796 9a3d
00000350: dd2d f1be 585c 153d 283b 38be a2cf b13e
00000360: 33e6 493e 1495 e73d 4b86 233e acf8 aabb
00000370: d455 fbbd bb62 b23e 1b4d 0cbe 85c2 51bd
00000380: 12b0 aa3e e16b 4f3e 52de c0bc a7b0 7ebd
00000390: 0752 023e ad6e f93c ca6e debd 8635 9b3e
000003a0: b6dd 5fbd bc8a b53d fbe9 c63d fb7d a2be
000003b0: bea5 cfbc 867c 9fbb f1e1 1d3f be3e b1be
000003c0: 8d50 853d 0289 f23c c850 bf3e 1e3c be3d
000003d0: 6a82 dabe 9cf7 a73e edc3 803c ad77 d13d
000003e0: 547f bd3d 502d 5abe 0b4c dd3e 88ce 1fbe
000003f0: 928a 123e 5265 a53e ad11 32be c1d1 353e

lstm.weight_hh_l0 f4 [128, 32]
-0.38775924 -0.4345841 -0.013026702 -0.44421175 0.1399883 -0.2620089 -0.35531598 0.050857116
-0.09310188 0.2832607 0.18133192 -0.19196694 -0.23051585 0.14911675 0.30902496 -0.16726096
0.016088424 -0.078507245 0.14576843 0.17333566 -0.26083437 -0.22048005 -0.10831953 -0.011700815
-0.114422254 -0.08089484 0.12081339 0.067558326 -0.03382045 0.16590722 -0.013682091 0.103623725
0.06403644 -0.11374847 -0.042395085 -0.0835598 -0.029403768 0.26905638 0.07753623 0.3003968
0.115318365 -0.12445164 -0.097017735 0.102731206 -0.25695166 -0.08083042 0.033533603 0.23265621
-0.3795322 0.0034552559 0.30718723 -0.24263689 0.04484607 -0.13649449 -0.27166393 -0.093691915
-0.0030901667 0.15703867 0.21878104 -0.38267353 -0.15358531 0.12734789 0.07969878 -0.1659041
0.47890374 -0.10435999 0.11229347 -0.4466002 0.28272197 0.11582734 -0.35486782 -0.14172675
-0.12711851 0.17626114 0.1597542 -0.4246636 0.27389255 0.47771418 0.4579004 -0.14534499
0.19091773 -0.54751545 -0.31709102 0.3644621 -0.44447663 0.13322096 0.29864335 -0.07850365
0.28050172 -0.47465113 -0.32678774 -0.017421031 0.09385731 0.25890246 -0.07169972 0.41677153
-0.31643337 0.19104233 0.10560584 -0.23432858 -0.1320478 0.15643522 -0.24820872 0.31387866
-0.11429879 0.20278595 0.15302049 -0.45903185 -0.12004941 0.37756896 0.24364978 0.0970588
0.36872151 -0.12724443 -0.29858193 -0.27441633 0.01129152 0.05491622 0.1443184 -0.534413
-0.06488641 -0.18310517 0.17850241 0.12424021 -0.32266232 0.42559242 -0.030225608 0.257112
0.30194187 -0.19845763 0.18604314 -0.41360474 0.028800778 -0.20452918 -0.27681795 -0.43500793
-0.07437555 0.5392682 0.23626526 -0.43668061 0.41058815 0.46987975 0.571464 -0.19351718
0.19342713 -0.4090966 -0.44553137 0.16937625 -0.2524784 0.33912402 0.47395685 -0.12065276
0.31874764 -0.6191569 -0.3272659 0.22392052 -0.034906123 0.417917 -0.09396452 0.28663948
0.015202812 0.26543367 0.13688314 -0.13155346 -0.03836163 0.34958366 0.06552079 0.15294057
-0.1468678 -0.0934053 -0.048052873 0.27652827 0.009379544 0.38715208 0.122730225 0.020784846
0.06181472 0.22818555 0.28356093 -0.3717412 0.026135385 0.3205989 0.13063753 0.105700195
-0.0010269738 -0.16828558 0.1074358 -0.26131824 -0.009467654 0.17625825 0.34824374 0.05422882
-0.4181037 0.16135511 -0.19014513 0.09475457 0.10991251 0.14805275 0.2744323 0.49186024
0.09139541 -0.29721472 0.22686324 0.019930061 -0.23291437 0.061906107 0.12559108 -0.035534754
-0.11384139 0.003100179 0.23393863 -0.14196362 -0.07697867 -0.1949111 0.2531672 -0.13689552
-0.21752411 0.19756322 0.1512059 -0.017811395 -0.10422678 -0.109867975 0.01698263 0.0938825
0.42813668 -0.13117315 0.45875022 -0.4149134 0.11105058 -0.30825958 -0.41908577 0.536384
-0.053156316 0.47289357 0.045626067 -0.41293126 0.26163462 0.44505912 0.3795876 -0.35116735
0.45058125 -0.09061338 -0.43035758 0.5323461 -0.29773483 -0.13531597 0.10605457 -0.02389177
0.42513353 -0.3564509 -0.3468943 0.4689902 0.08394309 0.1852923 -0.033916347 0.21820565
00000000: 6188 c6be cf81 debe f36d 55bc b96f e3be
00000010: 1859 0f3e 0826 86be faeb b5be 8d4f 503d
00000020: 33ac bebd 8c07 913e 13af 393e fb92 44be
00000030: 590c 6cbe 10b2 183e 8538 9e3e 7546 2bbe
00000040: dfcb 833c 68c8 a0bd 5244 153e e77e 313e
00000050: 158c 85be 86c5 61be a1d6 ddbd c6b4 3fbc
00000060: 3756 eabd 32ac a5bd 036d f73d 055c 8a3d
00000070: 5087 0abd 95e3 293e d92a 60bc ad38 d43d
00000080: 8925 833d f5f4 e8bd 78a6 2dbd 6721 abbd
00000090: 2ce0 f0bc c2c1 893e 51cb 9e3d 9ccd 993e
000000a0: 092c ec3d 80e0 febd 3cb1 c6bd bd64 d23d
000000b0: 2b8f 83be 6b8a a5bd 885a 093d 6e3d 6e3e
000000c0: 0b52 c2be 9371 623b a547 9d3e ce75 78be
000000d0: 83b0 373d 36c5 0bbe 8917 8bbe 8ce1 bfbd
000000e0: 6584 4abb bfce 203e 2308 603e c9ed c3be
000000f0: 7845 1dbe 7c67 023e 1d39 a33d c4e2 29be
00000100: df32 f53e b1ba d5bd 1efa e53d c8a8 e4be
00000110: efc0 903e e236 ed3d 3cb1 b5be d120 11be
00000120: 5b2b 02be cd7d 343e 9b96 233e 826d d9be
00000130: a53b 8c3e f496 f43e ec71 ea3e 51d5 14be
00000140: f07f 433e f929 0cbf c159 a2be c79a ba3e
00000150: 7192 e3be 136b 083e c8e7 983e 86c6 a0bd
00000160: ec9d 8f3e 7905 f3be b950 a7be 8db6 8ebc
00000170: 4338 c03d dd8e 843e 4ed7 92bd 1463 d53e
00000180: 8e03 a2be 9aa0 433e e047 d83d d5f3 6fbe
00000190: 8a37 07be 8e30 203e 6d2a 7ebe b4b4 a03e
000001a0: 7c15 eabd 1fa7 4f3e 67b1 1c3e 3906 ebbe
000001b0: 77dc f5bd b850 c13e 547f 793e c4c6 c63d
000001c0: 11c9 bc3e 5d4c 02be bbdf 98be 4c80 8cbe
000001d0: 1100 393c d5ef 603d 34c8 133e 4acf 08bf
000001e0: 2be3 84bd ec7f 3bbe 56c9 363e a771 fe3d
000001f0: ff33 a5be 40e7 d93e b29b f7bc 2fa4 833e
00000200: 2098 9a3e 7a38 4bbe 1882 3e3e 00c4 d3be
00000210: 9cef eb3c 1970 51be 15bb 8dbe 5cb9 debe
00000220: 3552 98bd 7b0d 0a3f 85ef 713e 9a94 dfbe
00000230: 9c38 d23e 1494 f03e 774b 123f 5e29 46be
00000240: c311 463e 1c75 d1be b01c e4be f870 2d3e
00000250: d944 81be aaa1 ad3e 79aa f23e cb18 f7bd
00000260: e432 a33e 1181 1ebf 658f a7be 6c4b 653e
00000270: b9f9 0ebd 38f9 d53e 7870 c0bd 69c2 923e
00000280: 3715 793c ece6 873e 182b 0c3e f3b5 06be
00000290: 1621 1dbd a1fc b23e c42f 863d 749c 1c3e
000002a0: 8364 16be 474b bfbd 17d3 44bd 1d95 8d3e
000002b0: a9ac 193c cc38 c63e fc59 fb3d fb44 aa3c
000002c0: 6f31 7d3d 79a9 693e e62e 913e dd54 bebe
000002d0: e019 d63c 8a25 a43e d8c5 053e 5879 d83d
000002e0: 869b 86ba 0e53 2cbe 4d07 dc3d 81cb 85be
000002f0: 381e 1bbc 0b7d 343e 014d b23e 0a1f 5e3d
00000300: b011 d6be 463a 253e 68b5 42be af0e c23d
00000310: cf19 e13d 249b 173e 6482 8c3e 1bd5 fb3e
00000320: 842d bb3d 872c 98be d64e 683e 5e44 a33c
00000330: 1b81 6ebe 4291 7d3d f39a 003e e48c 11bd
00000340: ad25 e9bd 5f2c 4b3b 9c8d 6f3e e95e 11be
00000350: fea6 9dbd c796 47be 229f 813e 572e 0cbe
00000360: a4be 5ebe 034e 4a3e b8d5 1a3e 34e9 91bc
00000370: da74 d5bd 7602 e1bd 281f 8b3c 7845 c03d
00000380: bb34 db3e 4152 06be 4fe1 ea3e 876f d4be
00000390: 7d6e e33d 33d4 9dbe 6992 d6be 7650 093f
000003a0: 70ba 59bd 1b1f f23e 66e2 3a3d ba6b d3be
000003b0: f9f4 853e cade e33e 4e59 c23e 35cc b3be
000003c0: 96b2 e63e 8293 b9bd d457 dcbe d647 083f
000003d0: b370 98be 4590 0abe 2333 d93d acb8 c3bc
000003e0: 1aab d93e bb80 b6be 219c b1be 7c1f f03e
000003f0: 5bea ab3d 44bd 3d3e deeb 0abd 4d71 5f3e

lstm.bias_ih_l0 f4 [128]
-0.15224843 -0.40262395 -0.37319925 -0.17296097 -0.33577737 -0.20175223 -0.52059877 -0.25117064
-0.34128907 -0.5398782 -0.41776687 -0.4776133 -0.20437951 -0.24064651 -0.51331556 -0.39772698
-0.49885267 -0.24757536 -0.618418 -0.46460834 -0.17391612 -0.401688 -0.4266988 -0.2469298
-0.28366753 -0.28668413 -0.53150624 -0.5452227 -0.35806474 -0.34233353 -0.3664735 -0.48264432
-1.4596908 -0.6988848 -1.57979 -1.5241123 -1.2579255 -1.2546623 -0.78431857 -1.6101669
-1.133097 -0.9064775 -0.797624 -1.1544878 -1.2749851 -1.0075434 -1.2144247 -1.095923
-0.9010205 -1.4881394 -1.3975774 -0.60561645 -1.1335039 -1.0823495 -1.0785359 -0.7667052
-1.2889785 -1.6107993 -0.8596396 -0.81936955 -0.26717538 -0.76212585 -1.123806 -1.4722859
-0.021852273 -0.002801658 0.117998704 -0.051996365 0.06380662 -0.04603587 -0.1485274 -0.2286938
-0.033470437 0.16169184 -0.020312773 -0.1303476 0.0808809 -0.061951745 0.1574938 0.027974559
0.1251959 -0.25594786 -0.13491197 -0.018767215 0.093307585 0.06248699 0.021009872 -0.07585029
0.06933707 -0.14243919 -0.23867685 0.18454976 0.017329026 0.1578431 -0.065688096 0.20153193
-0.6057019 -0.27183977 -0.50474536 -0.42179745 -0.39244536 -0.5807725 -0.21206811 -0.7211776
-0.30936503 -0.43698922 -0.0693115 -0.38646704 -0.6843902 -0.38598993 -0.4380897 -0.38693112
-0.5402263 -0.40358597 -0.39774954 -0.61422205 -0.51150286 -0.24375542 -0.31914124 -0.32888502
-0.3763732 -0.5441283 -0.2811593 -0.19984944 -0.18521914 -0.4807356 -0.35636747 -0.21579655
00000000: 03e7 1bbe ba24 cebe f913 bfbe ae1c 31be
00000010: 03eb abbe 2398 4ebe f645 05bf 7099 80be
00000020: 71bd aebe 7535 0abf 8ae5 d5be bb89 f4be
00000030: dd48 51be 0a6c 76be a668 03bf dfa2 cbbe
00000040: 9e69 ffbe 6584 7dbe a450 1ebf 25e1 edbe
00000050: 1117 32be 0daa cdbe 4478 dabe 2adb 7cbe
00000060: df3c 91be 43c8 92be cb10 08bf b793 0bbf
00000070: 4354 b7be 5746 afbe 6aa2 bbbe 281d f7be
00000080: 26d7 babf 1dea 32bf 8f36 cabf 1d16 c3bf
00000090: b403 a1bf c698 a0bf 1ac9 48bf f319 cebf
000000a0: 5309 91bf e90e 68bf 1631 4cbf 42c6 93bf
000000b0: b632 a3bf 2ff7 80bf 4572 9bbf 3447 8cbf
000000c0: 48a9 66bf 5a7b bebf d1e3 b2bf ae09 1bbf
000000d0: a816 91bf 6e8a 8abf 770d 8abf cb46 44bf
000000e0: 3ffd a4bf ac2e cebf 5711 5cbf 34c2 51bf
000000f0: 36cb 88be ae1a 43bf e0d8 8fbf dd73 bcbf
00000100: 8a03 b3bc 059c 37bb 4ea9 f13d 24fa 54bd
00000110: 0cad 823d 1c90 3cbd 9117 18be b52e 6abe
00000120: 4c18 09bd 8c92 253e f966 a6bc d779 05be
00000130: e3a4 a53d 1dc1 7dbd 0e46 213e e72a e53c
00000140: 5b33 003e 990b 83be 5d26 0abe b4bd 99bc
00000150: 0c18 bf3d 5cf2 7f3d e51c ac3c 6657 9bbd
00000160: 9800 8e3d 94db 11be b467 74be 9dfa 3c3e
00000170: 9af5 8d3c 9fa1 213e 7b87 86bd 635e 4e3e
00000180: 480f 1bbf 952e 8bbe fe36 01bf d6f5 d7be
00000190: 99ee c8be 82ad 14bf 6228 59be 189f 38bf
000001a0: 1865 9ebe 0dbd dfbe 30f3 8dbd 02df c5be
000001b0: 3234 2fbf 79a0 c5be 4b4d e0be d61b c6be
000001c0: 454c 0abf d2a2 cebe d4a5 cbbe a83d 1dbf
000001d0: daf1 02bf 059b 79be 7b66 a3be 9e63 a8be
000001e0: fdb3 c0be fe4b 0bbf 1df4 8fbe 55a5 4cbe
000001f0: 16aa 3dbe fa22 f6be cc75 b6be c5f9 5cbe

lstm.bias_hh_l0 f4 [128]
-0.007072001 -0.43490124 -0.22404976 -0.21468404 -0.5620495 -0.34548983 -0.35250947 -0.27013534
-0.55801153 -0.5058227 -0.13413228 -0.3136746 -0.38670006 -0.22875932 -0.44222614 -0.4184939
-0.33021075 -0.28128627 -0.632493 -0.37385395 -0.29083988 -0.49326316 -0.23204921 -0.28565097
-0.07515739 -0.3085564 -0.3910887 -0.24831828 -0.29223737 -0.37153307 -0.43577433 -0.41098768
-1.4768643 -0.7950192 -1.6544234 -1.6027058 -1.1717169 -1.1100235 -0.72953475 -1.5614082
-1.0348346 -1.2088202 -0.78481615 -1.0040803 -1.3216288 -1.1356639 -1.4417757 -0.9819594
-0.8474308 -1.3181624 -1.3799702 -0.90593565 -1.2335635 -1.0668881 -1.2188691 -0.50406843
-1.4853488 -1.5902233 -0.7876577 -0.85940564 -0.3306399 -0.85845554 -0.86774933 -1.2733612
0.09822187 0.11425708 -0.0135579975 0.10895359 0.03667556 -0.098634414 -0.041092806 -0.3407492
-0.06960376 -0.0079008285 -0.026056843 0.08238776 0.026273374 0.030250201 -0.09863743 -0.058721527
-0.035241786 -0.10500717 -0.110849254 0.12338479 -0.13449074 0.17072228 -0.03213127 -0.17725268
0.1144636 -0.12112336 -0.014479631 0.03675265 0.07015735 -0.08103351 -0.104301274 0.11439807
-0.49974683 -0.19154435 -0.71780235 -0.562179 -0.3989528 -0.5705241 -0.18849424 -0.53086174
-0.3455162 -0.27461717 -0.11780556 -0.52419525 -0.36046627 -0.42239198 -0.41463998 -0.34808004
-0.5079985 -0.4348718 -0.36497867 -0.40854156 -0.36646816 -0.2087241 -0.49061188 -0.19189227
-0.37910393 -0.3749398 -0.43348822 -0.28437552 -0.30461207 -0.40293264 -0.4941037 -0.19817014
00000000: 3fbc e7bb 60ab debe 4d6d 65be 22d6 5bbe
00000010: 7ae2 0fbf 0be4 b0be 1f7c b4be 2e4f 8abe
00000020: d8d9 0ebf 997d 01bf f959 09be f599 a0be
00000030: 8dfd c5be e23f 6abe 776b e2be d544 d6be
00000040: 6211 a9be c104 90be 10eb 21bf c969 bfbe
00000050: f7e8 94be fd8c fcbe 4f9e 6dbe d840 92be
00000060: 1eec 99bd 1bfb 9dbe c73c c8be 2647 7ebe
00000070: 23a0 95be 9539 bebe d01d dfbe fa6c d2be
00000080: e409 bdbf 6186 4bbf 25c4 d3bf 7725 cdbf
00000090: d2fa 95bf 4015 8ebf cac2 3abf 39dc c7bf
000000a0: 7675 84bf 9fba 9abf b6e9 48bf b485 80bf
000000b0: 222b a9bf 6f5d 91bf 1b8c b8bf b161 7bbf
000000c0: 3af1 58bf 8cb9 a8bf dda2 b0bf 66eb 67bf
000000d0: 69e5 9dbf ca8f 88bf e703 9cbf a10a 01bf
000000e0: e91f bebf 708c cbbf efa3 49bf 0202 5cbf
000000f0: a249 a9be bec3 5bbf d224 5ebf 80fd a2bf
00000100: 8c28 c93d 9eff e93d 5d22 5ebc 0f23 df3d
00000110: 1d39 163d d700 cabd ee50 28bd ae76 aebe
00000120: 6b8c 8ebd 7a72 01bc 2975 d5bc eaba a83d
00000130: 423b d73c 45cf f73c 6c02 cabd fc85 70bd
00000140: b159 10bd 000e d7bd ef04 e3bd 2ab1 fc3d
00000150: f1b7 09be d2d1 2e3e 149c 03bd ba81 35be
00000160: e46b ea3d 860f f8bd f93b 6dbc f289 163d
00000170: a8ae 8f3d e6f4 a5bd e89b d5bd 8949 ea3d
00000180: d1de ffbe 3424 44be e5c1 37bf f7ea 0fbf
00000190: 8b43 ccbe de0d 12bf a204 41be 8ee6 07bf
000001a0: 80e7 b0be 9f9a 8cbe 0b44 f1bd a931 06bf
000001b0: 098f b8be c343 d8be b14b d4be 8c37 b2be
000001c0: 310c 02bf 84a7 debe 7cde babe 5c2c d1be
000001d0: b7a1 bbbe c5bb 55be 7b31 fbbe 687f 44be
000001e0: e919 c2be 1cf8 bfbe 2bf2 ddbe ab99 91be
000001f0: 1df6 9bbe 304d cebe 29fb fcbe 1ded 4abe

lstm.weight_ih_l1 f4 [128, 32]
0.6169411 0.16313893 0.3131182 -0.17130578 0.23713875 -0.30120343 -0.27297798 -0.25705215
-0.09377179 0.17315584 0.04122273 -0.32411638 0.17687877 -0.0011042452 0.48012528 -0.30735177
0.2818444 -0.3267523 0.027508533 0.29696614 -0.29166934 0.442774 0.08334854 -0.013898444
0.3028866 -0.24021246 -0.28310168 0.23799492 0.064034596 0.28776452 -0.12883887 0.14562044
0.17077598 0.034711815 0.13618681 0.023120364 -0.14131889 0.2874053 -0.06850315 0.1875793
-0.10310855 -0.25778168 -0.23001322 -0.011247241 -0.16135319 -0.026804626 0.26974916 -0.10479524
-0.2714071 0.052638177 -0.0013331836 -0.19885157 -0.009003678 -0.022282682 0.043207377 -0.19848502
0.1466208 0.053089824 0.02342236 -0.17950164 -0.108142495 -0.10524125 0.118929215 0.06959473
0.09810147 -0.00940475 0.23623534 -0.1265094 0.09244444 0.08018737 -0.2738582 -0.3450323
-0.058200326 0.22743896 0.50537246 -0.06007391 0.042064317 0.46011677 0.4707297 -0.31009027
0.43158102 -0.32625645 -0.14070399 0.113227196 -0.29619485 0.16163312 0.26466846 -0.26809433
0.27555004 -0.256612 -0.33356258 0.17183405 -0.18838103 0.08630812 -0.27650633 0.21924758
0.04140896 0.017179254 0.13519455 -0.22936231 0.22646359 -0.2396558 -0.4262546 -0.08029643
-0.08365402 0.10464769 0.18587272 -0.33043003 0.21671523 0.33271876 0.440349 -0.24997453
0.54387754 -0.17357548 -0.43933308 0.076123476 -0.2724496 0.13126098 0.22679533 -0.022311311
0.2390541 -0.24446975 -0.21394417 0.16141655 -0.11317797 0.2137714 -0.12607652 0.3038851
0.4251353 -0.11593448 0.026830135 -0.33338693 0.5512814 -0.29445383 -0.15368812 0.08974014
-0.13266818 0.10318787 0.24325544 -0.2238775 0.15035167 0.21206093 0.16894273 -0.21034282
0.09022175 -0.19289285 -0.19881324 -0.02950901 -0.35971677 0.17325607 0.1936044 0.013446831
0.21698439 -0.13179037 -0.17094366 0.21951763 -0.11417102 0.042884864 -0.29080364 0.48493958
0.08963056 0.0019192316 -0.029861603 -0.16530952 -0.14549713 0.021923702 -0.25056192 -0.21992984
0.23211658 -0.39725783 -0.063059986 -0.014071338 -0.21731196 0.19215755 0.06160391 0.15136921
-0.008805086 -0.15447047 0.077997394 -0.12665796 -0.19428268 -0.01866765 -0.006781388 0.029526502
0.3113072 -0.04728701 0.08349722 -0.011723993 0.0035302192 -0.094584756 0.099460885 0.108603336
0.34437314 0.011379578 0.084556974 -0.43976292 0.2456779 -0.2450166 -0.12445847 -0.49485666
0.15325095 0.15537947 0.33058876 -0.08994599 0.26551852 0.17372757 0.3811961 -0.31431758
0.17708163 -0.15411085 -0.0017183395 0.22313844 -0.33199978 0.15579286 0.0046672868 0.11875221
0.5540186 -0.35248306 -0.38864705 -0.065604776 0.118394464 0.18001863 -0.116931975 0.20461322
0.45775107 -0.043870475 0.13817048 -0.2630588 0.2302023 -0.36231822 -0.47669992 -0.33178136
-0.31368527 0.06138911 0.24985807 -0.28494596 0.035742674 0.41092908 0.5078047 -0.14351073
0.38214287 -0.35471386 -0.39048433 0.030199662 -0.39194667 0.23599543 0.05804639 0.050293364
0.3151611 -0.14713545 -0.35116592 0.12599199 -0.23558766 0.33591026 -0.30691913 0.44107243
00000000: daef 1d3f e40d 273e 0751 a03e c86a 2fbe
00000010: 80d4 723e 5637 9abe c5c3 8bbe 579c 83be
00000020: 6d0b c0bd c44f 313e 2ad9 283d 95f2 a5be
00000030: b51f 353e 52bc 90ba fbd2 f53e 365d 9dbe
00000040: e94d 903e 144c a7be 9359 e13c f20b 983e
00000050: af55 95be 46b3 e23e a4b2 aa3d 4db6 63bc
00000060: f413 9b3e 41fa 75be b4f2 90be f1b4 733e
00000070: 9224 833d df55 933e 56ee 03be 861d 153e
00000080: e6df 2e3e fa2d 0e3d 8e74 0b3e eb66 bd3c
00000090: e6b5 10be ca26 933e 614b 8cbd ca14 403e
000000a0: 932a d3bd f6fb 83be 9688 6bbe 5946 38bc
000000b0: c539 25be 6095 dbbc 901c 8a3e e39e d6bd
000000c0: dff5 8abe 219b 573d 38be aeba bf9f 4bbe
000000d0: 2a84 13bc 2c8a b6bc 38fa 303d a83f 4bbe
000000e0: c323 163e b774 593d 40e0 bf3c 47cf 37be
000000f0: d079 ddbd b988 d7bd 2991 f33d af87 8e3d
00000100: 6ce9 c83d 6116 1abc ade7 713e ae8b 01be
00000110: 8353 bd3d 4739 a43d 2437 8cbe 13a8 b0be
00000120: 7763 6ebd c2e5 683e 1760 013f 0f10 76bd
00000130: a24b 2c3d 6d94 eb3e 7c03 f13e 27c4 9ebe
00000140: 30f8 dc3e 160b a7be b514 10be a9e3 e73d
00000150: daa6 97be 2783 253e a082 873e a943 89be
00000160: e514 8d3e a662 83be b7c8 aabe 44f5 2f3e
00000170: f5e6 40be 50c2 b03d 3d92 8dbe 7082 603e
00000180: 719c 293d 82bb 8c3c 7170 0a3e f4dd 6abe
00000190: 12e6 673e 5468 75be 0b3e dabe 7472 a4bd
000001a0: cd52 abbd 8751 d63d 6b55 3e3e 202e a9be
000001b0: 99ea 5d3e 1d5a aa3e 6d75 e13e 53f9 7fbe
000001c0: 8f3b 0b3f c5bd 31be 44f0 e0be a0e6 9b3d
000001d0: 847e 8bbe 4769 063e 093d 683e 36c6 b6bc
000001e0: 99ca 743e 4756 7abe 2e14 5bbe 614a 253e
000001f0: dac9 e7bd e4e6 5a3e 341a 01be d496 9b3e
00000200: 56ab d93e 0f6f edbd dfca db3c b1b1 aabe
00000210: c720 0d3f a7c2 96be 6b60 1dbe aec9 b73d
00000220: 2bda 07be 2954 d33d f417 793e 2540 65be
00000230: caf5 193e 8026 593e 53ff 2c3e 1c64 57be
00000240: 2ec6 b83d b485 45be b395 4bbe e1bc f1bc
00000250: cc2c b8be 0a6a 313e 3b40 463e 1950 5c3c
00000260: 2831 5e3e 0ef4 06be db0b 2fbe 3bc9 603e
00000270: 7fd2 e9bd 0aa8 2f3d 37e4 94be 004a f83e
00000280: 3a90 b73d ba8e fb3a 52a0 f4bc e646 29be
00000290: 33fd 14be 5699 b33c a749 80be 4a35 61be
000002a0: f8af 6d3e 6165 cbbe 9825 81bd 788b 66bc
000002b0: 0787 5ebe f3c4 443e 6254 7c3d 8800 1b3e
000002c0: 3543 10bc 822d 1ebe 19bd 9f3d a0b2 01be
000002d0: 0af2 46be e6ec 98bc 6836 debb 90e1 f13c
000002e0: a863 9f3e 06b0 41bd 9700 ab3d fe15 40bc
000002f0: 405b 673b a7b5 c1bd 26b2 cb3d 6d6b de3d
00000300: ad51 b03e 6971 3a3c 352c ad3d 9b28 e1be
00000310: fd92 7b3e a2e5 7abe 15e4 febd da5d fdbe
00000320: d1ed 1c3e cc1b 1f3e ee42 a93e 9a35 b8bd
00000330: 0bf2 873e a4e5 313e 232c c33e 3cee a0be
00000340: e354 353e 3ccf 1dbe e839 e1ba 677e 643e
00000350: e0fb a9be 2a88 1f3e 0af0 983b 5c34 f33d
00000360: 2ad4 0d3f a978 b4be bffc c6be cc5b 86bd
00000370: cc78 f23d ce56 383e 087a efbd 2186 513e
00000380: 595e ea3e 87b1 33bd 907c 0d3e a5af 86be
00000390: 27ba 6b3e c681 b9be 0312 f4be 3fdf a9be
000003a0: 5b9b a0be 2673 7b3d cbda 7f3e 70e4 91be
000003b0: e966 123d 4c65 d23e 7dff 013f 7af4 12be
000003c0: 3ba8 c33e 0e9d b5be 90ed c7be 4865 f73c
000003d0: 3cad c8be c9a8 713e 0dc2 6d3d 6a00 4e3d
000003e0: cc5c a13e adaa 16be 05cc b3be 0b04 013e
000003f0: e43d 71be 6efc ab3e 8124 9dbe 3fd4 e13e

lstm.weight_hh_l1 f4 [128, 32]
-0.14996645 0.09745565 -0.34998423 0.17653172 -0.2674239 -0.14609285 0.20110428 0.4154901
0.034033358 0.31631064 0.27434427 0.32226178 0.45667598 -0.13083155 0.27185476 -0.0939121
0.10424999 -0.19227509 -0.3042613 -0.26618537 0.16937545 -0.17810257 -0.11698453 0.14522769
-0.2641059 0.33971965 -0.19866051 0.37252206 -0.22992057 -0.12935609 0.018226119 -0.2858402
0.020350082 -0.6377 0.077369876 -0.07195846 0.38262853 0.058055393 0.009553824 -0.16575631
-0.19331843 -0.41098475 -0.15240608 -0.35043645 -0.087021716 0.37067366 0.07266819 0.22664443
-0.30207807 -0.22348487 0.106739976 0.38428652 -0.2273749 0.14735991 0.19204982 -0.31025296
0.2660692 -0.24006273 0.12459639 -0.025043609 0.060017582 0.24002412 -0.26235527 0.07126425
-0.00547987 0.14488268 -0.16144575 0.12399096 -0.23274648 -0.17781293 0.07827501 0.13779199
0.061953526 0.18454747 -0.09324781 0.16817762 0.27631876 -0.28430015 0.26084504 -0.05740978
0.093800716 0.012164706 0.0067788213 -0.16546026 -0.0003329441 -0.010628092 -0.09404164 0.45163703
-0.09310099 0.38804024 -0.25207558 0.18084252 -0.25646394 -0.21782021 0.23931837 -0.33035728
0.095283665 0.1612446 -0.20349795 0.17352137 -0.11608824 -0.14868467 0.22142607 0.046380505
0.14701138 0.16572942 0.029908039 0.062596895 0.09295309 0.038787723 0.08242624 -0.09213115
0.22704536 -0.10862592 -0.116463736 0.03222333 0.112904556 -0.18389288 -0.2483597 0.3328818
-0.15042454 0.02369423 -0.103518784 0.109490514 -0.30842453 -0.14048783 0.15048625 -0.13738266
-0.35107002 0.4443609 -0.4459565 0.24383591 -0.17412046 -0.34227493 0.18217841 0.39957625
0.06199981 0.16241814 0.045554955 0.17844905 0.37490064 -0.14065309 0.52667564 -0.1291509
0.25962952 0.049985792 -0.41167358 -0.20188725 0.22527692 -0.10054234 -0.32866108 0.28386632
-0.13113312 0.15793277 -0.33350253 0.14068742 -0.31278387 -0.1749775 0.32324386 -0.3102663
0.21907444 -0.16297615 0.02193842 0.020276828 0.2924512 0.51551884 -0.056678254 -0.35695532
-0.36289465 -0.2395212 -0.339438 -0.3543581 -0.1327015 0.12415225 0.04238473 0.076254204
-0.04506054 -0.37333757 0.121607244 0.22746508 -0.10372572 0.1993966 0.10841524 -0.23563087
0.23231184 -0.23766185 0.27486637 -0.04347692 0.21130644 0.027499054 -0.43214247 0.24544151
-0.3875256 0.19951673 -0.42996058 0.38486075 -0.4537997 -0.27824256 0.19803499 0.20262325
0.41450503 0.12412457 0.40404797 0.25225222 0.18683997 -0.35145202 0.41740927 -0.29337648
0.43547738 -0.04759656 -0.14780699 -0.46307617 0.029379837 -0.35689902 -0.24054103 0.32974535
-0.2947851 0.36641157 -0.33190927 0.25853005 -0.31264925 -0.2819482 0.37762588 -0.52296555
-0.45117554 0.39083552 -0.36865497 0.2882573 -0.27740166 -0.21382946 0.34875742 0.1271571
0.46197385 0.13330808 0.31940797 0.41340724 0.1875006 -0.27732766 0.26113597 -0.15572603
0.21835516 0.16517043 -0.42072037 -0.2571711 0.21736197 -0.29001972 -0.25827065 0.27235335
-0.38644937 0.36781302 -0.2956244 0.38717747 -0.5115709 -0.29220498 0.20140621 -0.4786361
00000000: ce90 19be d496 c73d 2231 b3be bbc4 343e
00000010: c9eb 88be 5d99 15be 48ee 4d3e 1ebb d43e
00000020: 9066 0b3d 78f3 a13e da76 8c3e 7fff a43e
00000030: 6fd1 e93e b5f8 05be 8c30 8b3e fd54 c0bd
00000040: 0581 d53d c3e3 44be 23c8 9bbe 7349 88be
00000050: c270 2d3e 8560 36be 9695 efbd 91b6 143e
00000060: e338 87be bcef ad3e a96d 4bbe 36bb be3e
00000070: 4c70 6bbe ec75 04be f14e 953c a659 92be
00000080: 37b5 a63c 4f40 23bf 1974 9e3d f55e 93bd
00000090: e3e7 c33e 7ecb 6d3d a487 1c3c 06bc 29be
000000a0: 44f5 45be 986c d2be 5710 1cbe 686c b3be
000000b0: 7138 b2bd f0c8 bd3e 0fd3 943d 7a15 683e
000000c0: faa9 9abe 38d9 64be 7d9a da3d 34c1 c43e
000000d0: f7d4 68be 84e5 163e b5a8 443e 7ad9 9ebe
000000e0: 393a 883e 01d3 75be 642c ff3d 4128 cdbc
000000f0: ffd4 753d e2c8 753e 6e53 86be fef2 913d
00000100: 7b90 b3bb 205c 143e 0952 25be f9ee fd3d
00000110: 1855 6ebe 9814 36be a64e a03d 5819 0d3e
00000120: fbc2 7d3d 03fa 3c3e b5f8 bebd c136 2c3e
00000130: a779 8d3e ca8f 91be 7b8d 853e 8426 6bbd
00000140: 971a c03d 7a4e 473c e020 de3b 6a6e 29be
00000150: 008f aeb9 7321 2ebc e798 c0bd f83c e73e
00000160: bbab bebd 36ad c63e 0d10 81be c82e 393e
00000170: 3e4f 83be 430c 5fbe e00f 753e 9724 a9be
00000180: 1524 c33d 4e1d 253e c461 50be 96af 313e
00000190: acbf edbd cb40 18be 84bd 623e 7cf9 3d3d
000001a0: 278a 163e f9b4 293e b401 f53c cd32 803d
000001b0: 315e be3d e0df 1e3d 17cf a83d 42af bcbd
000001c0: 947e 683e 4477 debd 8a84 eebd 9cfc 033d
000001d0: 813a e73d 6a4e 3cbe 0152 7ebe 7c6f aa3e
000001e0: e408 1abe 671a c23c a801 d4bd 903c e03d
000001f0: d2e9 9dbe 0bdc 0fbe 1119 1a3e 0aae 0cbe
00000200: 73bf b3be 4683 e33e 6954 e4be 1fb0 793e
00000210: a24c 32be a93e afbe fa8c 3a3e 4295 cc3e
00000220: 83f3 7d3d f150 263e d597 3a3d 59bb 363e
00000230: faf2 bf3e 5d07 10be 37d4 063f 2240 04be
00000240: 29ee 843e e7bd 4c3d e1c6 d2be 88bb 4ebe
00000250: feae 663e 24e9 cdbd 4446 a8be ed56 913e
00000260: c347 06be 21b9 213e d8c0 aabe 5d10 103e
00000270: 3525 a0be 4d2d 33be 3880 a53e 39db 9ebe
00000280: 0d55 603e 38e3 26be 34b8 b33c 971b a63c
00000290: 2abc 953e 0bf9 033f 7527 68bd d9c2 b6be
000002a0: 54cd b9be 0c45 75be d1ca adbe 6d6e b5be
000002b0: e7e2 07be 8943 fe3d 9c9b 2d3d 2a2b 9c3d
000002c0: 6791 38bd 1a26 bfbe 380d f93d 9bec 683e
000002d0: 266e d4bd 9f2e 4c3e cf08 de3d 3849 71be
000002e0: 28e3 6d3e a15d 73be 49bb 8c3e db14 32bd
000002f0: b760 583e b245 e13c c741 ddbe 0555 7b3e
00000300: c169 c6be 1d4e 4c3e cb23 dcbe 780c c53e
00000310: 6f58 e8be cf75 8ebe afc9 4a3e 787c 4f3e
00000320: 013a d43e 0635 fe3d 60df ce3e 3427 813e
00000330: fa52 3f3e 85f1 b3be abb6 d53e 7135 96be
00000340: e4f6 de3e 9cf4 42bd b75a 17be 5218 edbe
00000350: fcad f03c 78bb b6be 6350 76be 62d4 a83e
00000360: 13ee 96be 4c9a bb3e 03f0 a9be 0d5e 843e
00000370: 9013 a0be 845b 90be 2e58 c13e 12e1 05bf
00000380: 7b00 e7be 981b c83e 58c0 bcbe 7696 933e
00000390: 9707 8ebe 1cf6 5abe 5590 b23e 7935 023e
000003a0: d687 ec3e ea81 083e 7189 a33e 1daa d33e
000003b0: 2800 403e e4fd 8dbe 9db3 853e a576 1fbe
000003c0: 7f98 5f3e 7022 293e a968 d7be eeab 83be
000003d0: 2394 5e3e 777d 94be 0d3c 84be e671 8b3e
000003e0: b1dc c5be fd51 bc3e 155c 97be 203c c63e
000003f0: 4ff6 02bf e49b 95be 6e3d 4e3e ca0f f5be

lstm.bias_ih_l1 f4 [128]
-0.37015513 -0.28506887 -0.52878726 -0.37171546 -0.43202007 -0.0660875 -0.38953125 -0.23437402
-0.21108839 -0.15921675 -0.14763136 -0.18693967 -0.4196873 -0.36930585 -0.649504 -0.30054578
-0.33727485 -0.2770147 -0.4004326 -0.45971236 -0.43249953 -0.46050492 -0.23377477 -0.07832688
-0.3980312 -0.50462925 -0.41753188 -0.51591575 -0.3862294 -0.43535775 -0.24133056 -0.32270196
-0.87098694 -0.86528975 -0.40143773 -0.2869613 -0.691531 -0.49282205 -0.63121915 -0.21464422
-0.6364394 -0.7852157 -0.76662683 -0.74073046 -0.24975884 -1.0361997 -0.3098895 -0.8171306
-0.40484723 -0.85995394 -0.36133283 -1.0362846 -0.375989 -0.10434016 -0.58421785 -0.5176578
-0.5865153 -0.2747416 -0.18326908 -0.2312131 -0.43873483 -0.2805353 -0.9062327 -0.72591996
-0.095084324 -0.02459443 -0.12838806 -0.048415415 -0.013844944 0.10777774 0.14574765 0.081864715
0.08391223 -0.061946485 0.114419244 0.022038726 0.012425877 0.013765316 0.04455999 0.024242315
0.15210328 -0.015706712 -0.15141504 0.10579482 -0.021095237 -0.1334058 0.019920215 0.14603594
-0.11151903 0.14069629 -0.1571502 -0.008681545 -0.017374195 0.038802758 -0.045626946 0.05309006
-0.15560561 -0.33254173 -0.3364868 -0.2262478 -0.18911691 -0.3887688 -0.26436016 -0.31939703
-0.33044654 -0.45917058 -0.24533878 -0.6935769 -0.3278619 -0.2269828 -0.19243273 -0.3770299
-0.40134352 -0.32919288 -0.3941904 -0.34971932 -0.34444734 -0.15441789 -0.20290147 -0.7089979
-0.098084055 -0.27276257 -0.36606777 -0.26062924 -0.25242758 -0.3776302 -0.19636586 -0.3736621
00000000: f984 bdbe 8cf4 91be 9a5e 07bf 7d51 bebe
00000010: bc31 ddbe e258 87bd a470 c7be beff 6fbe
00000020: 8e27 58be b709 23be ad2c 17be 1d6d 3fbe
00000030: 41e1 d6be a815 bdbe e545 26bf 23e1 99be
00000040: 4aaf acbe dfd4 8dbe 8005 cdbe 6b5f ebbe
00000050: 9470 ddbe 4dc7 ebbe a762 6fbe d869 a0bd
00000060: bfca cbbe 622f 01bf bdc6 d5be 0e13 04bf
00000070: dcbf c5be 36e7 debe 5c1f 77be 3139 a5be
00000080: 00f9 5ebf a183 5dbf 3f89 cdbe 97ec 92be
00000090: 2d08 31bf 2c53 fcbe 9497 21bf b2cb 5bbe
000000a0: b1ed 22bf e503 49bf a841 44bf 83a0 3dbf
000000b0: c8c0 7fbe 31a2 84bf d6a9 9ebe 792f 51bf
000000c0: 2348 cfbe f125 5cbf 9e00 b9be f9a4 84bf
000000d0: a181 c0be 4bb0 d5bd 4d8f 15bf 3985 04bf
000000e0: de25 16bf eeaa 8cbe e4aa 3bbe 20c3 6cbe
000000f0: daa1 e0be 53a2 8fbe defe 67bf e4d5 39bf
00000100: 92bb c2bd 427a c9bc 2978 03be 3e4f 46bd
00000110: e7d5 62bc 93ba dc3d df3e 153e b0a8 a73d
00000120: 2dda ab3d 99bb 7dbd a354 ea3d 8f8a b43c
00000130: e895 4b3c ec87 613c 8984 363d d297 c63c
00000140: f6c0 1b3e 5dab 80bc 8b0c 1bbe f4aa d83d
00000150: ebcf acbc 889b 08be b82f a33c 728a 153e
00000160: 1764 e4bd b012 103e fbeb 20be 0a3d 0ebc
00000170: 5454 8ebc a4ef 1e3d 52e3 3abd f674 593d
00000180: 1457 1fbe e942 aabe ff47 acbe 81ad 67be
00000190: dda7 41be b40c c7be 375a 87be 0288 a3be
000001a0: 4a30 a9be 6818 ebbe 173a 7bbe 418e 31bf
000001b0: 84dd a7be 2e6e 68be 160d 45be 100a c1be
000001c0: e67c cdbe f88b a8be 53d3 c9be 690e b3be
000001d0: 675b b0be b91f 1ebe 67c5 4fbe e380 35bf
000001e0: 4be0 c8bd 89a7 8bbe 3c6d bbbe 3271 85be
000001f0: 303e 81be bf58 c1be 2214 49be a450 bfbe

lstm.bias_hh_l1 f4 [128]
-0.44942722 -0.22160582 -0.47154647 -0.5695433 -0.43264866 -0.23552974 -0.1317408 -0.312067
-0.38433358 -0.2905211 -0.41449565 -0.029712705 -0.6073975 -0.33978742 -0.45528024 -0.065242164
-0.28157514 -0.34317318 -0.3760072 -0.3916147 -0.17333375 -0.4207693 -0.4052761 -0.15962
-0.36598936 -0.6744813 -0.3080016 -0.34220442 -0.35061288 -0.34744382 -0.3822547 -0.39055628
-0.9533247 -0.8265725 -0.19181664 -0.33245108 -0.5773062 -0.52689564 -0.88794696 -0.2815046
-0.3556136 -0.84156626 -1.0035473 -0.877116 -0.37115303 -0.81366056 -0.27412015 -0.9126716
-0.424679 -0.95825475 -0.22151034 -0.9860768 -0.29573324 -0.26728442 -0.51849896 -0.5200061
-0.58889675 -0.29309958 -0.29613352 -0.17720088 -0.42444706 -0.29008278 -0.78237426 -0.57689667
0.08032842 0.05340274 0.09577274 0.07829473 -0.023036065 -0.14412369 -0.09666922 -0.059351552
-0.06585882 0.1025571 -0.11661952 -0.035317168 0.031918414 -0.015372137 0.0051175468 -0.050991233
-0.1073769 0.021350335 0.14661677 -0.1065492 0.037463173 0.08902347 -0.04373689 -0.06779938
0.09111879 -0.1304635 0.1304369 0.05312639 -0.0073613664 -0.06086038 0.058533214 -0.04815221
-0.13163662 -0.2647266 -0.27047893 -0.23938547 -0.18168144 -0.30377197 -0.28391686 -0.15572953
-0.43801302 -0.48723745 -0.5301926 -0.4604165 -0.042931248 -0.27837697 -0.23230919 -0.40827525
-0.34142697 -0.6219851 -0.17386135 -0.41139892 -0.14374647 -0.35725152 -0.27001384 -0.65516835
-0.41915196 -0.173958 -0.17596538 -0.08076674 -0.28037056 -0.20378917 -0.21054614 -0.37574828
00000000: 531b e6be a3ec 62be 8a6e f1be 97cd 11bf
00000010: 2084 ddbe b52e 71be 0fe7 06be 3fc7 9fbe
00000020: 5fc7 c4be 2ebf 94be c638 d4be 0f68 f3bc
00000030: 677e 1bbf 9ef8 adbe 7e1a e9be af9d 85bd
00000040: 9e2a 90be 65b4 afbe 0484 c0be b981 c8be
00000050: 677e 31be 136f d7be 5980 cfbe 6d73 23be
00000060: f562 bbbe ceaa 2cbf 63b2 9dbe 6b35 afbe
00000070: 8883 b3be 28e4 b1be e3b6 c3be fef6 c7be
00000080: 160d 74bf 419a 53bf 956b 44be 0737 aabe
00000090: 57ca 13bf a2e2 06bf 7e50 63bf 5f21 90be
000000a0: fc12 b6be e370 57bf 3d74 80bf ad8a 60bf
000000b0: c507 bebe 0f4c 50bf 7a59 8cbe d9a4 69bf
000000c0: 876f d9be 2f50 75bf 9bd3 62be 876f 7cbf
000000d0: 596a 97be 81d9 88be 59bc 04bf 1f1f 05bf
000000e0: f0c1 16bf 2611 96be d09e 97be 2674 35be
000000f0: 2051 d9be bb85 94be ae49 48bf 80af 13bf
00000100: 3a83 a43d d5bc 5a3d 8024 c43d fd58 a03d
00000110: 21b6 bcbc 2995 13be 83fa c5bd 9d1a 73bd
00000120: fde0 86bd 7509 d23d 37d6 eebd bca8 10bd
00000130: e2bc 023d 6adb 7bbc 18b1 a73b 2fdc 50bd
00000140: 6ce8 dbbd e6e6 ae3c b522 163e 7836 dabd
00000150: fc72 193d f051 b63d 7425 33bd 67da 8abd
00000160: 7d9c ba3d 3998 05be 4091 053e 0f9b 593d
00000170: 9e37 f1bb bc48 79bd 86c0 6f3d 403b 45bd
00000180: c0cb 06be 3f8a 87be 377c 8abe 7721 75be
00000190: b30a 3abe 0088 9bbe 8d5d 91be 9077 1fbe
000001a0: 3e43 e0be 3077 f9be b4ba 07bf b6bb ebbe
000001b0: add8 2fbd 6d87 8ebe 76e2 6dbe 7409 d1be
000001c0: 84cf aebe 6a3a 1fbf b608 32be e1a2 d2be
000001d0: 4632 13be ace9 b6be 413f 8abe 1db9 27bf
000001e0: 169b d6be 0c22 32be 4530 34be 0869 a5bd
000001f0: bb8c 8fbe 1cae 50be 6899 57be 1462 c0be

linear_2.weight f4 [1, 64]
0.30580035 0.20243183 0.27908525 -0.29350027 0.29439056 -0.29798418 -0.2523949 -0.31506088
-0.23806876 0.25517207 0.29471785 -0.22806697 0.28286687 0.28975978 0.2935703 -0.30819258
0.30665815 -0.29037973 -0.28630328 0.2674975 -0.30165127 0.32981312 0.25813055 -0.14448716
0.32668787 -0.30673283 -0.29915828 0.22820637 -0.20466945 0.24109775 -0.25605455 0.26757357
-0.2521525 0.24070211 -0.2873246 0.2686235 -0.2607462 -0.21825007 0.22226588 0.25461394
0.2616585 0.26946068 0.24450965 0.22317201 0.30086526 -0.24818973 0.2974514 -0.25030786
0.25477093 0.24984111 -0.28768465 -0.23536538 0.2509985 -0.28740776 -0.27547014 0.21348508
-0.2508036 0.29186332 -0.28662986 0.2575551 -0.2979927 -0.28351656 0.25815058 -0.27948642
00000000: dd91 9c3e 4a4a 4f3e 43e4 8e3e ab45 96be
00000010: 5cba 963e 6291 98be e839 81be a94f a1be
00000020: 4cc8 73be eaa5 823e 42e5 963e 638a 69be
00000030: edd3 903e 655b 943e d94e 963e 6bcb 9dbe
00000040: 4c02 9d3e a7ac 94be 5896 92be 6ff5 883e
00000050: 0972 9abe 44dd a83e b029 843e 71f4 13be
00000060: a243 a73e 160c 9dbe 462b 99be eeae 693e
00000070: de94 51be 54e2 763e 9519 83be 67ff 883e
00000080: 221a 81be 9d7a 763e 361c 93be 0589 893e
00000090: 8780 85be f27c 5fbe ab99 633e c25c 823e
000000a0: 1af8 853e c0f6 893e bd60 7a3e 3487 643e
000000b0: 030b 9a3e 7325 7ebe 8d4b 983e 5a28 80be
000000c0: 5671 823e 59d6 7f3e 674b 93be 9f03 71be
000000d0: e082 803e 1c27 93be 6c0a 8dbe d59b 5a3e
000000e0: 5469 80be 1c6f 953e 26c1 92be 43de 833e
000000f0: 8092 98be 1529 91be 502c 843e d818 8fbe
