stock_models/AAPL.pth (torch, 271554 bytes, 11 tensors)

linear_1.weight f4 [64, 4]
00000000: 3b6f 40be f92d 323e c8ae b1bb e181 97bd
00000010: 9415 2f3c 434e 0d3b 45a7 2c3c 8b2e 2c3c
00000020: d125 493e 5a92 dc3c d294 cdbd 033a 1f3e
00000030: 993f 8dbd f4e3 d7bb d636 b7be 931d 29ba
00000040: 399b b2b8 5bd0 baba 6bcf 61bb 479d f93a
00000050: 98af 4e3c 903d debc f1ff 9dbe 51f3 a33c
00000060: 3f0d 3d3e 7a4d 593c 3503 833e 2592 c03d
00000070: 58a4 d43e 31ed e6bd 6186 013e 6ab4 e93d
00000080: d98e 64bb bd8a 423b b07d 48bb d6d4 40bb
00000090: 3065 c03e 69d9 753e 0095 ae3d be2e 8fbd
000000a0: 6a55 823a 2fb8 0a3a 00f9 8e3a 705b 623a
000000b0: f546 303c 8bbf e7ba 6f4d 323c 1a1e 433c
000000c0: 8ba5 3b3c c800 b2bd c615 a6bd f1ce a43d
000000d0: ac72 d033 a319 aeb3 ace1 3db4 4026 1db5
000000e0: b987 a8be 5349 14be 091a c93d c4cb 7c3e
000000f0: ddbd 6ebe c6ed ae3b a5e2 a83d fd44 1c3e
00000100: 6baa 7938 a77d 1fba 79b7 1439 dea6 7fb8
00000110: cc32 41bd ac85 aabe 2213 28be f7f4 8cbd
00000120: 2657 bcb9 a3e6 1a39 b505 edb9 27cc 08ba
00000130: 552f d23e 5141 703d c75b 0ebe 16bb cc3d
00000140: 54e2 a3be b52d 79bc f83f 86be 6bd6 afbe
00000150: 3cee 423c 2a99 c1ba ed63 3e3c 3bc4 303c
00000160: 1be7 80be c954 443c bcfc 033d 499b a6bd
00000170: 1a64 24ba d27d bbba 959a 19ba 428b 1cba
00000180: 00d7 19ba 021f 17ba f1ae 13ba 0aa3 58b9
00000190: 4d67 e13e 26c9 8f3e 3f70 9b3e 4fb8 7f3e
000001a0: ba93 1fb9 8820 6cb9 8364 1fb9 9679 e8b8
000001b0: 8fc6 87be 9125 0a3c 55c1 95be 3e9b 9cbd
000001c0: 5c7f a13e 9f5b f63c b81b 61be 854b 273e
000001d0: cd36 133e 6699 71bd 2ae4 363e 5671 9cbd
000001e0: cc84 0abe 2b38 733e 6721 c8be 0c64 86be
000001f0: ac48 ba3c 4d12 53bc da7b bd3c 728c bc3c
00000200: 21ad 1dbe 26e6 673d b3ae 3cbe 1c2f 9d3d
00000210: 5213 e43b 9745 a2ba cee5 dd3b dda7 d03b
00000220: a112 a13e e8d9 6b3d e797 8b3e e65e a4be
00000230: 0d3e 863d 1f3b 74be 1963 6c3d 94c1 e7bd
00000240: 878a 84ba 8b17 623a df73 85ba 686f 88ba
00000250: a7c5 42bb 2eb2 ef3b 48f5 43bb b9ed 55bb
00000260: 220b ce3e 4977 683e e185 3c3e 1726 38be
00000270: 6740 82bd 53f2 093e 6d7c 37bd b946 9e3d
00000280: 5625 f93e 18bd 82be 0dc2 cb3e cd5c 48be
00000290: ee2a 3d3c 8c08 edbb 5840 423c 6812 413c
000002a0: 756a 19bd 494e a5bd 10f1 03be e5fa dc3d
000002b0: ad63 ec3d 8a4f 033d 65c4 a53e 1478 a93e
000002c0: 5bf9 c53e 00a9 76be 54aa 9a3e 4056 8d3e
000002d0: c5db bc3e f498 633c 1c9a 863e 4b0d 4dbe
000002e0: 492e 8aba 8a4b c7b7 ea28 a1ba 1f8c b1ba
000002f0: d3b8 96bd 1bda 50be 55bf c1be 4941 52be
00000300: 1b3a eab8 e4d6 93b9 2c35 14b8 1da9 2f39
00000310: efbb 1fbc 70ef 25bd 82f2 3e3d 32ce 14bd
00000320: 0705 f8bd 7f96 193e 94ec e5be ddac e0bd
00000330: 96d8 183c 8136 97ba 46cf 1a3c 44e8 2b3c
00000340: 68d0 c7be 9115 8ebd 95fa f8bd 08b5 babc
00000350: 9e92 9fb9 fd76 f337 d80a 96b9 462e 1fb9
00000360: 9d0e 5ebe 1420 2dbe 4697 50be 4275 59be
00000370: f389 f8b9 5230 12bc 5fef a739 4db5 c53a
00000380: 959d 3aba 5c5f 1bb8 3682 2cba 4b52 11ba
00000390: d35a a1be 77a0 043e a6e4 7c3c b85f 5ebe
000003a0: f532 943e b815 c23c eb7e d5bb e6ec 68be
000003b0: 1da7 39bb 0054 44bb 6c1b 2cbb 1dc9 1abb
000003c0: 821d 4dbb da07 e13a bf85 49bb 9e04 43bb
000003d0: 58b5 34bb 4e9f 0a3a eca8 2ebb 9657 1cbb
000003e0: f858 e4ba 922f 113b 6345 d5ba 1488 8dba
000003f0: 1d21 b23e b8bb 11bd fa64 063d 1140 643e
-0.18792431 0.1740035 -0.005422447 -0.07397819 0.010686297 0.002156154 0.010537927 0.010509144
0.19643332 0.026925255 -0.10038151 0.15549473 -0.06896896 -0.0065884534 -0.35784024 -0.0006451245
-8.516614e-05 -0.0014252769 -0.0034455906 0.0019044065 0.012615107 -0.027128965 -0.3085933 0.020013483
0.18462084 0.013263101 0.25588384 0.09402875 0.41531634 -0.112757094 0.12648918 0.114113644
-0.0034875183 0.0029684745 -0.0030592494 -0.0029423735 0.375772 0.24008717 0.08524513 -0.06991337
0.0009943668 0.0005291728 0.0010907948 0.0008634841 0.010759105 -0.0017680986 0.010882719 0.011909032
0.011453043 -0.08691555 -0.08109622 0.080472834 9.7066135e-08 -8.10717e-08 -1.7684096e-07 -5.854272e-07
-0.32916048 -0.14481096 0.09819419 0.24687105 -0.23314615 0.0053384034 0.08246354 0.15260692
5.952494e-05 -0.00060840923 0.00014182729 -6.0952145e-05 -0.047167584 -0.3330511 -0.16413549 -0.06882661
-0.00035923085 0.00014772503 -0.00045208415 -0.00052184094 0.41051736 0.05865604 -0.13902198 0.09996621
-0.32008612 -0.015208651 -0.2622068 -0.34343275 0.01189762 -0.0014770378 0.011620504 0.0107889725
-0.2517632 0.011983105 0.03222345 -0.08135087 -0.000627102 -0.0014304465 -0.00058595213 -0.0005971679
-0.00058685243 -0.00057648134 -0.0005633673 -0.00020660102 0.44024125 0.28083152 0.30359074 0.24972652
-0.00015218454 -0.00022518833 -0.00015200865 -0.00011085269 -0.26518676 0.008431808 -0.29249063 -0.076467976
0.3154248 0.030072985 -0.2198323 0.16337402 0.14376374 -0.058984183 0.17860475 -0.076388046
-0.1352722 0.23751895 -0.39087984 -0.26248205 0.02273973 -0.012882781 0.023130346 0.023016188
-0.15398075 0.05661597 -0.18426017 0.07675001 0.006960311 -0.0012380359 0.0067717796 0.006367667
0.31459525 0.05758086 0.2726433 -0.32103652 0.06554804 -0.23850678 0.057711694 -0.11316219
-0.0010112085 0.0008624724 -0.0010181627 -0.0010409178 -0.002971986 0.007314942 -0.0029900838 -0.0032642914
0.4024287 0.22701754 0.18410446 -0.1798328 -0.0635994 0.13471346 -0.044796396 0.07728333
0.48661298 -0.25534892 0.39796486 -0.1956665 0.01154588 -0.007233685 0.011856161 0.011784174
-0.03745504 -0.08071572 -0.12884927 0.10790042 0.11542449 0.032058276 0.323764 0.33099425
0.38666806 -0.24087906 0.30208075 0.27604866 0.3688642 0.013891447 0.2628945 -0.20024602
-0.0010542359 -2.3757824e-05 -0.0012295519 -0.0013545788 -0.07359471 -0.203957 -0.37841287 -0.20532717
-0.000111688125 -0.0002819813 -3.533547e-05 0.000167523 -0.009749397 -0.04051155 0.046617992 -0.036329456
-0.12110334 0.14998816 -0.44907057 -0.10970471 0.009328982 -0.0011536629 0.009448832 0.010492388
-0.3902619 -0.06937707 -0.1215717 -0.0227914 -0.00030436082 2.9023266e-05 -0.0002861831 -0.0001518066
-0.21685262 -0.16906768 -0.20370206 -0.21236137 -0.00047405026 -0.008922653 0.00032031068 0.0015083939
-0.00071188185 -3.704369e-05 -0.0006580682 -0.00055435736 -0.31514606 0.12951837 0.015435373 -0.21716201
0.28945127 0.023691997 -0.006515374 -0.2274662 -0.0028328367 -0.0029957294 -0.0026261462 -0.0023618408
-0.0031298106 0.0017168478 -0.0030749885 -0.002975739 -0.002757391 0.00052880205 -0.0026650978 -0.0023855916
-0.0017421534 0.0022153598 -0.0016271289 -0.0010798001 0.34790888 -0.035579413 0.032811143 0.22290064

linear_1.bias f4 [64]
00000000: 1922 41be 8221 75ba 805a b1be 257a a23e
00000010: 9bf3 0abc 643b f1bc 619c 27be c1fb cd3e
00000020: de7c 22bc 9b20 a5be e497 52bc 4bbf 80bb
00000030: 2f21 57bc 45d0 6ab9 083d c23d c786 203c
00000040: 48fa c6bb aaef 02be 1c1d 0bbb 0c79 a83e
00000050: f431 fd3d a31b 79bc 3522 623e e85f 0dbc
00000060: c876 d9bb 801d bdbd 0ad1 a9bb 4f61 74be
00000070: 64bd 14be 73d8 0ebd d07a e3be 2396 1a3b
00000080: 0cef 1bbe 8d51 99bb 85ba 67be daf1 f5bd
00000090: 495f cbba 912b c1ba 1b3a 443e 487a 19be
000000a0: c20f d03e 2e77 d9bb 5259 363e 3c3a 0abe
000000b0: 9dbc 813e 2d26 1e3e c7e0 a2bb 7107 6d3d
000000c0: 9c01 babb 747d 9cbd dcdb 4dbd f84c adbb
000000d0: 392e 673e 377e 28ba afd5 323e 4a34 1bbc
000000e0: 0741 62bb 9d42 18be eeb7 abbd 07f8 65bc
000000f0: 6f4e 02bc b606 0ebc 801f 83bc a00f 083d
-0.18860663 -0.00093510014 -0.3463936 0.31733814 -0.008480932 -0.029447265 -0.16368248 0.40231135
-0.009917466 -0.32251438 -0.012853596 -0.003929054 -0.01313047 -0.00022393565 0.09484297 0.009797758
-0.0060723163 -0.12786737 -0.0021227067 0.3290485 0.123630434 -0.015204343 0.22083361 -0.008628823
-0.0066364743 -0.09234142 -0.00518239 -0.23865245 -0.14525372 -0.03487439 -0.44429636 0.0023588024
-0.15227908 -0.004678911 -0.22629745 -0.1200902 -0.0015516068 -0.0014737715 0.1916279 -0.14988053
0.40637022 -0.006636522 0.1780751 -0.13498777 0.25339213 0.1544425 -0.004970643 0.057868425
-0.0056764614 -0.07641116 -0.050258502 -0.0052887164 0.22576226 -0.0006427499 0.17464326 -0.009472916
-0.0034523623 -0.14869161 -0.08384691 -0.014036185 -0.00795327 -0.008668592 -0.016006231 0.033218026

lstm.weight_ih_l0 f4 [256, 64]
00000000: e8fd 393b 7002 f8bb b19b 823c 60bb 2ab9
00000010: 08db 0eb9 8a14 373b fce8 c83c 9de0 0fbb
00000020: 8d9b f337 9e47 e93c 517b 98ba 7530 a9bb
00000030: fac7 62bb 321f 302b b2aa 5abc 9258 2f3b
00000040: f10f 13b7 0a74 0abd 1045 d6b5 a3a3 203d
00000050: 91c5 5e3c 141b 673b 1fb9 493a 1027 88b9
00000060: 6565 2f33 d74b 9f3d a41c 9731 6d08 053c
00000070: d5b5 883c d51d 5a3c fedb 3d3c 8402 6e3c
00000080: 4abb 2a3b d647 91bb c0dc d03c bb65 8dbc
00000090: dc8c 5a3a f690 15bb c2f7 003d 1fb6 cb39
000000a0: c6a6 5dbb 8518 b23b 078a acba 7af0 c83c
000000b0: 079b 383c 77fa ca3c daf2 cc32 6009 443a
000000c0: fe4f d737 2755 60bb 3bd5 7e3c 4703 84bb
000000d0: 4ced 3f3b f73a aab3 63cd ae3a 81b5 3cbb
000000e0: 1bdd 12b4 9c8c 2e3c e653 183c 670d 12b8
000000f0: b800 aab9 723f 3537 69be ceb7 dcd2 013d
00000100: b3fd eeb9 ff66 69bb 4bca 233c c754 1a3a
00000110: 9cb5 c638 5d82 1e3b e69c 963c b123 153d
00000120: cc68 93b7 00e9 ca3c b18d f9ba 866e 3bba
00000130: f2af c8bb 6b0a 912a 0386 41bc 48e2 583b
00000140: 4556 4a38 f6ba d5bc 9c7b 5a35 4e76 d03b
00000150: 363a 003c 40a7 7538 1b91 4a3a bebe 2cb9
00000160: 6194 b2b3 6f71 1c3d eea1 10b3 a1eb d43b
00000170: 8605 173c ebab d43b 3528 ec3b f719 313c
00000180: 295a 123a a459 d73a 597e 953c 9572 9fbc
00000190: ca6a e439 2e2b 18ba b7cd c93c 79bf 11bb
000001a0: 312b 34bc 6e2f 373b 4fba c1bb 2631 0e3d
000001b0: ae59 993c 710e ab3c fada 2132 074c bf3b
000001c0: 1f1a d136 36ee 81bb e4c3 233c f379 c438
000001d0: 4641 603b 0b51 1cb5 2474 a33b d24a 2abb
000001e0: a8b1 aeb1 c945 df3b 3f2c 813b d565 1bb9
000001f0: f2ac 4239 44f0 4c36 6906 1138 babd 923c
00000200: 8550 a8bb 5392 563b 6767 103b 3fe9 e5b9
00000210: 25fc bdb8 ac39 74ba 9bce d73b ed31 3f3b
00000220: 06fb b438 0315 673b 6ed5 a4ba ec52 513b
00000230: 4267 33bb 0e59 02aa 4449 0cbb 47e4 0fba
00000240: 5c93 bbb6 70df 35bc f80b 9c34 de3b 553b
00000250: 0587 643b 2950 643a cfb2 a7ba 58f4 6d38
00000260: 7221 0233 dcaf 873c bcaa 5731 9ed1 933a
00000270: 745f 333b 4de0 2b3b 9c72 2aba ae5d c43b
00000280: 6257 d2ba 26a5 393b 0c84 b93b 3c66 08bc
00000290: e6a6 953a 9bd8 35ba 8d9d c83b 74cb 97ba
000002a0: 5ee8 b03b 4b77 143b 7a82 00bb 19f9 183c
000002b0: 312f da3b dbcb fb3b 241e c531 6c91 573b
000002c0: 362d 9ab7 0626 f1ba cdc1 e23a 3c44 4c3b
000002d0: 14b7 ea3a 705f 5135 1efc 673b 4464 08bb
000002e0: c1e9 97b4 7c21 863a 19b3 ac3b a519 9e38
000002f0: cc02 24b9 2ed3 a9b6 2e74 a136 5957 f63b
00000300: 1e50 a7ba 321a 86ba 4076 863c a5e9 0bba
00000310: 9a2e 0d39 7256 a03a 783e d63c 9109 b93b
00000320: 4ecd 7db8 9512 ed3c a37c e839 6a1d d4ba
00000330: 456d 8dba 9cc6 8e2a 5a6c e7bb 704a 2b3b
00000340: 1c57 72b5 9c93 a4bc 90e4 2db3 85e0 633c
00000350: e442 c53b 8040 663b ce94 b8b7 cd3d b438
00000360: 85bf d7b3 d234 603d 2904 c5b2 fb00 823b
00000370: 5ccd 863c c11e 573c bce6 533b 6024 5e3c
00000380: 9e44 273a f386 083b 889a cc3c f4ee 33bc
00000390: 33fe 5f3a b70e e2b9 b260 c43c 0517 863a
000003a0: 1400 2c3b 8bd1 b93b ed27 94bb afef e43c
000003b0: 04dc 043c 60eb ee3c 7c7e e9b1 e9be c33a
000003c0: 50c9 7133 f35d 5fbb 154f bd3b 5feb 30ba
000003d0: 5fba 0b3b 133d 1c34 fbfd 083b d988 9fb7
000003e0: 719e 9334 5001 873b ae38 273c 8653 a2b8
000003f0: 7687 a539 8fdb 9936 c982 d037 72a8 b53c
0.00283801 -0.00756865 0.01594338 -0.00016282266 -0.00013623771 0.0027935826 0.024525158 -0.0021953948
2.9040291e-05 0.028476533 -0.0011633431 -0.005163247 -0.0034604059 6.2571053e-13 -0.013346361 0.0026755673
-8.765594e-06 -0.03380207 -1.5964342e-06 0.039218556 0.013596908 0.0035263943 0.00076951267 -0.00025969045
4.083758e-08 0.07778137 4.3979345e-09 0.008119685 0.016688267 0.013312777 0.011588095 0.014526967
0.0026051574 -0.0044336123 0.025495887 -0.017260423 0.000833703 -0.0022822 0.03148628 0.00038854868
-0.0033821329 0.005435052 -0.0013163694 0.02452873 0.01126743 0.024777634 2.3859162e-08 0.00074782036
2.5667247e-05 -0.0034230442 0.015553768 -0.004028711 0.0029285727 -7.9269675e-08 0.0013336356 -0.0028794708
-1.3677747e-07 0.010653641 0.009297347 -3.4821594e-05 -0.00032425462 1.0803213e-05 -2.464578e-05 0.03169523
-0.00045583918 -0.003561437 0.009996961 0.00058872666 9.475203e-05 0.002418659 0.018385362 0.03641099
-1.7572565e-05 0.024769306 -0.001903942 -0.0007149953 -0.00612449 2.5764403e-13 -0.011811736 0.0033093859
4.8240898e-05 -0.026090126 8.1391204e-07 0.0063617593 0.007826379 5.8568316e-05 0.0007727311 -0.00016474255
-8.315761e-08 0.038194116 -3.3674887e-08 0.0064978157 0.0092176255 0.006490221 0.0072069415 0.010809413
0.0005582893 0.0016429913 0.018248724 -0.019463817 0.00043567113 -0.0005804774 0.024634225 -0.002223937
-0.010996626 0.0027951854 -0.0059121023 0.03471484 0.01871952 0.02088091 9.421223e-09 0.0058379206
6.2317263e-06 -0.0039651645 0.009995434 9.368723e-05 0.0034218594 -5.823246e-07 0.0049882103 -0.0025984538
-5.0842637e-09 0.006813739 0.003942042 -0.00014819887 0.00018565709 3.0538222e-06 3.4576664e-05 0.017912734
-0.005136552 0.0032741025 0.002203429 -0.00043852066 -9.059188e-05 -0.0009316455 0.0065859086 0.0029174045
8.6298256e-05 0.0035260327 -0.0012575814 0.0031940294 -0.002737478 -1.1577217e-13 -0.0021405974 -0.0005489033
-5.590189e-06 -0.011100635 2.9065973e-07 0.0032536904 0.0034870517 0.00087094546 -0.0012794378 5.6732766e-05
3.0298402e-08 0.016563348 3.138367e-09 0.0011277681 0.0027370127 0.0026226223 -0.00065020635 0.005992613
-0.0016047771 0.0028327196 0.005661493 -0.008325156 0.0011417537 -0.0006936879 0.006122297 -0.001158102
0.005398794 0.0022654112 -0.001960902 0.009336733 0.0066584577 0.0076842136 5.736881e-09 0.0032893075
-1.8379284e-05 -0.0018398173 0.0017300189 0.00311686 0.0017907345 7.7997447e-07 0.0035398076 -0.0020811716
-2.829602e-07 0.0010233368 0.0052703735 7.538804e-05 -0.000156413 -5.061177e-06 4.811699e-06 0.007517737
-0.0012764966 -0.0010231195 0.016413808 -0.0005337245 0.00013464168 0.0012232794 0.026152834 0.0056468924
-6.0511105e-05 0.028939525 0.0004434335 -0.0016183082 -0.0010790011 2.536208e-13 -0.007062477 0.0026136898
-9.0278786e-07 -0.020089917 -4.0487578e-08 0.01390851 0.006019937 0.003513366 -2.2003802e-05 8.59458e-05
-1.0046555e-07 0.054737873 -2.293571e-08 0.003967402 0.016455345 0.013129891 0.0032333573 0.013558477
0.0006380769 0.002083239 0.02497603 -0.010982264 0.00085446535 -0.00043117043 0.02397189 0.0010230249
0.0026245164 0.0056707314 -0.004521361 0.027946321 0.008109096 0.02916497 -6.795572e-09 0.0014934215
5.6295278e-08 -0.0034083098 0.0057772496 -0.000674894 0.0021320803 1.4550851e-07 0.0020903337 -1.9018002e-05
2.7496165e-07 0.0041200295 0.010206385 -7.7403194e-05 0.0003157218 4.5853153e-06 2.4856434e-05 0.022175048

lstm.weight_hh_l0 f4 [256, 64]
00000000: e87f a6bb 3a40 47bc 43c9 0ebc d905 2c3c
00000010: 010e 153c 0412 ebbb 9ed2 5c3c 1a30 863b
00000020: c542 943b b378 7a3b cc61 caba 80b4 a8bb
00000030: f9c0 343b 5b23 033a 25e7 76bc 4ca1 35bc
00000040: 4f55 9d3b a89f fc3b fa4f b7bb e337 05bc
00000050: fb43 9b3b 9c49 6e3b 9706 73bb 7588 ba3b
00000060: d7a6 ad3b 06e0 f1bb 99f2 4e3b 93fb cd3b
00000070: b484 1a3c 51ab c3bb a46a 493b e0e1 08ba
00000080: 6bcd 0fbc 28b8 17bc 1972 e1bb 4fe8 033b
00000090: 8f5e 40bc 0398 2fbc 09fb 9abb 3c2d 65bc
000000a0: b1fc 0d3c 9e46 98bb c4f1 2abc 4df1 bb3b
000000b0: e02f cfbb 001f 193c 69fd 48bb 4188 033c
000000c0: 9833 213c 51d2 d53b e71c 673b 7d7c 893b
000000d0: 06d2 11bc 49c5 d4bb 3782 a73b f4f8 97bb
000000e0: 5149 ff3b 9045 ce3b dcb2 113c 9807 cebb
000000f0: a795 ce3b f1bf dbba 1db6 583b 6b1b 133b
00000100: ab6a b0bb 1962 cdbb 7e96 bdbb 27c5 d13b
00000110: 1f81 af3b fefd 75bb 14aa e43b c05d ec3a
00000120: 154b 1b3b 983c 003b f913 6fba d9fe 8fbb
00000130: cabf 4d3b 3dfc 0ebb c497 16bc 2448 ddbb
00000140: cb44 133b 75fc 783b 4069 3cbb 9856 cabb
00000150: f3d3 6b3b ee0c ec3a 1041 3cbb 70e9 5c3b
00000160: 778f 3f3b 9301 85bb 9c55 103b a0ac 843b
00000170: 3c93 8f3b d05c 14bb 1807 0c3b da95 09b9
00000180: b25f a5bb 522a 9fbb 1932 9dbb 3902 373b
00000190: a525 ecbb 1f73 bbbb 9826 20bb 5e49 02bc
000001a0: e5e2 6c3b 5f31 6dbb 31cb cdbb 370d 6c3b
000001b0: 0baa 42ba f29f 9a3b c371 4aba 890b b33b
000001c0: b899 ba3b e125 3e3b 6e29 333b 46be 563b
000001d0: d0fa b4bb 0eae 52bb 5814 373b 57f7 31bb
000001e0: 9a69 8b3b 6d94 9a3b 26fb 9e3b 5006 63bb
000001f0: ea31 503b fcab 07bb 3ada 0f3b 755f 0e3b
00000200: 18ed 923a 8459 463a a6ec 2fba 18f9 5eba
00000210: 550f e0b9 b708 2f3b 2a18 aab9 ddd3 33ba
00000220: 1e4c c5ba ea9b d6ba c65e de3a a984 f23a
00000230: fe60 55bb acd5 6e3a 164a 3439 20f2 883a
00000240: 117a b3ba 9f04 60ba ebaf b53a c515 d939
00000250: f7d6 a7ba 9ece a0ba 8865 9a3a 5b6c 90ba
00000260: 2047 cbba 9e01 f939 6229 44ba d90d 9eba
00000270: 9db4 8aba 391a f63a 4288 ccba 5821 963a
00000280: c847 c339 f673 55b9 1714 b53a fbe5 b5ba
00000290: c12c 363a 9e37 7b3a 3a19 2b3b 51fe 223a
000002a0: 7f8e 63ba 40cf 0739 082c 193a a828 62ba
000002b0: 4e77 b63a db33 a1ba a2d1 fd3a 9845 ecba
000002c0: e1af 1bba 294d f6ba 5105 ffba fbd9 52bb
000002d0: aa6d 5b39 72bf c23a f08a d3ba 27bc 723a
000002e0: 2123 49ba a32d 54ba 8b74 02ba ef68 693a
000002f0: 9658 0139 ae40 b63a 654a 91ba 037a 34bb
00000300: 0fe7 2e3a 5f96 1bbb e18f beba de4c d23a
00000310: c100 5a3a 7c6e 103b 5d80 3c3b 0de0 50bb
00000320: 342f c4ba fcb2 0dbb 7fd1 6a3b 6cfc f43a
00000330: 8cca 2ebb a7da 4a3b 770d 37bb dec5 2dba
00000340: d6a0 e2ba 6096 0cba 97dc fc3a c79d 91b8
00000350: 8cd6 86ba 9f16 64bb b9c3 143b 21bd b4ba
00000360: 706a 22bb 5bb9 ea39 2926 39bb 7f4b 46bb
00000370: d8bc d0b9 9bae 4f3a 30dc d7ba 49b1 993b
00000380: 706a f0ba 6535 23ba 2007 edb7 9644 50bb
00000390: a8d2 1cbb 0a1c e5ba 24d9 143b 6e28 31bb
000003a0: a14c 9f39 198a ce3a 1972 2eba a42d c6ba
000003b0: 5df1 01bc d2b6 5eba 4b8c bc3b e80b cbb9
000003c0: 2587 813a 0b2b 15bb 0e70 3abb caf8 d4bb
000003d0: e675 01ba 01a1 09ba 6124 05bb 9539 123b
000003e0: b434 bbb9 6bcc e7b9 7aa5 7d39 f6b8 0f3b
000003f0: 67a7 d7ba b1f4 643b 5280 5ebb 160d a2bb
-0.0050811656 -0.012161309 -0.008714977 0.010499441 0.009097577 -0.0071737785 0.013477949 0.0040950896
0.004524561 0.0038218915 -0.0015440523 -0.0051484704 0.002758084 0.0005002522 -0.015069758 -0.011085819
0.0048014293 0.007709462 -0.0055942507 -0.008131 0.0047383285 0.0036359793 -0.0037082785 0.0056925365
0.00529943 -0.007381442 0.0031577705 0.0062860935 0.009431053 -0.0059713502 0.0030733729 -0.0005221646
-0.008777003 -0.009260215 -0.0068800566 0.002012748 -0.0117412945 -0.010717395 -0.0047296328 -0.0139878355
0.008666203 -0.00464709 -0.010433618 0.0057355524 -0.006322846 0.00934577 -0.0030668622 0.008028091
0.009838961 0.006525316 0.003526503 0.0041957484 -0.008900171 -0.006493245 0.0051119584 -0.004637832
0.0077907224 0.0062949136 0.008892741 -0.0062875263 0.006304461 -0.0016765577 0.0033067532 0.0022446762
-0.0053838096 -0.0062677977 -0.0057857623 0.006401676 0.0053559686 -0.0037535424 0.0069782827 0.0018033311
0.0023695875 0.0019567367 -0.00091201026 -0.004394394 0.0031394833 -0.0021817826 -0.009191457 -0.0067529846
0.0022471424 0.0037992273 -0.0028749257 -0.0061748736 0.0035984486 0.0018009224 -0.0028725304 0.0033708476
0.0029229799 -0.0040590256 0.0022023683 0.004048899 0.0043815654 -0.0022638328 0.0021366533 -0.00013121162
-0.005046808 -0.00485734 -0.004797232 0.0027924909 -0.007206636 -0.0057205106 -0.0024437066 -0.007952062
0.0036145982 -0.0036192758 -0.006280326 0.003601862 -0.0007425851 0.004718774 -0.00077226403 0.0054640216
0.0056945942 0.0029014277 0.0027337926 0.003276722 -0.0055230632 -0.0032147202 0.002793571 -0.0027155483
0.004254532 0.0047174008 0.0048517166 -0.0034641214 0.0031768032 -0.0020701876 0.0021950142 0.0021724377
0.0011209575 0.00075664395 -0.00067109836 -0.0008505746 -0.00042736033 0.0026708075 -0.0003244293 -0.0006859878
-0.0015052592 -0.001637337 0.00169655 0.001850267 -0.0032559033 0.0009110819 0.00017193737 0.0010448135
-0.0013692995 -0.00085456105 0.0013861632 0.00041405685 -0.0012805153 -0.0012268608 0.0011779526 -0.001101862
-0.0015508868 0.00047494186 -0.0007482973 -0.001205857 -0.0010582391 0.0018776126 -0.0015604573 0.0011454029
0.0003724678 -0.00020356462 0.0013815191 -0.0013877744 0.0006949418 0.0009583178 0.0026107565 0.00062177057
-0.00086805964 0.0001295181 0.0005843048 -0.0008627274 0.0013921054 -0.0012298779 0.0019364844 -0.0018026112
-0.0005938989 -0.0018791306 -0.001945654 -0.0032173384 0.0002092632 0.001485808 -0.0016139429 0.0009259604
-0.0007672776 -0.00080939586 -0.00049764727 0.0008903881 0.000123354 0.0013904774 -0.0011084793 -0.0027538545
0.00066720037 -0.0023740751 -0.0014538729 0.0016044637 0.00083161524 0.002203851 0.0028763034 -0.0031871826
-0.0014967681 -0.0021621576 0.0035830436 0.001869095 -0.002667102 0.003095308 -0.002793161 -0.0006628911
-0.0017290364 -0.0005362984 0.0019291815 -6.943527e-05 -0.0010287329 -0.0034803522 0.0022699668 -0.0013789275
-0.002478268 0.0004477006 -0.0028251505 -0.0030257402 -0.0003981355 0.00079224416 -0.0016468819 0.0046903235
-0.0018342268 -0.0006225913 -2.825592e-05 -0.0031779162 -0.0023929272 -0.001747967 0.0022712434 -0.0027032155
0.00030383936 0.0015757709 -0.0006654575 -0.0015119803 -0.007931081 -0.000849587 0.005754029 -0.00038728048
0.0009882195 -0.0022761251 -0.0028448137 -0.0064993845 -0.00049385277 -0.00052501267 -0.0020315873 0.0022312154
-0.00035706686 -0.00044212057 0.00024189605 0.0021930314 -0.0016453088 0.0034935887 -0.0033950997 -0.0049454076

lstm.bias_ih_l0 f4 [256]
00000000: aed6 0abd ab64 bf3c b53d c5ba 3d79 d6bc
00000010: affd 9abb a6a6 263c ace5 c53b 4f9e b8bb
00000020: 3bd8 5bbb 14a9 11bc ca2d b6bb 4a76 2f3c
00000030: fc50 74bc 36f5 b7bb 10d0 53bc 575d a6bc
00000040: 9489 87bb 589a 4ebb ba90 37bc 5240 01bb
00000050: 4fa7 f2bb 41bd c8bb 81a7 0fbc 1cad dcbb
00000060: a391 bcbb f951 36bc 0071 1dbc 63b2 e4bc
00000070: 1f59 a03c 55e2 d03c c9aa 39bc 5df0 e2bb
00000080: 00c5 03bc 5752 e5bb 33d4 1abb a827 a7bc
00000090: 88f5 953b 10cd 4dbb 36b3 11bc ffa8 66bc
000000a0: f17c 10bc 6f5f 18bc acd5 d13a ba6b a5bb
000000b0: d8d0 7e3c 2df3 61bc e7e2 d8bb 7b8f 413a
000000c0: ba8b fcbb 6903 673c b255 7a3d ff0b 813d
000000d0: 92cd a1bb 1b03 47bc a2b5 15bc 43d3 7ebb
000000e0: 00d0 f5b7 3515 17bc f0db 38bb 91e9 c1bb
000000f0: 4522 a6bb af7d c8ba 920b e2bb 13d0 54bc
00000100: 1175 fdbc 1187 5cbc 892a bdba 7990 acbc
00000110: 0aef 2cbc 3adf b9bc fbc2 05bd a62f 6ebc
00000120: 966c 78bb ffe2 28bc b087 3bbc a064 963c
00000130: 156a 693c deb0 37bb 7824 d33a a660 a3bc
00000140: 352b 1fbc 7431 85bb c211 8bbc 26b7 35bc
00000150: 63a3 85bc b537 6fbb ea27 71bc b3fb 28bc
00000160: 33bc b8bb 7d98 a1bc 00e0 3cbc fb43 3abd
00000170: 2e56 1d3c 29df 623c 4341 84bc 7c08 1bb9
00000180: d294 23bc dd77 21bc 71a8 13bc dc1a fabc
00000190: fa66 3ebc 52f6 e1bc 7326 86bc 2693 60bc
000001a0: d618 1bbc e3a5 2ebc ce7c 9fbc 5d89 96bc
000001b0: b221 a63d 2f00 8abc e311 a4bb 7c24 84bc
000001c0: 14c0 53bc 6da6 a1ba 3f97 fcbc c0ef a93d
000001d0: 6a1a 0dbc a414 90bc 9cd7 e4bb 5d68 07bc
000001e0: 8937 fcbb 53c3 71bc ea72 1ebc 47bd 28bc
000001f0: 9199 91bb 9363 14bc d4f1 c5bb 1615 b03c
00000200: f027 e43d afb0 703d 7ffc 773c f2d6 d1bd
00000210: d7cb 63bd ea03 953d 2747 b2bd f08f 92bc
00000220: 71a6 97bc 8117 383c 1cb3 733c dfbc 043c
00000230: 023b 8b3c 9d13 4ebd 87d5 313d 50a6 3b3c
00000240: 0ff5 083d 4069 7fbd 6f70 2e3c 231f 3ebb
00000250: 7f11 693c 8c6c db38 f47b f138 d3b1 f0bc
00000260: 2739 02bd 9eef 1fbd ee72 03bd c7f6 233d
00000270: 11bb b63c 6f29 683d 8a85 f1bc 1e9b 1c3d
00000280: a6ac 3bb9 6c88 b5bc 33bc b3bc 918f 36bd
00000290: 0213 4b3b a91c a93d c08a ce3c 8e66 da3c
000002a0: 5d62 1dbd 5bf4 683d 8578 52bc 7cb2 f43b
000002b0: bd49 473d a1b7 3c3d 2f84 163d 7846 29bd
000002c0: 4d94 02bd 07e1 443c 03e3 cabc 8ecf 3e3c
000002d0: 9d9b 293d db92 043d 2503 bcbc f164 eb3a
000002e0: aa45 cb3b dc19 00bd 6310 77bd 84f7 ba3c
000002f0: 89f6 493b c652 bb3c fe3e 08bc 9af0 963d
00000300: 910a 6c3d 4c82 30bc 3681 243a 6f4a 8ebb
00000310: 1bd0 dcbb 6d20 13bc 0ca8 913c 45f2 b5bb
00000320: 2369 15bb 06c8 0bbc 7baf d0bb 0dfd 163d
00000330: 1db8 283d c815 98bb 9105 92bc 71c9 4d3c
00000340: f1e2 98bb 2618 76ba 115d 34bc dddb f5b9
00000350: 0755 92bb 80c1 c4bb 9da9 2dbc e3b6 b7ba
00000360: 5195 d2bb 5395 a8bb a018 24bc 8356 263d
00000370: 601f 8138 812a c43c 8f39 39bc 8f94 86bb
00000380: 567f 1abc 998b ccbb 0411 5ebb 6a55 9a3d
00000390: 1f45 82bc 1853 f1bb 9898 08bc 5a2c 3ebc
000003a0: 3000 e3bb 93a3 00bc 62e7 c5ba 96a9 1cbb
000003b0: 4491 d13d cc84 ea3b b5b2 96b9 af11 9fba
000003c0: 3ab4 0ebc acb6 a03c a901 333d 22fa bf3c
000003d0: a06c aabb 5350 4fbc 4649 06bc 686e 92bb
000003e0: ea2e 543a 8dc2 23bc b303 f4bb 8032 57bb
000003f0: 24ec 77bb 86f7 63ba eace c5bb d19e 1e3d
-0.03389614 0.023363432 -0.0015048297 -0.026180858 -0.0047299485 0.010171568 0.006039342 -0.005634106
-0.0033545631 -0.008890409 -0.0055596577 0.010709355 -0.014911886 -0.005613948 -0.012928024 -0.02030818
-0.0041362736 -0.0031525102 -0.011203939 -0.0019722176 -0.0074051986 -0.0061260764 -0.008767963 -0.0067345034
-0.005754666 -0.011127942 -0.009609461 -0.027917093 0.019573746 0.025498549 -0.011332222 -0.006925626
-0.008042574 -0.006998341 -0.0023625016 -0.020404652 0.0045763887 -0.0031402744 -0.008892825 -0.014078378
-0.008818851 -0.009300097 0.0016009114 -0.0050482424 0.015552722 -0.013790888 -0.0066188457 0.0007383746
-0.0077070864 0.014099934 0.06111688 0.06301116 -0.004937836 -0.0121467365 -0.009137543 -0.0038883246
-2.9303133e-05 -0.009221365 -0.0028207265 -0.005917736 -0.005070003 -0.0015296246 -0.006898352 -0.012989062
-0.03093961 -0.013459937 -0.0014432232 -0.021064984 -0.010555038 -0.02268945 -0.03265665 -0.014537727
-0.003790652 -0.010308026 -0.011445925 0.018358529 0.014246483 -0.0028029005 0.0016108891 -0.019943547
-0.009714891 -0.004064733 -0.016976241 -0.011091029 -0.01631326 -0.003650171 -0.014718989 -0.010313916
-0.0056376695 -0.019726032 -0.011528015 -0.045474987 0.009603066 0.013847151 -0.0161444 -0.00014785113
-0.009984212 -0.009855238 -0.0090123275 -0.030530386 -0.011621231 -0.027583275 -0.016375756 -0.013706958
-0.009466371 -0.010659668 -0.019468691 -0.018376047 0.081118956 -0.01684579 -0.005007015 -0.016130678
-0.012924213 -0.0012332924 -0.030833839 0.08297682 -0.008612255 -0.017587967 -0.0069837105 -0.008264628
-0.00769705 -0.014756042 -0.009670952 -0.0102990335 -0.0044433554 -0.0090569435 -0.006040791 0.02149443
0.1114043 0.05876225 0.015135883 -0.10246076 -0.05561432 0.07276137 -0.087049775 -0.0178909
-0.018511983 0.0112360725 0.014874246 0.008101671 0.01699591 -0.050311673 0.043416526 0.011453226
0.03343683 -0.062356234 0.010646923 -0.0029010258 0.014225363 0.00010462952 0.000115148636 -0.029381668
-0.031792786 -0.039046876 -0.032092027 0.040030267 0.022305997 0.05668014 -0.029482622 0.03823387
-0.00017898026 -0.022159778 -0.021940326 -0.04457051 0.0030986671 0.082574196 0.025212646 0.02666023
-0.038423885 0.05687366 -0.012846117 0.007467566 0.048654307 0.04607356 0.036747154 -0.04132697
-0.031879712 0.012016541 -0.02476645 0.011646165 0.04140817 0.032366615 -0.022950718 0.001795916
0.006203373 -0.03127466 -0.060318362 0.022823103 0.0030817112 0.022866618 -0.0083158 0.0737011
0.057627264 -0.010773253 0.00062753574 -0.0043423693 -0.0067386753 -0.008979899 0.017780326 -0.0055525624
-0.0022798262 -0.008531576 -0.006368575 0.03686242 0.04119121 -0.0046412684 -0.01782492 0.012560234
-0.0046657254 -0.00093877537 -0.011008517 -0.00046893852 -0.0044657025 -0.0060045123 -0.010599521 -0.0014016296
-0.0064264913 -0.005144754 -0.010015637 0.040609848 6.1570434e-05 0.023946049 -0.011305227 -0.004107065
-0.009429773 -0.0062422273 -0.0033884654 0.07535823 -0.0159021 -0.007364642 -0.008337162 -0.011607254
-0.0069275126 -0.007851499 -0.0015098865 -0.0023904792 0.10232785 0.007156944 -0.00028743377 -0.0012136007
-0.008709962 0.019618355 0.043702755 0.023434702 -0.0052009374 -0.012653428 -0.008196181 -0.004468728
0.0008094149 -0.009995115 -0.00744673 -0.0032836497 -0.003782996 -0.00086962467 -0.006036629 0.038725678

lstm.bias_hh_l0 f4 [256]
00000000: 0e20 02bd 843b 59bc df24 6d3a dc4e e4bc
00000010: bd76 20bc 6a8d 12bc 9f22 cdbc 5c43 b9bb
00000020: 1319 5cbb 638e 11bc 11aa b6bb d02b 493c
00000030: 826d 643d 9c62 b5bb f7fa cabc c4cb 313b
00000040: 171f 88bb 1e78 92bb 853a 3cbc 5963 0ebb
00000050: 76b1 edbb f679 a4bb 7daa 0fbc 340c aebb
00000060: 7ed0 d4bb 3855 6cbc ae42 1cbc 68c8 4fbc
00000070: b31d ba3c 45a5 0bbc efd7 39bc cfa7 bebb
00000080: c2c5 03bc 787f e6bb d60e 1bbb fe8b 9a3d
00000090: 0acb af3b 850e 56bc 827c 1dbc c26b e13b
000000a0: 9a5c 1cbc 4e20 f0bb e5da 03bc dade 98bb
000000b0: 2d52 703d 8165 c83b 2cea c8bb f8bf d4bb
000000c0: 1df2 08bc 669e b83b ff3d b3bb d6f1 b1bc
000000d0: ed4e 9bbb ed8d 2ebc 3f8f b1bb 820a 7fbb
000000e0: c482 abbb ed2b 13bc 7f3e 913a 7800 a3bb
000000f0: 8f89 a6bb 3f05 d2ba 2eeb e5bb 4854 6cbc
00000100: c145 2b3d 6093 0cb7 9704 63bb 8edf d8bb
00000110: 2937 1abc 580d f2bc 28a8 c9bb 7259 6ebc
00000120: 12d6 7cbb ae77 2bbc a2ee 3abc b824 ce3c
00000130: a76a f93c 898b 55bb 64b5 70bc f609 1cbc
00000140: c1ca 1ebc 4950 dabb 75ed 79bc e37b 37bc
00000150: abe6 85bc fbb5 e9bb 3ef2 70bc aab0 81bb
00000160: 74a7 d2bb f998 7bbc f009 3cbc 8751 b83c
00000170: 4941 87bc 10b0 893b b58d 81bc d588 2cbb
00000180: 2e94 23bc 06d8 2fbc 6f09 14bc 856e 593d
00000190: 089e 5fba addc 03bd 6a1c 42bc 27bb a5bc
000001a0: d6eb 17bc 5ed7 26bc 4bea 36bc ccd5 8abc
000001b0: c904 cb3d 44e6 f6bc 376a 22bc a3e1 70bc
000001c0: 9b36 4fbc 39b7 9a3b f8aa 303d 7dfb 27bd
000001d0: ff21 11bc ecac 7cbc b4eb 0dbc 667e 07bc
000001e0: 1361 41bc 3200 6abc 0296 76bc 02e9 48bc
000001f0: 2a00 91bb 01cb 01bc 66ff bcbb a1ab febc
00000200: 2510 08bd 310e 923b 566d db3c 6bc4 113c
00000210: 933f 563d 1198 9fbd fd5b f43c 98ba 7a3b
00000220: 49e0 593c d7bd c73b 6a15 94ba cfef 553d
00000230: 7768 a5bd 4702 b73c ec04 063c f305 a9bc
00000240: d1b4 15bd 1e6e 4f3d 0060 25bb cbc3 4a3c
00000250: de1a 94bb 9388 b83c 2a2b 193c abac 383d
00000260: 8725 a43c bd5b 2fbd c05a 543d d97c d7bd
00000270: b03a 2238 10f9 acbb 4ea0 303d d133 63bd
00000280: 5efb 5fbc febe 3f3b 7710 c53c bcf7 20bc
00000290: ac6b 2e3d 0c69 3a3d 888d 8fbc f0e0 7ebc
000002a0: d495 5c3d 2259 3cbd 120e febb a442 54bc
000002b0: 048e 4a3b 4c83 53bd 79f4 87bd ed08 843c
000002c0: 2aee 533c bb8f 893d 3b05 163d 3f8c b0bd
000002d0: 1e72 e0bc 8c45 11bd 4800 843d 741a 613b
000002e0: 5fe2 bbb9 7e45 9e3b df7e db3c b35c a0bc
000002f0: e7c5 003c ec72 5bbc c127 f13c b92d b1bd
00000300: 8cfa 0fbd 240b 8b3c dbd0 bdbb 97ec 663c
00000310: 207f f3ba 0801 c83b 54a2 48bc ee36 b4bb
00000320: d7de 17bb ca0e 0bbc 371e d2bb 0a58 49bc
00000330: be6c 623d aa64 68bb dbf1 043c dfef 96bc
00000340: aa62 8cbb b49c d8b8 74fe 17bc 24e6 77b9
00000350: f453 96bb c938 11bc 7daa 2dbc 113b e5b9
00000360: ea1e e3bb ecb6 0a3b f442 25bc 1557 6e3d
00000370: 1118 ca3b 9fb9 0ebc b91d 3dbc 61fd b5bb
00000380: f582 1abc 49c2 c0bb 5a6d 5fbb 4655 a93d
00000390: 073d 80bc c090 11bc 129b 0dbc 3365 18bc
000003a0: eb82 cebb 6e02 14bc a2a3 15bc 9aa1 1abb
000003b0: 7afb f73d 59f0 833a 72e6 63bb 9509 bbbb
000003c0: 861e 04bc 9f81 a03c 6882 aa3c 4a84 233d
000003d0: 0359 babb 9f1a 34bc 7a95 efbb 7a3e 92bb
000003e0: 3613 88bb 909c 25bc 08bd f539 4611 6abb
000003f0: ef47 78bb dca5 a5ba 86ab c5bb fca0 983c
-0.03176885 -0.013258819 0.0009046327 -0.027869634 -0.009793934 -0.008944849 -0.025040923 -0.005653782
-0.0033584281 -0.008884045 -0.0055744727 0.012278512 0.055768497 -0.005535437 -0.024777872 0.002712951
-0.004154097 -0.0044698855 -0.0114885615 -0.0021726696 -0.007253821 -0.0050194217 -0.008768675 -0.0053115133
-0.006494581 -0.014424615 -0.009537382 -0.012682058 0.02271924 -0.00852329 -0.0113429865 -0.005818344
-0.008042755 -0.0070342384 -0.0023659966 0.07546233 0.0053647803 -0.013064985 -0.0096122045 0.006879301
-0.009543562 -0.00732807 -0.008047794 -0.004665238 0.05867212 0.006115616 -0.006131431 -0.006492611
-0.008358506 0.005634117 -0.005470037 -0.021721762 -0.0047396333 -0.010653955 -0.0054186876 -0.0038916175
-0.0052340943 -0.008982641 0.0011081247 -0.004974421 -0.005082316 -0.0016023292 -0.007016561 -0.014424391
0.04181457 -8.378964e-06 -0.0034640187 -0.0066184467 -0.009412565 -0.029547378 -0.006154079 -0.014547693
-0.0038579744 -0.010465546 -0.011409434 0.025163993 0.030446364 -0.003258439 -0.014691684 -0.009523859
-0.009691895 -0.006662403 -0.015254368 -0.0111989705 -0.016345343 -0.0071322895 -0.014706193 -0.0039578276
-0.0064286534 -0.015356296 -0.011476979 0.022499813 -0.016510623 0.0042018965 -0.015814641 -0.0026326675
-0.009984059 -0.010732656 -0.009035452 0.053083915 -0.00085303234 -0.032192875 -0.011847595 -0.020230843
-0.009272536 -0.0101831835 -0.011164258 -0.01694765 0.09913022 -0.030139096 -0.009913019 -0.0147022335
-0.012647296 0.004721549 0.0431318 -0.041011322 -0.008858203 -0.015422087 -0.008662153 -0.008269882
-0.011802929 -0.014282273 -0.015050413 -0.012262585 -0.0044250684 -0.007921935 -0.0057677506 -0.031087698
-0.03321852 0.004457258 0.026785534 0.008896927 0.052306723 -0.07792676 0.02982902 0.0038258191
0.013298103 0.0060956287 -0.0011297886 0.052230652 -0.08076566 0.022339953 0.008179884 -0.02063272
-0.036549393 0.050642125 -0.0025234222 0.012375782 -0.0045198044 0.022526061 0.00934867 0.045086544
0.020037426 -0.042812098 0.05184436 -0.1052186 3.8678467e-05 -0.005278714 0.04312163 -0.055469338
-0.01367077 0.0029258127 0.024055703 -0.0098246895 0.042583153 0.045510337 -0.017523542 -0.015556559
0.053853825 -0.04598344 -0.007753142 -0.0129553415 0.0030907402 -0.051638886 -0.06638426 0.016117537
0.012935201 0.067168675 0.036626082 -0.086205 -0.027398165 -0.035466716 0.06445366 0.0034348043
-0.0003583608 0.0048300615 0.026793895 -0.019575452 0.007859684 -0.013394099 0.029437901 -0.08651299
-0.03515105 0.016973086 -0.00579272 0.014094493 -0.0018577315 0.0061036386 -0.012245733 -0.005499712
-0.0023173594 -0.008487413 -0.0064122933 -0.012289057 0.055279486 -0.003546039 0.008114303 -0.018424926
-0.0042842226 -0.00010328871 -0.009276975 -0.0002364149 -0.0045876447 -0.008863636 -0.01059973 -0.00043722292
-0.0069311755 0.002116616 -0.010086764 0.058188517 0.0061674197 -0.008711248 -0.011542731 -0.0055538868
-0.009430637 -0.0058825356 -0.0034092278 0.08268218 -0.0156541 -0.008884609 -0.008642929 -0.0093014715
-0.0063022277 -0.009033782 -0.009133251 -0.0023594857 0.12108512 0.0010066136 -0.0034774807 -0.0057079294
-0.008063918 0.019593058 0.020814136 0.039921083 -0.0056868806 -0.010992675 -0.00731152 -0.004463014
-0.0041526807 -0.010108128 0.0004687088 -0.0035715862 -0.0037884673 -0.0012637931 -0.00603241 0.01863145

lstm.weight_ih_l1 f4 [256, 64]
00000000: ae3b 043c b3f6 b43b 9ed1 a93b a8f6 9fbb
00000010: 5850 abbb 4e41 083c 3204 b7bb 5dc6 00bc
00000020: 52c5 febb bfbf 00bc 432a 093c 3216 fc3b
00000030: 9811 05bc a718 253c 2586 783b e866 bb3b
00000040: 5801 c2bb b91c c8bb db8e f53b 8785 c33b
00000050: 10ec 01bc 297d 16bc 3d85 e63b 79f5 e3bb
00000060: ec4f efbb 0429 143c 1726 00bc 495b 18bc
00000070: 476d fabb d833 cd3b 100e ddbb b764 333c
00000080: dab1 b43b b5e7 af3b 87ad c33b 179d 37bc
00000090: fd3f b83b 379a 833b cd2b f03b d95d 853b
000000a0: 0092 cbbb ffcd e43b 259c c63b 3131 d4bb
000000b0: 8e1a 43bc 5f53 ffbb cccc 303c ace5 bebb
000000c0: 2cd3 b6bb 6543 08bc d9f0 18bc 2ce4 54bc
000000d0: 414c d03b 13e7 d13b 5c58 09bc ae1d ee3b
000000e0: f23e debb 1de1 d5bb ea89 8cbb e492 f43b
000000f0: dab2 05bc 793e 093c cbab 03bc 75be 2dbc
00000100: 1685 aa3b e429 213b 4f6c 0b3b d5b2 f3ba
00000110: 07b9 27bb 7705 ba3b bb9e e8ba 82ed b1bb
00000120: 999d b6bb 16f5 b6bb 69a2 da3b 798e ba3b
00000130: d0a0 dfbb d39c f63b 0aca 3739 9281 223b
00000140: 1b18 bcbb 0f46 90bb 35a0 9b3b 6ad3 5d3b
00000150: de8b b3bb 6c91 d5bb e7f2 b63b 0045 94bb
00000160: 5583 8fbb 7833 a93b 6f39 9bbb 3c57 e0bb
00000170: a648 8fbb abfc 793b 9c84 adbb 73b8 0e3c
00000180: c814 243b ee82 db3a 701a 583b a2d7 08bc
00000190: 6b43 193b a55d f23a 2f59 ae3b 3871 b33a
000001a0: 21d8 8bbb cb69 9e3b 4f61 2b3b d895 a6bb
000001b0: 6dd6 25bc 238b 9ebb dacf 0c3c 9834 74bb
000001c0: 2961 46bb f41b b7bb 4f50 f0bb 343c 3ebc
000001d0: a094 593b b0d8 833b 1e84 afbb 070c 893b
000001e0: 9f74 8dbb 92a2 90bb f0ac e2ba 56a3 9f3b
000001f0: d754 93bb 2051 df3b 4d05 b7bb d6bb 0abc
00000200: 5780 dc3b 983f 723b 200d 6f3b a56d 52bb
00000210: bd4f 8bbb 116e d63b 542f 6ebb f559 b0bb
00000220: 1aec aabb b470 b5bb c78f db3b 4e53 df3b
00000230: f69f f3bb d8ff 023c 148a f93a d831 873b
00000240: e422 9bbb 902d 86bb c1ff b63b 80a2 973b
00000250: cd68 c9bb 718c f0bb f7cd b73b b2ed 9ebb
00000260: 8d1a afbb b40e cf3b 8329 eabb 43f6 07bc
00000270: 6f75 c2bb ea1c 8c3b 3409 a3bb 847b 083c
00000280: 5091 493b 1b45 743b fff8 653b 6687 24bc
00000290: 3a10 4a3b f853 453b 0e40 933b 9e70 123b
000002a0: e0e4 94bb 2ecd a23b d278 963b 33d8 a2bb
000002b0: c8eb 35bc 7564 cebb 18d4 103c 7507 77bb
000002c0: 2ba3 4abb e681 d7bb 2e92 06bc f7da 4dbc
000002d0: 3e75 813b 76fa 513b 0ff8 d8bb f63e ab3b
000002e0: 4d1a b5bb 0e05 adbb 3223 1abb 4e4d bb3b
000002f0: aa74 c1bb 36b6 e53b 282c b5bb 13c7 19bc
00000300: fb49 3d3b 1271 bf39 749d 85b9 8869 beb8
00000310: e2fc 1dba b2f6 373b 2ec9 07b9 e2ca f9ba
00000320: c436 10bb 61b8 62bb 94ac 803b 2d56 403b
00000330: d119 88bb e806 9b3b 3716 0cbb ac2b 2eb7
00000340: 0d32 19bb 1e48 b0ba 274d 223b 4492 fe38
00000350: 8b29 1abb 931b 99bb b7e7 0b3b 242c 28bb
00000360: 67c8 49bb e4ff 253b 2ea4 80bb 66a7 89bb
00000370: 3f12 18bb b005 b83a 0707 04bb cb59 c23b
00000380: 1956 c1b9 4b4c 523a 12ba 243a fa40 cfbb
00000390: ae8f 90b9 0ecb dcb9 7cb8 2a3b 32d9 beba
000003a0: 2641 a6ba d5ce 173b b36d 953a 9485 16bb
000003b0: 32bc f0bb a878 26bb c071 c13b 8ff7 c5ba
000003c0: c433 edb8 5652 34bb 8897 8dbb 2fce 09bc
000003d0: fe9f c239 edf4 6d3a 090b 2dbb 4b01 fe3a
000003e0: 8edf 09bb 8e36 f5ba 702d f936 f56a 0f3b
000003f0: 9e47 53bb 87d5 693b 4ce9 3cbb 3d00 b6bb
0.008070869 0.005522573 0.005182459 -0.0048816986 -0.0052280836 0.008316351 -0.005585217 -0.0078597935
-0.0077749873 -0.007858216 0.008371892 0.0076930756 -0.00812187 0.010076678 0.0037921753 0.0057190545
-0.0059205703 -0.0061069396 0.0074938363 0.0059668454 -0.007929817 -0.009185114 0.007034926 -0.006956753
-0.0073032286 0.009042982 -0.007821581 -0.009299108 -0.0076424214 0.006262284 -0.006746061 0.010949305
0.0055143656 0.005368198 0.005971614 -0.011206887 0.0056228624 0.0040161866 0.00732944 0.0040700254
-0.006212473 0.0069825645 0.0060610943 -0.0064755906 -0.011908187 -0.007791921 0.010791015 -0.005825719
-0.005579373 -0.008316849 -0.009334766 -0.012993854 0.0063567464 0.00640572 -0.008382883 0.0072667217
-0.006782406 -0.0065270797 -0.0042889016 0.0074638 -0.008160317 0.008376711 -0.008036564 -0.0106044905
0.0052038534 0.002459162 0.0021274274 -0.0018592725 -0.0025592463 0.005676921 -0.0017747501 -0.0054299245
-0.0055729863 -0.0055834157 0.006672193 0.0056932536 -0.0068245903 0.007526019 0.00017527505 0.0024796468
-0.0057401783 -0.004402883 0.004749323 0.0033847936 -0.00547932 -0.00651758 0.0055831554 -0.004524827
-0.0043796697 0.0051636063 -0.004737071 -0.0068463366 -0.004372674 0.0038144987 -0.0052953493 0.008710968
0.00250368 0.0016747394 0.0032974742 -0.008352192 0.0023386132 0.0018491043 0.00532069 0.0013690358
-0.004267708 0.004834389 0.002615053 -0.0050837807 -0.010121924 -0.0048383637 0.008594478 -0.0037262794
-0.0030270314 -0.005588049 -0.0073337923 -0.011611033 0.003320016 0.004023634 -0.005356326 0.004182342
-0.004316881 -0.004413911 -0.0017293971 0.004871766 -0.0044961977 0.006815091 -0.0055853487 -0.008467635
0.0067291665 0.0036964174 0.003647633 -0.003210881 -0.004251449 0.0065438827 -0.0036344128 -0.0053818175
-0.005216134 -0.005537117 0.006700489 0.0068153506 -0.0074348403 0.007995568 0.0019038343 0.004125815
-0.004734384 -0.004094787 0.0055846875 0.004627526 -0.0061465264 -0.0073409607 0.0056092697 -0.004850113
-0.0053437413 0.0063188914 -0.007146062 -0.008298459 -0.0059344093 0.0042759078 -0.0049754623 0.00833023
0.003075678 0.0037272635 0.003509104 -0.010042047 0.0030832426 0.0030109864 0.00449372 0.0022344957
-0.0045438856 0.004968307 0.0045920396 -0.0049696206 -0.011103578 -0.0062985965 0.00883963 -0.0037693654
-0.003092001 -0.0065767644 -0.008213563 -0.012564412 0.003950744 0.0032040155 -0.0066213678 0.0052260114
-0.005526817 -0.0052801436 -0.0023519513 0.0057160025 -0.0059038 0.0070102466 -0.0055289455 -0.009385842
0.0028883207 0.00036514603 -0.00025485049 -9.079563e-05 -0.0006026757 0.0028070626 -0.00012949549 -0.0019057656
-0.00220053 -0.0034594762 0.003926823 0.002934824 -0.004153468 0.004731048 -0.0021375546 -1.0381376e-05
-0.002337578 -0.0013449227 0.0024765225 0.00012138908 -0.0023523297 -0.0046724766 0.002134783 -0.0025661075
-0.0030789615 0.0025329525 -0.0039258217 -0.0042008637 -0.0023204235 0.0014039781 -0.002014579 0.0059311143
-0.00036875976 0.0008022233 0.000628383 -0.0063248845 -0.0002757287 -0.00042112957 0.0026049903 -0.0014560579
-0.0012684211 0.0023164053 0.0011400491 -0.0022967802 -0.0073466534 -0.0025401507 0.0059034526 -0.0015103685
-0.00011310683 -0.0027514896 -0.0043210424 -0.008410974 0.00037121767 0.00090773293 -0.0026404283 0.0019379047
-0.002103779 -0.0018708275 7.426068e-06 0.002188382 -0.0032238732 0.003568025 -0.002882558 -0.0055542276

lstm.weight_hh_l1 f4 [256, 64]
00000000: 9f01 b9b8 cf8a e339 4a5f a6b9 27b6 b1b9
00000010: 537f 2739 6772 a1b9 428f 1db8 7933 c43a
00000020: d0f2 ce39 9056 72ba 8026 d5b8 95b0 48b9
00000030: 9324 4aba b93e 033a 1abe 5fb8 e8ca ea3a
00000040: a261 98b7 ebb7 1b3a 12a4 b5b9 d360 e6b9
00000050: d298 05b9 1909 17b9 0e5f 6a39 0986 61ba
00000060: ce38 8a39 e953 243a 0043 c0b8 3024 e938
00000070: 44d7 1739 8379 d938 82b0 9839 971a 073a
00000080: a79e 87ba 0f65 8839 77b7 1fba 6dbd 5ab8
00000090: a458 9a3a 4de1 b1ba 90a1 133a 7ae4 4539
000000a0: ffd7 3a3a a759 2dba 25a2 aab9 5b9f 503a
000000b0: 0ad1 633a 35b7 5fba 7002 83b9 4469 9fba
000000c0: 5932 113a c043 d035 4025 abb9 e6b0 3bba
000000d0: 6a84 d6b9 2c11 9d37 6085 7438 8aa3 d539
000000e0: 63b3 acba a0cc eab6 267e 3f39 1c0b 8e3a
000000f0: 7f9b a6b9 686d 16ba d824 e1ba 1b78 76b8
00000100: 870e 883b 5c83 54bb 2cbe 9cbb 6571 723b
00000110: af36 ac3b 1c0b 563b e940 84bb afe7 20bb
00000120: 2006 55bb cdeb aabb 2454 93bb a746 9bbb
00000130: 2e4b 2c3b 07f2 6bbb a332 893b e959 02bb
00000140: cc15 883b d80e ab3b f05c 85bb 7e5a 90bb
00000150: 4d86 623b 15ec 92bb 99e3 8b3b f91b 4c3b
00000160: 6ed5 8abb 9cd2 9c3b 0176 69bb 20f1 8b3b
00000170: bc79 70bb 841a 5dbb 0d0c 973b f6f9 4fbb
00000180: a7f4 3a3b 60fc a33b 555e 9dbb 19cc 8bbb
00000190: a6cc 1cbb c7b5 433b 4306 51bb 125e 73bb
000001a0: 40fe 973b a914 5f3b 9bc5 93bb 1157 80bb
000001b0: 6e4a 33bb bf0c b7bb 7870 8bbb a77c 483b
000001c0: 1534 58bb 548c 803b 2e18 96bb 08af 673b
000001d0: 4462 643b cb18 953b 7541 7e3b 620f 5dbb
000001e0: 25a8 2b3b f8b0 76bb 1753 933b 963f 1ebb
000001f0: 7a59 abbb 726c 7c3b 86d7 093b 9c18 81bb
00000200: aec1 263b e6d8 eaba 7918 3ebb 7643 0d3b
00000210: 19c7 443b 3205 0c3b 1324 18bb 5cd5 97ba
00000220: 0897 06bb 4ad4 58bb 2c43 34bb 5ca8 34bb
00000230: ab0f c43a 3520 1fbb 449c 1b3b ce60 22ba
00000240: 8c0d 223b 3739 5e3b 389f 1ebb a082 36bb
00000250: d0b5 1f3b 68ba 39bb 7bf5 393b c254 c93a
00000260: 833b 1fbb 7bea 443b 5b35 18bb 088f 2e3b
00000270: 4151 05bb ea92 15bb 36a0 393b 111a f8ba
00000280: 1fa7 ac3a c28e 423b a80d 50bb 15f8 1cbb
00000290: dd0e b1ba 91f1 dd3a c920 dfba 59ba 1bbb
000002a0: e502 483b 0d31 003b 38d2 3ebb 18dd 14bb
000002b0: 97ce bcba 6bdf 5cbb 44f4 3fbb da1a b23a
000002c0: 46cc f6ba 7996 153b 10cb 43bb 7201 013b
000002d0: bbfd ff3a ce6a 373b fb7b 243b 2825 08bb
000002e0: 8b79 a13a 79a3 2abb ddaf 2a3b 5fde b7ba
000002f0: 4dcb 4abb c9f5 143b 8232 443a 62bc 36bb
00000300: dbfb bc3b 304d 9dbb f88b c4bb 36dd b13b
00000310: fa60 d93b 442a a83b 1617 adbb 2cb2 86bb
00000320: 1d56 9bbb 0c7e ddbb ccc4 c5bb d0ad cabb
00000330: da32 923b 79d0 adbb a634 b93b 3a9b 7bbb
00000340: 0a40 bc3b b4a6 d73b 5264 b3bb 0945 c5bb
00000350: 5c55 ac3b b174 bcbb e505 b73b adb1 a13b
00000360: 2023 babb f059 c53b 427b a6bb 2bd2 b93b
00000370: 3d8a abbb 56dd a5bb 8ae2 bf3b 4939 a0bb
00000380: 2366 8f3b a720 c93b a46f ccbb 3003 bebb
00000390: 4d6f 8bbb 35d8 933b a492 9fbb d21c b5bb
000003a0: 846d c63b 32db aa3b 51c4 c5bb 0517 b7bb
000003b0: 00ed 8dbb be62 e6bb 9743 bfbb 9fcb 973b
000003c0: c50e 9fbb fe64 b53b 3d1b c0bb 26da a93b
000003d0: cad8 9e3b 3f39 c23b e9f7 b23b bd6f a1bb
000003e0: 5d4c 833b d4ad abbb 81dd c33b 5ada 87bb
000003f0: eb2e d2bb 62bb a93b 9eaf 7e3b 0ee3 b9bb
-8.8217894e-05 0.00043400234 -0.00031732983 -0.00033895785 0.00015973793 -0.0003079355 -3.7565136e-05 0.0014968953
0.0003947229 -0.0009244466 -0.00010163803 -0.00019139268 -0.00077111385 0.00050066 -5.334439e-05 0.0017913254
-1.8165276e-05 0.00059401867 -0.00034645252 -0.00043941158 -0.00012740798 -0.00014403871 0.0002235139 -0.00086030416
0.00026363734 0.0006268607 -9.167753e-05 0.00011117046 0.00014480675 0.0001037 0.00029123208 0.00051538035
-0.0010346965 0.00026015236 -0.0006092707 -5.2151667e-05 0.0011775685 -0.0013571173 0.00056316797 0.00018872498
0.0007127523 -0.00066127855 -0.00032545734 0.0007958316 0.0008690512 -0.0008534075 -0.00024988083 -0.0012162109
0.00055388134 1.5516925e-06 -0.00032643415 -0.0007159844 -0.00040915917 1.8723855e-05 5.829835e-05 0.00040748372
-0.001317602 -6.997565e-06 0.00018262173 0.0010837051 -0.0003177784 -0.00057383487 -0.0017177118 -5.8762827e-05
0.0041521224 -0.003242693 -0.0047834124 0.0036993858 0.005255542 0.003266043 -0.004036058 -0.0024552157
-0.0032504871 -0.005216098 -0.0044961143 -0.004738647 0.0026289928 -0.0036002414 0.0041869446 -0.0019890016
0.004152989 0.0052202754 -0.004069917 -0.0044053188 0.0034564913 -0.0044837096 0.004269075 0.0031144603
-0.0042368686 0.004785849 -0.0035623314 0.0042706877 -0.0036693653 -0.0033737728 0.004609591 -0.0031734682
0.0028527172 0.0050044507 -0.004802505 -0.0042662737 -0.002392569 0.0029862986 -0.0031894601 -0.0037134928
0.0046384633 0.0034039414 -0.0045096404 -0.003916629 -0.0027357596 -0.0055862362 -0.0042553507 0.0030591877
-0.0032990028 0.0039229784 -0.004580519 0.003535213 0.003484861 0.0045500747 0.003879634 -0.0033731093
0.0026192751 -0.0037642103 0.004495989 -0.0024146787 -0.0052291723 0.0038516787 0.0021033003 -0.0039397012
0.0025445032 -0.0017917424 -0.0029006286 0.0021555102 0.0030025898 0.0021365401 -0.0023214861 -0.0011583972
-0.00205368 -0.0033085519 -0.0027505858 -0.002756617 0.0014958283 -0.0024280671 0.0023744265 -0.00061942346
0.0024727313 0.0033908614 -0.0024203788 -0.0027848855 0.0024369843 -0.0028339867 0.0028375078 0.0015360343
-0.0024296946 0.0030046988 -0.0023225162 0.0026635546 -0.002034262 -0.0022823163 0.0028324253 -0.0018928667
0.0013172365 0.002968714 -0.003174642 -0.002395158 -0.0013508458 0.0016932954 -0.001702332 -0.0023762195
0.0030519303 0.0019560487 -0.0029117 -0.002271479 -0.001440483 -0.0033702503 -0.002928988 0.0013588325
-0.0018829189 0.0022825284 -0.0029875673 0.00196847 0.0019530574 0.0027987245 0.0025098312 -0.00207741
0.0012319548 -0.0026037379 0.0026044764 -0.0014028064 -0.003094393 0.0022729507 0.0007484333 -0.002788328
0.005767328 -0.004800461 -0.005998131 0.0054279817 0.006633875 0.0051319916 -0.005282293 -0.004110595
-0.00474049 -0.0067594107 -0.006035423 -0.006185271 0.0044616284 -0.005304393 0.005652028 -0.0038392083
0.0057449387 0.006581152 -0.0054746056 -0.0060201925 0.005259199 -0.0057512154 0.0055854195 0.0049345107
-0.0056804568 0.0060226843 -0.0050806114 0.005670806 -0.005234985 -0.0050617857 0.005855863 -0.0048896414
0.0043761893 0.0061379257 -0.0062388945 -0.00579872 -0.0042552114 0.004511858 -0.004869776 -0.0055271173
0.0060555357 0.0052141184 -0.0060353656 -0.005587461 -0.004331231 -0.007030814 -0.0058369148 0.004632428
-0.0048540556 0.005535721 -0.005862622 0.005183476 0.0048476206 0.0059272344 0.005461682 -0.0049266503
0.004006906 -0.005239228 0.005977333 -0.0041459026 -0.0064142845 0.0051798085 0.0038862 -0.005672819
