stock_models/AAPL.pth (torch, 71618 bytes, 11 tensors)

linear_1.weight f4 [32, 1]
-0.024774536 -0.014006478 0.014460272 0.5355693 -0.35381404 0.32256556 -0.025699204 -0.34778452
1.0911359 0.029187834 -0.5902456 -0.018787052 0.34337994 -0.017398382 -1.1879227 1.281485
0.000829514 -0.052027702 -1.1425049 0.028424978 -0.46055627 -0.26906288 -0.016698511 0.5191104
0.717193 0.012033417 0.1971608 -0.010125655 -1.1263484 0.62971234 -0.6389493 0.028346138
00000000: f8f3 cabc 6d7b 65bc c7ea 6c3c 121b 093f
00000010: 1d27 b5be 5027 a53e 2387 d2bc d010 b2be
00000020: 57aa 8b3f 531b ef3c 561a 17bf 4ee7 99bc
00000030: 7fcf af3e 0d87 8ebc da0d 98bf b307 a43f
00000040: be73 593a 001b 55bd 9a3d 92bf 80db e83c
00000050: 08ce ebbe 9cc2 89be 51cb 88bc 6be4 043f
00000060: f699 373f cf27 453c 85e4 493e 13e6 25bc
00000070: 2f2c 90bf d434 213f 2e92 23bf 2936 e83c

linear_1.bias f4 [32]
-0.083970815 -0.13360122 -0.09470691 -0.93028694 1.6011238 -0.9351363 -0.03510301 -0.47841203
0.49422002 -0.051246997 -0.78030217 -0.04665372 -0.7086475 -0.06664244 -0.777217 0.82414937
-0.074530765 -0.2301166 -0.5280278 -0.43211496 -0.87633204 -0.9649023 -0.029932132 -0.7264453
-1.1553425 -0.15551083 -0.30776468 -0.038038656 -0.69845843 -0.4045173 -0.82189286 -0.06909307
00000000: e4f8 abbd c2ce 08be b2f5 c1bd 4927 6ebf
00000010: a0f1 cc3f 1865 6fbf 2cc8 0fbd 6cf2 f4be
00000020: 680a fd3e 5fe8 51bd e2c1 47bf f917 3fbd
00000030: ec69 35bf d57b 88bd b1f7 46bf 74fb 523f
00000040: 96a3 98bd b0a3 6bbe d42c 07bf 2c3e ddbe
00000050: 4c57 60bf d603 77bf 3b34 f5bc 52f8 39bf
00000060: 43e2 93bf 3b3e 1fbe 5593 9dbe 6cce 1bbd
00000070: 2cce 32bf e41c cfbe 9267 52bf ab80 8dbd

lstm.weight_ih_l0 f4 [128, 32]
0.048118267 -0.4533256 0.076587714 -0.04380724 2.037616 0.07937051 -0.47654554 0.12022646
0.80877876 -0.13002913 -0.08268278 -0.27777934 0.09243378 -0.14085864 1.2169034 0.6095062
-0.5840088 -0.025330916 1.0850605 0.10653837 0.11967777 -0.13505614 -0.006998102 -0.13028273
-0.12624039 1.226223 0.99869514 -0.16446146 1.0670426 0.5809228 0.13510449 -0.4977611
0.36474442 0.05446231 0.42665595 0.13346194 1.7562635 0.03621757 -0.45236215 -0.12864552
0.92834234 0.0321947 0.1318834 0.021854365 0.03227577 0.10536513 1.3318079 0.2798678
-0.35565934 0.058033645 1.3130319 -0.06921627 0.042343482 -0.02574557 -0.3214352 -0.22636491
0.018678289 2.368002 1.1328741 0.23593922 1.3733279 0.48010227 0.25153062 -0.27300647
-0.15422013 -0.53065115 -0.12818754 0.2812687 0.7709636 0.17125522 -0.27614805 0.15887405
0.9232125 -0.43929985 0.030238196 -0.1152462 0.10026556 -0.32340902 0.7937474 0.9763645
-0.45564482 0.02455777 0.6100531 -0.04872544 0.1741582 0.0045125186 -0.8538262 -0.036496572
0.08022808 0.64809203 0.57407045 0.011559676 0.73082435 0.7179229 0.0074627073 -0.53393096
0.20370491 0.15974528 0.13879435 0.016088374 -1.098044 0.014676079 0.2299805 0.033333078
-0.067403264 0.009001321 -0.15290087 0.10302343 0.0031220233 -0.01540009 0.6853858 -0.14023903
-0.02899868 0.090742394 0.46231973 -0.1292826 -0.07139056 0.14079143 0.4480015 0.20769344
-0.040026125 0.09356428 -0.04786738 0.19053654 0.73285055 0.16561754 0.068016715 0.18825851
-0.7893455 -0.5911059 -0.0058240034 0.27443904 -0.043243695 0.12419672 -0.29220033 -0.14055784
0.48282743 -0.41636136 0.051284984 0.14589822 -0.15774308 0.034328964 0.8152671 0.335776
-0.20705059 0.015478402 0.91449034 0.11311741 -0.13026638 0.16666304 0.263652 0.9557577
-0.20468874 0.68411267 0.71792233 0.017669808 0.84664273 1.3434271 0.23372371 -0.15795508
-0.8871399 -0.9972464 0.13997717 0.06922136 0.22770818 -0.09342584 -0.35416147 -0.15383357
1.1904246 -0.4567134 -0.10836783 -0.20273666 0.15340114 -0.27841824 1.1108153 0.464915
-0.59287596 -0.08212311 1.0963439 -0.101915166 -0.119751886 0.066465765 -0.25463355 0.3350263
-0.07538265 1.3164499 0.4056583 -0.5755227 1.0279999 0.70428044 0.07852049 -0.5652559
-0.25547746 -0.30220765 0.2888931 0.11651441 -1.3755594 -0.07041301 -0.04311703 0.09515326
0.20116006 -0.8665394 -0.0014636517 -0.29524428 -0.19884132 -0.08614839 0.52946776 -0.112577036
-0.0762164 0.07781239 0.24412191 0.021294236 0.167782 0.13925536 0.1573437 -0.0045753503
-0.08572752 -0.6756089 -0.22265512 0.0044692657 0.20287912 0.1316962 0.2858245 0.034470096
-0.25454578 -0.45592478 -0.20486934 0.041312374 -1.1290392 0.09000336 0.18841344 -0.16710232
-0.37876475 -0.6072521 0.08648868 -0.14271604 -0.103575975 0.046070978 0.5895441 -0.18167548
-0.124097414 0.027037159 0.44775513 0.09020279 -0.12563503 -0.12512158 0.119757794 -0.3119827
-0.28149202 -0.52233726 0.09564554 0.07037906 0.709883 0.38478613 0.15856524 -0.013128984
00000000: a917 453d 4b1a e8be 05da 9c3d 386f 33bd
00000010: 4d68 0240 028d a23d c7fd f3be 4a39 f63d
00000020: 200c 4f3f 5b26 05be 9755 a9bd 1839 8ebe
00000030: ec4d bd3d 3f3d 10be 7ec3 9b3f 9908 1c3f
00000040: 9a81 15bf c882 cfbc 43e3 8a3f ca30 da3d
00000050: 9e19 f53d 284c 0abe 5650 e5bb d668 05be
00000060: 2945 01be e0f4 9c3f 7caa 7f3f 9668 28be
00000070: da94 883f 5bb7 143f d558 0a3e 8bda febe
00000080: c8bf ba3e df13 5f3d a672 da3e 3faa 083e
00000090: 3ecd e03f e058 143d 039c e7be a7bb 03be
000000a0: d8a7 6d3f 97de 033d 710c 073e ed07 b33c
000000b0: 9933 043d acc9 d73d ae78 aa3f d54a 8f3e
000000c0: fb18 b6be b0b4 6d3d 6e11 a83f 43c1 8dbd
000000d0: 5c70 2d3d 60e8 d2bc 2893 a4be 34cc 67be
000000e0: 3603 993c 588d 1740 0502 913f 0d9a 713e
000000f0: 35c9 af3f f7cf f53e 9fc8 803e 81c7 8bbe
00000100: e2eb 1dbe c1d8 07bf 9843 03be 7302 903e
00000110: df5d 453f 875d 2f3e 4763 8dbe e1af 223e
00000120: a857 6c3f e9eb e0be 18b6 f73c 3306 ecbd
00000130: 0858 cd3d de95 a5be 0833 4b3f 06f3 793f
00000140: 474a e9be 602d c93c 712c 1c3f 5494 47bd
00000150: 8756 323e c0dd 933b 5b94 5abf 6e7d 15bd
00000160: 9f4e a43d 5ce9 253f 48f6 123f cc64 3d3c
00000170: 4e17 3b3f ccc9 373f ba89 f43b b3af 08bf
00000180: 0598 503e 4494 233e 1b20 0e3e c4cb 833c
00000190: b58c 8cbf f073 703c 0280 6b3e 4488 083d
000001a0: b90a 8abd 477a 133c 0c92 1cbe f3fd d23d
000001b0: dc9a 4c3b a950 7cbc 7275 2f3f d29a 0fbe
000001c0: a48e edbc 26d7 b93d 2cb5 ec3e a862 04be
000001d0: 3735 92bd a12b 103e 7460 e53e 97ad 543e
000001e0: 6ff2 23bd a19e bf3d 9610 44bd 031c 433e
000001f0: 189c 3b3f a597 293e 594c 8b3d d7c6 403e
00000200: 8c12 4abf b752 17bf 48d7 bebb 4683 8c3e
00000210: 4d20 31bd da5a fe3d 489b 95be 65ee 0fbe
00000220: 2835 f73e 512d d5be 3410 523d 5866 153e
00000230: 6787 21be 879c 0c3d 58b5 503f d5ea ab3e
00000240: 1205 54be 2099 7d3c 0a1c 6a3f 1aaa e73d
00000250: 8d64 05be b7a9 2a3e 65fd 863e 89ac 743f
00000260: ed99 51be 0222 2f3f c2c9 373f 46c0 903c
00000270: 94bd 583f 6bf5 ab3f 4555 6f3e fabe 21be
00000280: 9a1b 63bf 8a4b 7fbf 2d56 0f3e eec3 8d3d
00000290: 552c 693e 0c56 bfbd a754 b5be 8c86 1dbe
000002a0: d55f 983f 57d6 e9be f4ef ddbd 339a 4fbe
000002b0: 3015 1d3e d68c 8ebe 322f 8e3f 5709 ee3e
000002c0: b8c6 17bf 2930 a8bd ff54 8c3f e6b8 d0bd
000002d0: 7a40 f5bd 341f 883d 545f 82be 9188 ab3e
000002e0: 3862 9abd 6e81 a83f 72b2 cf3e 7555 13bf
000002f0: 8095 833f b94b 343f 5acf a03d 9cb4 10bf
00000300: f1cd 82be f6ba 9abe cce9 933e 1b9f ee3d
00000310: 5512 b0bf b234 90bd 7c9b 30bd b6df c23d
00000320: e7fc 4d3e 87d5 5dbf 00d8 bfba 422a 97be
00000330: 0f9d 4bbe 916e b0bd 338b 073f ca8e e6bd
00000340: 5817 9cbd 1a5c 9f3d 18fb 793e 4071 ae3c
00000350: 0bcf 2b3e f598 0e3e b51e 213e d2ec 95bb
00000360: e991 afbd b4f4 2cbf b4ff 63be eb72 923b
00000370: 8bbf 4f3e 5edb 063e 9757 923e 8430 0d3d
00000380: d353 82be f96e e9be 45c9 51be 2a37 293d
00000390: 5b84 90bf ae53 b83d 74ef 403e df1c 2bbe
000003a0: 74ed c1be e074 1bbf fa20 b13d 2724 12be
000003b0: a41f d4bd ecb4 3c3d 5dec 163f 2309 3abe
000003c0: c926 febd 087d dd3c 2940 e53e 3ebc b83d
000003d0: 78a6 00be df1f 00be 9343 f53d 32bc 9fbe
000003e0: b91f 90be e5b7 05bf cfe1 c33d e622 903d
000003f0: e4ba 353f b002 c53e ed5e 223e f31a 57bc

lstm.weight_hh_l0 f4 [128, 32]
-4.957269 -0.6664397 -1.3919258 -3.0141082 -0.90123516 1.4377965 -1.6277305 -0.80139226
0.66836476 -0.53487855 1.1521732 -1.667488 1.1752335 0.9870277 1.9553331 -1.6090664
0.035302848 0.051143516 0.78514725 0.65297675 1.4505917 -0.053504847 1.5910761 1.2415371
-0.25219524 -1.56577 0.75481504 -0.4496058 -0.995361 1.811814 -0.5584946 -0.20363733
0.883284 3.259569 -1.5886141 -2.2911692 -1.1242187 1.3105245 -0.4814012 -0.68088335
0.8406234 -0.8462996 0.6394142 -1.3704573 0.70356476 1.5334141 1.6555104 -1.6119452
-0.23840326 -0.611425 1.5243533 0.17299105 1.7240692 -0.48578125 1.2552168 1.6735113
-0.19277483 -1.0454456 0.01108083 -1.2290963 -1.6912705 1.403004 -1.0084199 -0.5554928
1.3925551 -0.27541447 5.1719375 -2.4829557 -1.2567304 1.9256264 -0.74731123 -1.1606805
-0.39161143 -1.2833407 0.27384782 -1.4818951 0.5058059 0.8829504 1.2153316 -1.5762507
0.5574346 -0.057029333 1.0241641 0.245958 1.3303142 0.78830713 1.1623567 1.9006852
-0.06271012 -0.57501626 0.8978713 -0.044098955 -1.3174602 1.4789479 -0.66662073 0.3304287
-1.5092149 1.7019318 -0.13766152 -3.7538798 0.76607114 -0.6096109 0.44781494 1.4587214
-0.9596807 1.0375648 -1.8168522 0.027499251 -0.7758281 -1.2422397 -0.30031598 0.9226235
2.5241835 1.3831699 -0.982589 -2.171874 -0.54996616 2.312986 -0.43281752 -0.15600826
2.1359904 1.2424945 2.2500849 1.6484514 0.34775272 -0.4029718 1.2469755 2.12671
0.79863894 -0.56135505 -0.92838925 -2.5233285 7.3193717 2.166959 -0.5931188 -0.68722636
0.38858354 -1.2598753 0.8511428 -1.0665807 1.4753582 0.6590445 1.2441897 -1.8199921
-0.31918862 -1.5038089 1.1173012 0.45792034 1.1909103 -0.2389383 1.799439 0.76327676
-0.4372724 -0.8224882 -0.39473334 -0.1811278 -0.84228146 1.6801113 -1.170408 -0.18745019
0.2203575 0.39194012 -0.90791595 -1.5429064 0.051561587 -6.218692 -0.17517392 0.36572528
-0.03033564 0.24411345 0.22212778 -0.85938823 -0.04801739 0.5321575 0.6591384 -1.0241747
1.2185118 1.1022396 0.42853817 -1.2213439 0.54007375 1.3368922 1.090761 0.47934818
0.13151638 0.3011711 1.3138771 0.21033986 -0.44431424 0.80723554 0.43929273 1.3530605
-0.3305008 0.07467228 -0.15541387 -2.9276917 -0.05660362 0.7888642 7.6585407 -0.5950305
0.19088347 0.20170557 -0.3817867 -0.3016435 0.5926962 -0.3021782 0.5649021 -0.7466675
-0.053561468 0.084688224 0.06318308 -1.1588315 -0.43997627 0.7774604 0.42556834 0.25199443
0.4922877 0.021609923 0.54940176 0.34366482 -0.28262657 0.71183085 0.85970896 0.6079264
0.5850148 -0.26812127 -0.8041013 -3.46872 -0.41205665 1.692182 -0.29636127 7.721922
1.2020614 -0.59488344 0.07311311 -0.76172954 0.6114302 -0.026273035 1.7254611 -1.7189893
0.24894099 -0.6139233 0.1712679 -0.27966154 0.8403112 0.2835723 1.2055588 1.269904
0.12700763 -0.7823965 0.2986889 -0.32778406 -0.02535736 1.3440899 -0.5242359 -0.37950668
00000000: f3a1 9ec0 cb9b 2abf a02a b2bf 26e7 40c0
00000010: 59b7 66bf b709 b83f 7959 d0bf 0b28 4dbf
00000020: f419 2b3f cded 08bf 697a 933f 3f70 d5bf
00000030: 0d6e 963f d9ad 7c3f 5b48 fa3f e3f5 cdbf
00000040: b899 103d dd7b 513d 69ff 483f 7c29 273f
00000050: fdac b93f e627 5bbd 62a8 cb3f b0ea 9e3f
00000060: bc1f 81be 276b c8bf 8f3b 413f bb32 e6be
00000070: facf 7ebf 85e9 e73f 81f9 0ebf 4e86 50be
00000080: e61e 623f c79c 5040 b557 cbbf 84a2 12c0
00000090: 66e6 8fbf 44bf a73f 387a f6be 5f4e 2ebf
000000a0: 1833 573f 17a7 58bf a6b0 233f 256b afbf
000000b0: d21c 343f ea46 c43f c4e7 d33f 3854 cebf
000000c0: fc1f 74be 5986 1cbf 021e c33f 9124 313e
000000d0: 4dae dc3f 52b8 f8be f2aa a03f 9e35 d63f
000000e0: c466 45be 29d1 85bf 5f8c 353c 0753 9dbf
000000f0: 8d7b d8bf a395 b33f e713 81bf c734 0ebf
00000100: 3f3f b23f 2003 8dbe 8380 a540 bfe8 1ec0
00000110: 8bdc a0bf ed7a f63f ca4f 3fbf 2e91 94bf
00000120: 4b81 c8be 8244 a4bf c835 8c3e bdae bdbf
00000130: 7f7c 013f 0a09 623f fc8f 9b3f 95c2 c9bf
00000140: 09b4 0e3f 9797 69bd cf17 833f 6adc 7b3e
00000150: bc47 aa3f 7fce 493f 1bc8 943f a749 f33f
00000160: 2a6e 80bd 4434 13bf e5da 653f 1ba1 34bd
00000170: 89a2 a8bf 2a4e bd3f a8a7 2abf f32d a93e
00000180: f42d c1bf e7d8 d93f 24f7 0cbe 913f 70c0
00000190: 3d1d 443f 760f 1cbf 0048 e53e 62b7 ba3f
000001a0: a2ad 75bf ecce 843f 9d8e e8bf 1c46 e13c
000001b0: ac9c 46bf b601 9fbf 04c3 99be 0e31 6c3f
000001c0: 398c 2140 b60b b13f f48a 7bbf fcff 0ac0
000001d0: 95ca 0cbf f607 1440 429a ddbe a1c0 1fbe
000001e0: 11b4 0840 0f0a 9f3f 6401 1040 7500 d33f
000001f0: a50c b23e 5252 cebe e59c 9f3f 041c 0840
00000200: 9a73 4c3f f7b4 0fbf ebaa 6dbf 377e 21c0
00000210: 4b38 ea40 75af 0a40 a2d6 17bf 11ee 2fbf
00000220: 6cf4 c63e 9843 a1bf 7fe4 593f b785 88bf
00000230: 8ad8 bc3f 24b7 283f 9c41 9f3f 80f5 e8bf
00000240: b16c a3be cf7c c0bf ba03 8f3f 8974 ea3e
00000250: c06f 983f 3eac 74be 0454 e63f 1b66 433f
00000260: 2be2 dfbe 968e 52bf 7d1a cabe 9179 39be
00000270: c29f 57bf e30d d73f eecf 95bf f1f2 3fbe
00000280: 65a5 613e 60ac c83e 2e6d 68bf f57d c5bf
00000290: 3e32 533d 86ff c6c0 cb60 33be 5840 bb3e
000002a0: 7382 f8bc e0f8 793e 7775 633e de00 5cbf
000002b0: e2ad 44bd 793b 083f 4bbd 283f 2818 83bf
000002c0: 32f8 9b3f 3016 8d3f 5b69 db3e ff54 9cbf
000002d0: 4642 0a3f 491f ab3f 0e9e 8b3f 206d f53e
000002e0: 3bac 063e 1933 9a3e 202d a83f 5563 573e
000002f0: 287d e3be fda6 4e3f faea e03e 1631 ad3f
00000300: 6737 a9be c8ed 983d d024 1fbe 4d5f 3bc0
00000310: 33d9 67bd 01f3 493f c412 f540 eb53 18bf
00000320: f576 433e e88b 4e3e 8c79 c3be 0471 9abe
00000330: f0ba 173f 1ab7 9abe 6d9d 103f 9a25 3fbf
00000340: 4563 5bbd 0571 ad3d 2166 813d 9754 94bf
00000350: 9244 e1be a507 473f 18e4 d93e 6a05 813e
00000360: 220d fc3e 4b07 b13c 98a5 0c3f d6f4 af3e
00000370: 6eb4 90be 8c3a 363f e315 5c3f 11a1 1b3f
00000380: 88c3 153f 3147 89be 95d9 4dbf 82ff 5dc0
00000390: 17f9 d2be 6b99 d83f aabc 97be fc19 f740
000003a0: 26dd 993f 484a 18bf 54bc 953d b500 43bf
000003b0: b186 1c3f 8c3a d7bc e9db dc3f d707 dcbf
000003c0: 63ea 7e3e 142a 1dbf da60 2f3e cc2f 8fbe
000003d0: a31e 573f 6330 913e c04f 9a3f 378c a23f
000003e0: 4a0e 023e 234b 48bf c0ed 983e 50d3 a7be
000003f0: 3dba cfbc 230b ac3f 5334 06bf b34e c2be

lstm.bias_ih_l0 f4 [128]
1.7636976 1.4762028 0.9560225 -0.83991456 -0.06702668 0.62551457 -0.907718 -0.8192182
-0.86771274 0.61499786 0.9340687 0.58936715 0.75384235 1.9399499 -0.70484877 -0.7771601
1.6485006 0.6757289 1.5349886 1.113782 1.2599883 0.79511714 0.40868688 0.47409993
-1.0273721 1.3629931 1.7609315 1.1264893 0.8622352 0.9002924 -0.89800227 0.35662526
-2.6579683 -2.6558592 -2.8420508 2.3445425 -2.9658604 -2.941581 -2.7996082 -2.7030606
-2.931493 -2.8088017 -3.0572207 -2.7551482 -2.8519692 -2.7153108 -2.9951236 -3.021253
-2.0511484 -2.8260062 -2.8331819 -0.75779563 -2.8524435 -2.8153522 -1.5263556 -2.4433243
-3.1952465 -2.9292376 -1.6728805 -2.8189077 -2.8528895 -2.8731527 -2.7312496 -2.3263268
0.42385516 -0.44167686 -0.40531945 -0.07012187 -0.34285727 0.28328916 -0.29301372 -0.3463328
0.47617498 -0.17660458 0.35032898 -0.2540174 0.26285744 0.27170226 0.30809006 -0.3215776
0.27943927 -0.31346056 0.3306424 0.2797735 0.43786806 -0.068291396 0.1919684 0.35715786
-0.068456456 -0.36034968 -0.41976985 -0.5568755 -0.19013561 0.4771796 -0.45294482 0.06506691
-0.9307656 -1.0200357 -0.9322366 0.253974 -0.6843707 -1.1037637 0.9992789 0.3532153
0.16038771 -0.6324198 -1.1165099 -0.93535566 -0.8226438 -0.99325454 0.2756295 0.05874187
-1.3176048 -1.2613792 -0.8266548 -0.87908834 -0.71716666 -1.1292422 -1.0119252 -1.0307032
-0.13653357 -0.99674886 -1.2609851 -0.950052 -0.7804974 -0.9068186 0.14116162 -1.2151543
00000000: d8c0 e13f 37f4 bc3f e4bd 743f a404 57bf
00000010: 4945 89bd b921 203f 3560 68bf 49b8 51bf
00000020: 6c22 5ebf 8070 1d3f 201f 6f3f c4e0 163f
00000030: d0fb 403f 4750 f83f f870 34bf f7f3 46bf
00000040: 1102 d33f 92fc 2c3f 827a c43f 6990 8e3f
00000050: 4c47 a13f cc8c 4b3f 683f d13e 3abd f23e
00000060: ee80 83bf 8f76 ae3f 3466 e13f cd30 903f
00000070: 72bb 5c3f 9079 663f 7ae3 65bf 9697 b63e
00000080: 271c 2ac0 99f9 29c0 29e4 35c0 fc0c 1640
00000090: a8d0 3dc0 dd42 3cc0 c82c 33c0 f2fe 2cc0
000000a0: 959d 3bc0 68c3 33c0 81a9 43c0 5954 30c0
000000b0: aa86 36c0 a7c7 2dc0 1bb0 3fc0 365c 41c0
000000c0: 0446 03c0 49dd 34c0 da52 35c0 e5fe 41bf
000000d0: 6f8e 36c0 bb2e 34c0 9f5f c3bf 6d5f 1cc0
000000e0: eb7e 4cc0 a178 3bc0 f320 d6bf fc68 34c0
000000f0: be95 36c0 bce1 37c0 cbcc 2ec0 8ae2 14c0
00000100: 8b03 d93e 7823 e2be 0886 cfbe 0e9c 8fbd
00000110: fd8a afbe 470b 913e e505 96be 8852 b1be
00000120: 35cd f33e d5d7 34be 525e b33e 920e 82be
00000130: 4095 863e 8f1c 8b3e fbbd 9d3e d2a5 a4be
00000140: aa12 8f3e e77d a0be f649 a93e 793e 8f3e
00000150: 3e30 e03e 5cdc 8bbd 5d93 443e 65dd b63e
00000160: e632 8cbd c17f b8be 13ec d6be 658f 0ebf
00000170: e9b2 42be e250 f43e 62e8 e7be cd41 853d
00000180: a846 6ebf 8890 82bf 0fa7 6ebf e108 823e
00000190: eb32 2fbf 2148 8dbf bed0 7f3f a3d8 b43e
000001a0: ad3c 243e 44e6 21bf cce9 8ebf 7873 6fbf
000001b0: c998 52bf ee45 7ebf 4f1f 8d3e 519b 703d
000001c0: 46a7 a8bf e074 a1bf a69f 53bf ef0b 61bf
000001d0: 3c98 37bf 028b 90bf c486 81bf 15ee 83bf
000001e0: 75cf 0bbe ef2a 7fbf f667 a1bf 9c36 73bf
000001f0: adce 47bf 4425 68bf ac8c 103e 2d8a 9bbf

lstm.bias_hh_l0 f4 [128]
1.8611052 1.6006924 0.92961884 -0.8573712 0.14594257 0.51081854 -0.8085697 -1.0049219
-0.83900523 0.37026212 1.1250626 0.6399684 0.5638982 2.0413413 -0.83803475 -0.91384417
1.3654891 0.95999116 1.5748115 1.2443703 1.2388773 0.71475184 0.16848919 0.3921258
-0.9941738 1.4895188 1.7831452 1.2434553 0.9675693 0.7548335 -0.9738599 0.5460997
-2.878709 -2.9304388 -2.9358175 2.4939222 -2.7329578 -2.981705 -2.8338737 -2.76712
-3.174527 -2.8473454 -2.7404888 -2.7460434 -2.7091913 -2.7244952 -2.940655 -2.8108597
-2.0649734 -2.7203295 -2.857091 -0.79655534 -3.04304 -2.6066043 -1.4696509 -2.4154837
-2.9759786 -2.704881 -1.5896727 -2.775733 -3.0382123 -2.8451324 -2.748996 -2.3362422
0.36417958 -0.17463385 -0.43438578 0.024579715 -0.34378174 0.22415397 -0.3603823 -0.17966573
0.39978203 -0.43943173 0.17758788 -0.49433607 0.3205675 0.5259657 0.2390167 -0.28560328
0.40777814 -0.041358326 0.3455664 0.24621324 0.28852677 -0.19774081 0.2835725 0.4396774
0.21741498 -0.5138839 -0.23828045 -0.27554825 -0.447954 0.32358152 -0.41621947 -0.23343039
-0.9360411 -1.0494993 -0.7424806 0.5041825 -0.81766444 -0.9733248 0.9555313 0.54670906
0.035329703 -0.9233774 -0.99393183 -0.8679757 -0.9720171 -0.92439264 0.15223488 -0.25614932
-1.2983625 -1.2026925 -0.93461037 -1.1277013 -0.76581264 -1.1017907 -0.9355515 -1.0902339
-0.2277846 -1.0477842 -1.20509 -0.7770254 -0.6602208 -1.1446431 0.19161212 -1.2944571
00000000: b238 ee3f 7de3 cc3f 80fb 6d3f ae7c 5bbf
00000010: f871 153e 01c5 023f 6dfe 4ebf 48a1 80bf
00000020: 0cc9 56bf ff92 bd3e 0d02 903f f8d4 233f
00000030: a25b 103f 56a5 0240 7289 56bf b1f1 69bf
00000040: 59c8 ae3f fbc1 753f 6c93 c93f 8747 9f3f
00000050: 8893 9e3f faf9 363f 6e88 2c3e b6c4 c83e
00000060: 2d82 7ebf 8da8 be3f 1a3e e43f 8b29 9f3f
00000070: 9fb2 773f c53c 413f e24e 79bf 31cd 0b3f
00000080: c53c 38c0 4f8c 3bc0 6fe4 3bc0 6c9c 1f40
00000090: c8e8 2ec0 41d4 3ec0 305e 35c0 7e18 31c0
000000a0: 732b 4bc0 e83a 36c0 2b64 2fc0 2dbf 2fc0
000000b0: 6463 2dc0 215e 2ec0 b133 3cc0 20e5 33c0
000000c0: 8628 04c0 e119 2ec0 94da 36c0 0deb 4bbf
000000d0: 2bc1 42c0 9bd2 26c0 851d bcbf 4997 1ac0
000000e0: 6f76 3ec0 c51c 2dc0 657a cbbf 9ca5 31c0
000000f0: 1272 42c0 a616 36c0 8def 2fc0 fe84 15c0
00000100: bf75 ba3e 37d3 32be d067 debe 665b c93c
00000110: 2904 b0be 9e88 653e 0784 b8be 4bfa 37be
00000120: 3bb0 cc3e 32fd e0be 99d9 353e 9e19 fdbe
00000130: 6c21 a43e b0a5 063f cbc0 743e 983a 92be
00000140: 4cc8 d03e 5967 29bd 14ee b03e 531f 7c3e
00000150: c8b9 933e 917c 4abe 6a30 913e 651d e13e
00000160: 08a2 5e3e e58d 03bf caff 73be a914 8dbe
00000170: 3a5a e5be 7aac a53e b81a d5be 6008 6fbe
00000180: 64a0 6fbf fe55 86bf 3513 3ebf 1b12 013f
00000190: 7552 51bf d02b 79bf b39d 743f 20f5 0b3f
000001a0: e1b5 103d 7662 6cbf 5172 7ebf a833 5ebf
000001b0: 1dd6 78bf ffa4 6cbf 76e3 1b3e 0126 83be
000001c0: be30 a6bf d4f1 99bf a042 6fbf 8458 90bf
000001d0: 4c0c 44bf 7a07 8dbf 4e80 6fbf c98c 8bbf
000001e0: 5e40 69be cb1d 86bf 6440 9abf 23eb 46bf
000001f0: 3b04 29bf aa83 92bf f835 443e c5b0 a5bf

lstm.weight_ih_l1 f4 [128, 32]
1.0972077 -0.3448382 -0.80550843 -1.6374002 0.15717857 0.6675635 -0.82344466 -0.4224373
0.9022416 -0.831529 0.9175094 -1.031712 0.31169268 1.1299809 0.60407215 -0.624197
-0.10228707 -0.5018419 1.6363174 0.22683543 1.0947417 -0.72307146 0.359347 1.4405235
-0.6854772 -0.7789843 -0.4171286 -0.94967955 -1.343791 0.8128402 0.23552059 -0.8328731
1.0694804 -0.4913209 -1.0760032 -1.6010798 -0.7239514 0.82922965 -0.9685917 -0.6785773
0.5149682 -0.9424578 0.6691042 -1.176985 0.7660651 0.96068686 0.9795128 -0.8911416
-0.23692843 -0.21157287 0.81039643 0.3537796 1.3609792 -0.7381762 0.7117597 1.2403263
-1.055018 -1.0735909 -0.27952784 -0.80736977 -1.3453467 0.7155352 -0.048840992 -0.3465058
0.5449293 -0.57694215 -0.8796257 -1.1734471 -0.23650537 0.74755627 -1.1954489 -0.64197314
0.7304279 -1.4310399 0.20982401 -0.3019844 1.031425 1.0201468 0.4616922 -0.3203226
-0.13148078 -0.59611315 1.0736042 0.25601122 1.3051817 -0.11436349 0.101377174 0.9288591
-0.61383533 -0.49510446 -0.40983927 -0.3663913 -1.287712 0.6544833 0.54003143 -0.4175317
1.0974095 -0.23658736 -0.8992242 -0.9783558 -0.038879782 0.5633085 -0.7606953 -0.4815123
0.2555344 -0.6772588 1.0032507 -0.46244535 0.87946767 1.0829781 0.8865106 -0.33734295
-0.88210404 -0.7396853 1.4089208 0.63984615 1.6272976 -0.7719546 0.42012987 0.7824645
-0.7306858 -0.69282085 -0.7279699 -0.88246244 -1.2106164 0.940971 0.016990585 -0.24063794
1.3120011 -1.1438446 -0.97399366 -1.6682276 -0.49243277 1.2231882 -1.0261247 -0.74710697
0.44762757 -1.1056241 1.5902909 -0.63291526 0.94439065 1.2755994 0.8953079 -0.37113655
-0.8863457 -1.0019866 1.3021291 0.76687884 1.7566257 -1.027975 0.9691936 1.4926358
-0.931232 -1.1820168 -1.129852 -1.3233593 -1.4987191 1.258241 -0.12339314 -1.0522066
0.9454687 -0.6780774 -1.2602756 -0.69423085 -0.2903568 0.40360278 -0.77038664 -0.9102974
0.4585502 -0.8958857 0.6741211 -0.81232226 0.7403615 1.5893797 0.022831416 -0.67083275
-0.43718487 -1.4552482 1.1531538 0.6916344 1.8583515 -0.3407182 0.14394058 0.9024059
-1.2197964 -0.9693803 -1.2526901 -1.3702927 -0.9777126 1.0492165 -0.59982955 -0.5752898
1.0701427 -0.4136128 -1.3970199 -2.1328092 -0.75836605 1.2010297 -1.3151412 -0.9397421
0.5435815 -0.84821254 1.008626 -1.1748968 1.6223608 1.3933263 0.8191341 -1.0450084
-0.18881507 -0.6965406 0.951556 0.74393725 1.5826886 -0.8908486 0.92969745 0.9783623
-0.77206415 -1.3014437 -0.28406352 -1.0392141 -1.460268 1.4194276 -0.30112466 -0.88061714
1.0068886 -0.34139284 -0.81887877 -1.0221871 0.08387069 0.4074122 -0.72999257 -0.8853898
0.28688085 -0.45214197 0.56603914 -0.4711927 0.3969651 0.44210252 0.5105177 -0.17098983
-0.6223236 -0.9125235 1.2929523 0.080508195 0.913757 0.06813936 1.0478469 1.0879422
-0.7551081 -1.2570726 -0.83812594 -1.4244906 -1.2475305 0.6437638 -0.206513 -0.35040474
00000000: 4d71 8c3f a28e b0be cd35 4ebf 5496 d1bf
00000010: 6bf3 203e 71e5 2a3f 45cd 52bf b449 d8be
00000020: 4ef9 663f 16df 54bf e5e1 6a3f 240f 84bf
00000030: 2f96 9f3e 37a3 903f 79a4 1a3f 60cb 1fbf
00000040: e27b d1bd b678 00bf d972 d13f 8c47 683e
00000050: 7f20 8c3f 361b 39bf 54fc b73e 1363 b83f
00000060: 6f7b 2fbf 846b 47bf e191 d5be 331e 73bf
00000070: 5801 acbf 4c16 503f 4f2c 713e 2c37 55bf
00000080: bce4 883f 6a8e fbbe 79ba 89bf 2ff0 ccbf
00000090: e154 39bf 6548 543f a0f5 77bf 3eb7 2dbf
000000a0: f5d4 033f ea44 71bf 6a4a 2b3f 72a7 96bf
000000b0: d81c 443f 93ef 753f 5ac1 7a3f db21 64bf
000000c0: 5e9d 72be 8fa6 58be 2476 4f3f 9a22 b53e
000000d0: 9134 ae3f 1ef9 3cbf e235 363f 03c3 9e3f
000000e0: d40a 87bf 6d6b 89bf 461e 8fbe c9af 4ebf
000000f0: 5234 acbf 512d 373f 7e0d 48bd 3569 b1be
00000100: 7d80 0b3f 7bb2 13bf 262f 61bf 8433 96bf
00000110: 772e 72be d95f 3f3f 7804 99bf 5a58 24bf
00000120: 53fd 3a3f 512c b7bf 1bdc 563e b39d 9abe
00000130: bc05 843f 2c94 823f ec62 ec3e 5301 a4be
00000140: e6a2 06be df9a 18bf dd6b 893f e713 833e
00000150: 3210 a73f 6837 eabd d69e cf3d b6c9 6d3f
00000160: 5024 1dbf 557e fdbe 74d6 d1be a497 bbbe
00000170: bfd3 a4bf 388c 273f 803f 0a3f b7c6 d5be
00000180: ea77 8c3f f543 72be 8f33 66bf 8775 7abf
00000190: 6840 1fbd fc34 103f edbc 42bf c888 f6be
000001a0: 68d5 823e d560 2dbf 856a 803f a3c5 ecbe
000001b0: cb24 613f 079f 8a3f 5cf2 623f 37b8 acbe
000001c0: 92d1 61bf 045c 3dbf 8457 b43f f5cc 233f
000001d0: 4a4b d03f d19e 45bf 431b d73e 984f 483f
000001e0: 390e 3bbf b55c 31bf 3c5c 3abf 0fe9 61bf
000001f0: 7af5 9abf 7ae3 703f d72f 8b3c cb69 76be
00000200: a7ef a73f 8069 92bf a657 79bf 7b88 d5bf
00000210: 2620 fcbe 6e91 9c3f 0e58 83bf 6742 3fbf
00000220: 712f e53e 1785 8dbf a78e cb3f bc06 22bf
00000230: 96c3 713f d746 a33f e632 653f 9c05 bebe
00000240: 8de7 62bf 1941 80bf 2bac a63f 2c52 443f
00000250: 1cd9 e03f af94 83bf 121d 783f b10e bf3f
00000260: 3865 6ebf 544c 97bf fe9e 90bf d663 a9bf
00000270: 07d6 bfbf 0b0e a13f 8bb5 fcbd b5ae 86bf
00000280: 3d0a 723f 7b96 2dbf b650 a1bf 1db9 31bf
00000290: a6a9 94be 06a5 ce3e 0f38 45bf 4009 69bf
000002a0: 18c7 ea3e c458 65bf 3393 2c3f 5af4 4fbf
000002b0: 5588 3d3f cb70 cb3f f308 bb3c b2bb 2bbf
000002c0: b2d6 dfbe 9345 babf 8b9a 933f f40e 313f
000002d0: 76de ed3f 9e72 aebe 2965 133e 1304 673f
000002e0: 4a22 9cbf 4f29 78bf 2658 a0bf c065 afbf
000002f0: 5f4b 7abf ba4c 863f 6e8e 19bf 3146 13bf
00000300: 70fa 883f 0fc5 d3be 8cd1 b2bf f27f 08c0
00000310: 4724 42bf 57bb 993f 8c56 a8bf f092 70bf
00000320: 2828 0b3f 7524 59bf a81a 813f 0563 96bf
00000330: 85a9 cf3f 8458 b23f c6b2 513f d6c2 85bf
00000340: bd58 41be 7c50 32bf 2d99 733f ac72 3e3f
00000350: 8a95 ca3f a70e 64bf a700 6e3f f475 7a3f
00000360: ffa5 45bf b595 a6bf c670 91be f804 85bf
00000370: 10ea babf ceaf b53f 032d 9abe 2070 61bf
00000380: bae1 803f 0bcb aebe 0aa2 51bf 07d7 82bf
00000390: 65c4 ab3d 5598 d03e cbe0 3abf e8a8 62bf
000003a0: 0ce2 923e 277f e7be f1e7 103f 2b40 f1be
000003b0: 023f cb3e 435b e23e 4ab1 023f f517 2fbe
000003c0: 9950 1fbf 249b 69bf 767f a53f 7be1 a43d
000003d0: fbeb 693f a68c 8b3d d91f 863f b141 8b3f
000003e0: c44e 41bf c1e7 a0bf 6c8f 56bf b555 b6bf
000003f0: 14af 9fbf b4cd 243f 2578 53be 4068 b3be

lstm.weight_hh_l1 f4 [128, 32]
-3.764779 0.013116133 -0.015061268 0.41368186 0.1241379 0.66907775 0.06323338 -0.06382311
-0.098859414 -0.33337674 -0.34960908 0.19032654 0.061720394 0.5477082 0.34818056 0.21948127
-0.7447461 0.39645222 -0.005216151 -0.54483104 0.18695101 2.7321143 -0.6599472 -0.33156446
0.2784812 -0.5127972 0.43862024 0.6105167 -0.03987908 -0.17876904 0.2889282 -1.0478069
-1.1103363 -3.4516973 -0.62116814 1.0890491 -0.8252841 1.302775 0.6149825 -0.9899075
-0.73093593 -1.1712238 0.68789625 0.97659993 0.96809983 0.32582483 0.98214746 1.0280423
-1.0799729 0.9010567 -0.66209084 -1.4074417 -1.0087833 2.088603 -1.7029994 0.31682703
-0.32966456 -1.0693403 1.1946117 -0.50320405 0.61093956 0.56263167 0.3725116 -1.1307384
-0.5004933 -0.55282336 -3.8280182 0.60617656 -0.90188646 0.71456766 -0.17037526 -0.44837984
-0.7028185 -0.5956523 0.28154287 0.4924895 0.213627 0.2874788 0.45432344 0.27425775
-0.8933915 0.5206332 0.10934243 -0.46364203 0.17548639 2.8992956 -0.54600716 -0.1561767
0.07655099 -0.6838921 0.7405834 -0.21306615 -0.10277404 0.11735956 -0.12530677 -0.97374094
-0.5405547 -0.27399024 -0.015804332 3.9367955 -0.64899915 0.60022706 0.06696681 0.009389916
-0.3511682 -1.0970681 -0.4548656 0.37778503 0.06024788 -0.19827554 0.73730916 0.4073701
-0.7287287 0.3399487 -0.120523274 -0.08257169 0.11011508 2.7802272 -0.32359555 -0.45296493
0.43810442 -0.026970837 0.48427802 0.13467862 0.27820748 0.21028905 -0.110229276 -0.46326715
-0.9183133 -0.09225722 -0.05049445 0.40550688 -3.7626832 0.39427915 0.31924888 -0.42393345
-0.08148063 -0.71678317 -0.27100876 0.7670663 0.6592608 0.20678788 0.7450376 0.08594118
-0.7501401 0.28070903 0.40713415 -0.4863474 -0.09730109 3.052181 -0.5072353 -0.2320413
-0.0037971241 -0.51696384 0.38442925 -0.24051633 0.021100752 -0.49428338 0.26530725 -0.30175972
-0.26764217 -0.04273481 0.3651351 -0.15964648 -0.123448275 4.124173 -0.44071814 0.20478225
-0.24994619 -0.25341627 -0.40328443 0.02951716 0.023136197 -0.36496565 0.09386715 -0.7383266
-0.46989968 -0.4707831 0.50808537 -0.7332812 0.32246485 2.5871136 -0.28578463 -0.17718635
0.18288156 0.1553371 0.24639915 -0.09574 0.03455517 -0.35626632 0.01152896 -0.17058156
-1.1987652 -0.841693 -1.1333863 1.1558229 -0.94953924 1.3976465 2.9218962 -1.2288967
-0.81217587 -1.4281071 0.8161058 0.71638393 1.3071024 0.7158269 1.2204254 1.035919
-1.2249644 1.0587901 -0.8647856 -1.1953818 -1.2663196 2.1792283 -1.1369026 0.20894633
-0.5367974 -1.3181027 0.9603824 -0.69641846 1.0110434 1.1626949 0.43884784 -1.1519479
-0.5838576 0.05406314 -0.13602346 0.56771696 -0.5582552 0.73419625 0.04550112 -4.1072373
-0.2188588 -0.67941684 -0.35232317 0.6011339 0.30979326 0.008554035 0.23491535 0.066535406
-1.1687504 0.44313923 0.121143475 -0.5334559 -0.26678258 2.38781 -0.6966213 -0.53301597
0.16941321 -0.5104045 0.59325147 0.00018639577 0.16997978 0.02845557 0.0102061285 -0.41385326
00000000: 24f2 70c0 0de5 563c 89c3 76bc 1cce d33e
00000010: 033c fe3d ae48 2b3f 8180 813d b1b5 82bd
00000020: ce76 cabd 5bb0 aabe f6ff b2be f6e4 423e
00000030: 86ce 7c3d 9b36 0c3f b944 b23e b3bf 603e
00000040: aea7 3ebf c9fb ca3e 3fec aabb 0c7a 0bbf
00000050: 1670 3f3e f6da 2e40 4df2 28bf d1c2 a9be
00000060: 1695 8e3e ad46 03bf d592 e03e d34a 1c3f
00000070: 3f58 23bd 3b0f 37be 66ee 933e 891e 86bf
00000080: 801f 8ebf 9ce8 5cc0 e004 1fbf f665 8b3f
00000090: d245 53bf 55c1 a63f 7e6f 1d3f 946a 7dbf
000000a0: 9e1e 3bbf a9ea 95bf f819 303f 7402 7a3f
000000b0: 64d5 773f 83d2 a63e 046e 7b3f e496 833f
000000c0: 8d3c 8abf a7ab 663f c97e 29bf 0d27 b4bf
000000d0: d01f 81bf acab 0540 e2fb d9bf 2737 a23e
000000e0: cbc9 a8be 25e0 88bf 09e9 983f fbd1 00bf
000000f0: 8966 1c3f a108 103f d7b9 be3e 09bc 90bf
00000100: 5420 00bf d585 0dbf 40fe 74c0 632e 1b3f
00000110: 08e2 66bf e8ed 363f da76 2ebe 0b92 e5be
00000120: eaeb 33bf ab7c 18bf 6326 903e 9527 fc3e
00000130: 09c1 5a3e 6c30 933e 159d e83e 836b 8c3e
00000140: 4eb5 64bf 3848 053f edee df3d 7d62 edbe
00000150: b4b2 333e 0f8e 3940 20c7 0bbf c9ec 1fbe
00000160: c4c6 9c3d 8d13 2fbf e096 3d3f 032e 5abe
00000170: 327b d2bd 365a f03d 6b50 00be 1647 79bf
00000180: cb61 0abf 7348 8cbe 1678 81bc 75f4 7b40
00000190: cf24 26bf 7ba8 193f e525 893d 2ad8 193c
000001a0: 51cc b3be ba6c 8cbf 25e4 e8be 0a6d c13e
000001b0: 7bc6 763d be08 4bbe 4bc0 3c3f d092 d03e
000001c0: f78d 3abf c20d ae3e e8d4 f6bd 591b a9bd
000001d0: 0484 e13d 3eef 3140 51ae a5be 05eb e7be
000001e0: 394f e03e f2f1 dcbc 4af3 f73e 31e9 093e
000001f0: 3671 8e3e 0356 573e e3bf e1bd 5a31 edbe
00000200: 9516 6bbf 5af1 bcbd 45d3 4ebd 999e cf3e
00000210: cdcf 70c0 f5de c93e 9774 a33e ce0d d9be
00000220: 51df a6bd 1a7f 37bf a9c1 8abe 755e 443f
00000230: 51c5 283f 34c0 533e c9ba 3e3f ee01 b03d
00000240: 2e09 40bf 18b9 8f3e e373 d03e 8702 f9be
00000250: cb45 c7bd ef56 4340 2cda 01bf 3c9c 6dbe
00000260: 2cd9 78bb be57 04bf e9d3 c43e ea49 76be
00000270: 7cdb ac3c b612 fdbe 5ad6 873e 4080 9abe
00000280: 6508 89be b20a 2fbd fdf2 ba3e 5e7a 23be
00000290: 73d2 fcbd 3af9 8340 cfa5 e1be 70b2 513e
000002a0: e5f1 7fbe c7bf 81be 4c7b cebe f9cd f13c
000002b0: 1f88 bd3c c7dc babe 6c3d c03d f902 3dbf
000002c0: b196 f0be 7c0a f1be e211 023f 51b8 3bbf
000002d0: 1d1a a53e 4593 2540 5d52 92be 5770 35be
000002e0: 4e45 3b3e b010 1f3e 0f50 7c3e 5513 c4bd
000002f0: b989 0d3d 8a68 b6be f7e3 3c3c efac 2ebe
00000300: 2371 99bf 3179 57bf cd12 91bf 01f2 933f
00000310: 0115 73bf 15e6 b23f 5900 3b40 7d4c 9dbf
00000320: c2ea 4fbf 37cc b6bf 4fec 503f f064 373f
00000330: 224f a73f 6f40 373f e636 9c3f fe98 843f
00000340: a2cb 9cbf 6f86 873f 9762 5dbf 4502 99bf
00000350: c316 a2bf 7a78 0b40 0686 91bf 07f6 553e
00000360: 8e6b 09bf 97b7 a8bf 9fdb 753f 7b48 32bf
00000370: df69 813f 30d3 943f aab0 e03e 0773 93bf
00000380: b177 15bf 5071 5d3d bc49 0bbe e655 113f
00000390: d0e9 0ebf 49f4 3b3f 625f 3a3d 7d6e 83c0
000003a0: 851c 60be 43ee 2dbf b463 b4be e9e3 193f
000003b0: 399d 9e3e 3926 0c3c a68d 703e b743 883d
000003c0: 9d99 95bf 25e3 e23e 121a f83d 9190 08bf
000003d0: ba97 88be e1d1 1840 c655 32bf bc73 08bf
000003e0: a87a 2d3e dfa9 02bf 54df 173f 3c73 4339
000003f0: 2e0f 2e3e a81b e93c 9b37 273c 93e4 d3be

lstm.bias_ih_l1 f4 [128]
-0.81006217 -1.0765947 -0.8192733 -0.7794805 -0.59443456 -0.7221498 -0.57413304 -1.0764246
-0.66136104 -0.80278 -0.73905337 -0.9365025 -0.8910438 -1.0889202 -0.967955 -0.8724449
-1.1522925 -1.1388674 -1.1530755 -0.9282965 -1.0791762 -0.48611027 -0.767056 -0.91389054
-1.1005514 -1.0852792 -1.125627 -0.806721 -0.8517345 -0.961007 -0.7940857 -1.0382134
-3.1267521 -3.351566 -2.7286968 -2.9830563 -3.2481213 -2.9006143 -2.8949761 -2.9357946
-3.0299268 -3.1367266 -3.100658 -3.1039877 -2.7072208 -2.9315767 -3.16744 -2.6237633
-3.0233302 -2.733462 -3.0928323 -3.2211225 -2.561324 -1.5594445 -3.0810647 -3.0019827
-2.9496279 -2.933085 -2.9136844 -3.195985 -2.7335267 -2.6535196 -3.3679788 -3.2180471
0.038742814 0.11918228 -0.0896921 -0.06985246 -0.037112992 -0.12313691 -0.061191022 0.066595435
0.06418916 0.05484471 -0.10064774 0.06600301 -0.04711172 0.029806504 0.038541976 0.1155962
-0.0038463566 -0.02621902 -0.010752425 -0.04329413 0.09352064 0.022651592 0.15651296 -0.00981326
0.08104217 0.07368367 -0.031473678 0.1571455 -0.017054284 0.01498185 0.07460419 -0.028595608
-1.314292 -0.7248383 -0.969921 -1.2454787 -1.3841089 -1.3522768 -1.1844815 -0.9137208
-1.1714711 -1.1055613 -1.2270244 -1.3367231 -1.1798003 -0.86380094 -1.0014886 -0.95156354
-0.8916848 -0.75135726 -1.102192 -0.94312686 -0.70614034 -0.83916366 -1.102777 -0.88697994
-0.74689656 -0.8866775 -0.8645806 -0.96511394 -1.1181278 -1.0476526 -1.1048603 -0.9126094
00000000: 3c60 4fbf dbcd 89bf e5bb 51bf 098c 47bf
00000010: dd2c 18bf cfde 38bf 62fa 12bf 48c8 89bf
00000020: f54e 29bf fd82 4dbf 9a32 3dbf a1be 6fbf
00000030: 721b 64bf bd61 8bbf e6cb 77bf 8d58 5fbf
00000040: 527e 93bf 68c6 91bf fa97 93bf d7a4 6dbf
00000050: 7222 8abf 72e3 f8be c85d 44bf bbf4 69bf
00000060: dede 8cbf 6eea 8abf 8c14 90bf 4485 4ebf
00000070: 460b 5abf 8e04 76bf 3349 4bbf 2de4 84bf
00000080: b51c 48c0 0f80 56c0 f8a2 2ec0 65ea 3ec0
00000090: 38e1 4fc0 aaa3 39c0 4a47 39c0 0fe4 3bc0
000000a0: 52ea 41c0 21c0 48c0 2e71 46c0 bca7 46c0
000000b0: 1b43 2dc0 f49e 3bc0 56b7 4ac0 bdeb 27c0
000000c0: 3e7e 41c0 0bf1 2ec0 f7f0 45c0 df26 4ec0
000000d0: bbec 23c0 e19b c7bf 2a30 45c0 7c20 40c0
000000e0: b4c6 3cc0 aab7 3bc0 ce79 3ac0 058b 4cc0
000000f0: 1af2 2ec0 44d3 29c0 f78c 57c0 7cf4 4dc0
00000100: c9b0 1e3d d715 f43d 7eb0 b7bd ce0e 8fbd
00000110: cb03 18bd 342f fcbd 70a3 7abd 3063 883d
00000120: 9b75 833d d9a4 603d 6720 cebd 962c 873d
00000130: 38f8 40bd c52c f43c 31de 1d3d b3bd ec3d
00000140: 2813 7cbb 45c9 d6bc f02a 30bc 3055 31bd
00000150: c087 bf3d d58f b93c ef44 203e ccc7 20bc
00000160: 70f9 a53d 77e7 963d 8bea 00bd c0ea 203e
00000170: 6db5 8bbc 6f76 753c 15ca 983d 5641 eabc
00000180: b83a a8bf 018f 39bf be4c 78bf d96b 9fbf
00000190: 7b2a b1bf 6817 adbf 179d 97bf 9be9 69bf
000001a0: c4f2 95bf 0883 8dbf 230f 9dbf be19 abbf
000001b0: b203 97bf 0f22 5dbf c730 80bf ab99 73bf
000001c0: 7445 64bf f358 40bf a114 8dbf c370 71bf
000001d0: 9dc5 34bf 6ed3 56bf cc27 8dbf 1e11 63bf
000001e0: 9d34 3fbf 4cfd 62bf 2755 5dbf b511 77bf
000001f0: d01e 8fbf 7b19 86bf 106c 8dbf c5a0 69bf

lstm.bias_hh_l1 f4 [128]
-0.8008609 -1.1342357 -1.0936743 -0.8296111 -0.75340754 -0.7768218 -0.799404 -0.9737419
-0.9276536 -0.9872792 -0.8133229 -0.89033836 -0.8661908 -0.8770932 -1.1602029 -0.96656865
-1.2222724 -1.0383031 -0.8379866 -0.84505314 -1.0877135 -0.3034462 -1.0369822 -1.0256759
-1.1547389 -0.85795444 -1.1047254 -1.0852785 -0.8052455 -0.87855685 -0.748555 -0.90221924
-3.1703136 -3.1770627 -2.5991278 -3.0736787 -3.2517223 -3.1219716 -2.9316592 -2.7603562
-3.3161516 -3.0482886 -2.980535 -2.850986 -2.9418805 -3.0730047 -3.2760978 -2.658333
-3.0222487 -2.753052 -2.808952 -3.2146943 -2.4830158 -1.3614036 -3.073976 -3.2248602
-2.8176932 -2.9194803 -2.8080225 -3.2438428 -2.721726 -2.8277931 -3.3158257 -2.94377
-0.042671267 -0.018989703 0.20022799 -0.045312695 0.015647968 -0.010012624 -0.014345071 -0.013422763
0.04079516 0.004309902 -0.0014101128 -0.07527615 -0.0072266245 -0.14348474 -0.1468437 -0.12952738
0.03205052 -0.06016077 0.04481962 0.14336482 -0.04915317 0.061539426 -0.11334407 -0.06008018
0.0029028447 0.037863616 -0.019807933 -0.02465803 -0.070446976 -0.07072532 -0.16716237 0.13923642
-1.2486284 -1.0314335 -1.0052786 -1.0305048 -1.3489219 -1.2007847 -1.1545459 -1.148593
-1.0871415 -1.0508351 -0.9429157 -1.048476 -1.1469488 -0.79410857 -1.0126418 -1.1582363
-0.9645109 -0.9841537 -0.8693228 -1.1224729 -0.9320027 -1.0096722 -1.1402717 -0.9268105
-0.62604076 -1.1566842 -0.91140616 -0.98658127 -1.1201298 -0.9599876 -1.0960464 -1.0909225
00000000: 3805 4dbf a32e 91bf 85fd 8bbf 6561 54bf
00000010: 51df 40bf cbdd 46bf bea5 4cbf 2647 79bf
00000020: b57a 6dbf 54be 7cbf ee35 50bf 37ed 63bf
00000030: aebe 5dbf 2e89 60bf 8781 94bf 0b71 77bf
00000040: 6c73 9cbf 1ee7 84bf 4a86 56bf 6755 58bf
00000050: 323a 8bbf 4d5d 9bbe d5bb 84bf 5949 83bf
00000060: 7cce 93bf e7a2 5bbf a467 8dbf 68ea 8abf
00000070: 9224 4ebf 1ae9 60bf 4da1 3fbf d7f7 66bf
00000080: 6be6 4ac0 ff54 4bc0 1c58 26c0 27b7 44c0
00000090: 381c 50c0 62ce 47c0 4ea0 3bc0 ada9 30c0
000000a0: d43b 54c0 2917 43c0 16c1 3ec0 8e76 36c0
000000b0: c547 3cc0 1cac 44c0 96ab 51c0 2122 2ac0
000000c0: 866c 41c0 0132 30c0 dfc5 33c0 8dbd 4dc0
000000d0: bbe9 1ec0 7942 aebf 06bc 44c0 1c64 4ec0
000000e0: 1655 34c0 c4d8 3ac0 a4b6 33c0 1f9b 4fc0
000000f0: c230 2ec0 90fa 34c0 7d36 54c0 ba66 3cc0
00000100: 11c8 2ebd 4b90 9bbc 9108 4d3e ce99 39bd
00000110: 2b30 803c fd0b 24bc 9707 6bbc 26eb 5bbc
00000120: d318 273d 143a 8d3b 89d3 b8ba 622a 9abd
00000130: 52cd ecbb aaed 12be 325e 16be d3a2 04be
00000140: 6847 033d 246b 76bd c794 373d 3ace 123e
00000150: d654 49bd c410 7c3d f020 e8bd a316 76bd
00000160: a73d 3e3b e116 1b3d 3f44 a2bc a3ff c9bc
00000170: 8146 90bd 70d8 90bd 9d2c 2bbe fe93 0e3e
00000180: 0ed3 9fbf 0306 84bf f8ac 80bf 95e7 83bf
00000190: 79a9 acbf 50b3 99bf 29c8 93bf 1805 93bf
000001a0: 7427 8bbf c481 86bf ec62 71bf 7634 86bf
000001b0: 38cf 92bf b34a 4bbf 3f9e 81bf 1641 94bf
000001c0: 30ea 76bf 7ff1 7bbf f08b 5ebf 31ad 8fbf
000001d0: bb97 6ebf f03c 81bf 6cf4 91bf 7443 6dbf
000001e0: 3544 20bf 3a0e 94bf ea51 69bf 9790 7cbf
000001f0: 6a60 8fbf bfc1 75bf 404b 8cbf 59a3 8bbf

linear_2.weight f4 [1, 64]
0.7361271 -0.8047429 -0.77462906 -0.20704156 -0.7954614 0.86181456 -0.70031464 -0.7042722
0.842155 -0.63877887 0.7194353 -0.7778877 0.66010356 0.74617594 0.7979034 -0.7414319
-0.76413465 -0.8169891 0.69754493 0.7557791 0.6735768 -0.74903333 0.8474651 0.75597304
-0.62447506 -0.72604156 -0.64063376 -0.73375875 -0.6893613 0.75589573 -0.86076975 -0.765041
0.9079487 1.1660732 0.94942504 -0.8913155 0.979134 -0.879521 -1.3807056 0.8983839
1.3014346 0.9379612 -1.348696 -0.9489961 -0.9910028 -1.5090595 -1.1205884 -0.83718693
0.973565 -0.8986629 0.8514651 1.4261203 0.80172867 1.0921681 0.84140867 -1.4098561
1.5133024 1.0378834 -0.9288389 1.3377191 -1.2582746 -0.8491533 -1.3452847 1.235842
00000000: d372 3c3f a103 4ebf 174e 46bf b402 54be
00000010: 5ca3 4bbf e19f 5c3f d247 33bf 2f4b 34bf
00000020: 7897 573f 0387 23bf e92c 383f a623 47bf
00000030: 8cfc 283f 6305 3f3f 6643 4c3f 7bce 3dbf
00000040: 549e 43bf 3326 51bf 4e92 323f bd7a 413f
00000050: 876f 2c3f a6c0 3fbf 79f3 583f 7387 413f
00000060: 99dd 1fbf dcdd 39bf 9300 24bf 9dd7 3bbf
00000070: fb79 30bf 6282 413f 685b 5cbf bad9 43bf
00000080: 536f 683f e341 953f 850d 733f 412d 64bf
00000090: 87a8 7a3f 4a28 61bf f6ba b0bf 7dfc 653f
000000a0: 6995 a63f 3a1e 703f 12a2 acbf 69f1 72bf
000000b0: 5cb2 7dbf dd28 c1bf 716f 8fbf e251 56bf
000000c0: 8e3b 793f c60e 66bf 9ef9 593f 1c8b b63f
000000d0: 173e 4d3f 2acc 8b3f 8f66 573f 2a76 b4bf
000000e0: e5b3 c13f 5dd9 843f 63c8 6dbf 613a ab3f
000000f0: 240f a1bf 1c62 59bf 4a32 acbf 1230 9e3f
