stock_models/IBM.pth (torch, 72386 bytes, 11 tensors)

linear_1.weight f4 [32, 1]
00000000: ed73 06bd a2fb 25bc 78a2 3b3c 2607 d63e
00000010: 6eb9 6cbf 2a3e 26bf b30c 01bf c074 603d
00000020: a71c ecba 2844 483e 9285 8b3e dbc9 32bf
00000030: 3960 25bf 38e9 323f 6b7e 213f 7815 5ebe
00000040: 4dff 203f fd48 59bf 16d4 043f 4293 443f
00000050: ae7e 523f 0430 09bf a000 433d 8064 023e
00000060: f588 1a3f f47a 583c 4955 82bf 29a3 66bc
00000070: 1bdb 013f 33a1 2bbf 5489 d83e 5614 4a3f
-0.0328254 -0.010130795 0.01145231 0.4180233 -0.92470443 -0.64938605 -0.5041 0.05479884
-0.001801391 0.1955725 0.27250344 -0.69839257 -0.6459995 0.69887114 0.63083524 -0.21687877
0.6288956 -0.84876996 0.5188612 0.767872 0.8222455 -0.5358889 0.047608018 0.1273365
0.6036523 0.013212908 -1.0182277 -0.014076986 0.50724953 -0.67042845 0.42292273 0.7893728

linear_1.bias f4 [32]
00000000: 07f7 bebd 7a47 1bbe f24f a9bd d206 6ebf
00000010: 3867 42bf 0286 b83d 7627 693f 18dc 2bbe
00000020: 9c59 36bd db06 9e3e bdef 1fbf ffc4 963e
00000030: 0612 77bf ba1c 82be b378 85bf b64e 29bf
00000040: 39e9 3cbd 89af 8cbf dccf 05bf d8de 0ebf
00000050: dbee 82bf 74fb 1dbe 102d 9ebe 14d1 2dbf
00000060: a93e 6fbe 3f80 6fbd f721 1bbf ca3d 1ebd
00000070: b0d2 d13e ac5d 3abf 345e 333f 4691 fc3e
-0.093244605 -0.15163985 -0.082672015 -0.92979157 -0.7593875 0.09009935 0.9107584 -0.16783178
-0.044519052 0.30864605 -0.62475187 0.2944717 -0.96511877 -0.25412542 -1.042746 -0.6613573
-0.046120856 -1.0991069 -0.52270293 -0.5580878 -1.0229143 -0.15427953 -0.30893755 -0.6789715
-0.23363747 -0.058471914 -0.605987 -0.038633145 0.40981054 -0.7279918 0.7006562 0.49329585

lstm.weight_ih_l0 f4 [128, 32]
00000000: 84f8 763c 6cb8 f3bd 982e 3f3d 75d0 503d
00000010: d119 993e b20e 31bd 6bf7 63bc 1a2a 223e
00000020: 777b a1bd c8d7 ecbd 4f3c a83e 466a bfbb
00000030: 452e 013f 33d6 073e beac cb3e 629a 843d
00000040: 1147 d43d 602a 913e 3bff 2a3e a349 8f3e
00000050: 2d34 a43e 8215 a03c 35fa ebbd eb8f b93c
00000060: 7601 343e d9ac 4cb9 b248 833e 1aeb cc3d
00000070: cc38 e6bd af99 cd3e eab5 24be 1cd8 c73d
00000080: bd47 0fbd e210 82bd 41a7 9cbc 034c ff3d
00000090: d14e c33e d016 3b3e 7e1a c3be 7427 203e
000000a0: 761b af3c c2d6 cbbd 5c0d b63d 95d7 453e
000000b0: 76b4 fc3e ccba cc3d 52c3 21be b2cb 38bd
000000c0: 84a5 88bb 677d cd3e 8c06 6fbc 3f88 5e3e
000000d0: 5f5a 643e 9927 0b3e 9fbe 26bc cca8 b13d
000000e0: c4da a03e 26fd 473d e900 073f 068b a33d
000000f0: 1e87 d3bc 00aa 313e ed24 78bc 1e03 a8bd
00000100: d0a6 423e dda4 053e c01d 183e f4bd 013f
00000110: dcdb 243f 26b7 783e b78b 65be 3184 19be
00000120: a5e8 543e bdb8 96be bdd8 113f b30d 063e
00000130: 4307 d53d f344 0d3f 9309 603f 62f8 bb3c
00000140: 10dc e33e 46f9 2b3f ea5d 403f 826f 413f
00000150: 1ce4 093f f189 213e f584 0cbe 053f 2ebe
00000160: cd42 013f cdbc 083e a337 fa3e 5640 78be
00000170: 90a6 f73b d8cb 363f fd17 b6be b7cd e0bc
00000180: c39f 70be 2571 4abe 6416 aa3d c8f8 e03e
00000190: 5355 803e 4acd 833c fd12 22be 5177 2e3e
000001a0: eb60 09be 842d 0dbe 33d9 a63e 8e10 95bc
000001b0: 4714 493e e781 e03e 1d4b 053f 5b3e 09be
000001c0: cb03 533e c62e ed3e 4df4 c33e 7cf5 393e
000001d0: 8444 173e c2b8 2d3e 697d 593c 515d ce3d
000001e0: 5ae3 c43e e67f 93be b040 373e 913e 923d
000001f0: cca0 60bc e677 ce3e 1343 87be 505a 3b3c
00000200: f140 da3d e83d 7d3d a48c 2a3e 2751 953e
00000210: 4320 933e 568f 223e a07f b4be 46e6 003e
00000220: 73d3 04be fab9 883d 50da 3b3e 6db1 e8bd
00000230: 7408 34be 81a9 273e 753c 053f 2471 2c3e
00000240: 1a6f 95bc b468 92bd 30a8 b93e 8bb8 d43e
00000250: 129a ed3e 7e28 d13e fe21 663d 33d8 523c
00000260: 90af 203e 5650 ea3c 897d 013f c32c ec3c
00000270: 1139 483d bc8c 2b3e a37a 18bd f266 f53d
00000280: f21d b1bd da65 263e b9b0 243d 30ba 933e
00000290: cebf 3a3f 5941 7e3c ae93 d9be bba0 83bc
000002a0: 0463 5abd 643c 67bd 0fa7 e03e 23ae 42bc
000002b0: c3f0 6d3e a0c2 973e cf24 cc3e 5915 30bc
000002c0: 22ca a43e ad05 ac3e ed12 583e f15f c33e
000002d0: 4bbf d53e 3771 113e 11dc 123e db9d 303e
000002e0: 211a f03e 3ed7 823d b109 0e3f 081d 7e3d
000002f0: 4bd6 dbbc 1486 0d3f da16 3fbe 3f5e 8e3e
00000300: dc6b 61bd 9dd9 103d 067a 52bb d454 a63e
00000310: 945b 123f 35f6 163c 028a 95bc 4f60 193e
00000320: 47f3 cabd f5e4 6cbe 1970 a43e 6e84 8f3b
00000330: f3de e03e cc81 db3e 8405 1e3f 74df 04be
00000340: 3f11 a23d 6a65 2a3e 71a4 3f3f 8f31 bc3e
00000350: 4b6d 103f 5cfe b63e 3106 cd3d 98f6 2bbe
00000360: 8c05 9e3e bdc7 c83d 7eb2 dd3e 7308 1cbe
00000370: e0e1 a4be 068a ba3e e2c8 f1be 325b 14bd
00000380: be46 583e 5e78 31bc 312e 96bd 65a5 663d
00000390: c951 313f 0416 84bc 4b56 5dbe 5c53 2fbd
000003a0: e959 1bbe 5657 32be dc59 ee3d 7681 403d
000003b0: e97f 833e 2ccb f53e 7cfd 9c3e 7efb f7bd
000003c0: 4558 0a3f 9993 f33e 1fc5 313f 4c3a 2a3f
000003d0: 34c0 163f 6aa4 5e3e 1eed 1abe 733d 923d
000003e0: 4a57 fd3e 5691 7b3d 82ce b13e a364 35be
000003f0: d27f aabd e1bd 083f 9feb 42be 63d6 0bbe
0.015073899 -0.1190041 0.046675295 0.05098005 0.2990251 -0.043226905 -0.0139139695 0.15836373
-0.07884877 -0.115645945 0.32858512 -0.005841526 0.50461227 0.13265304 0.3978023 0.06474759
0.10365117 0.28352642 0.16698925 0.27985868 0.32071057 0.019541506 -0.115223326 0.022651633
0.17578682 -0.00019519347 0.256414 0.100057796 -0.11241302 0.40156314 -0.1608502 0.097580165
-0.034980524 -0.063508764 -0.019122722 0.1246567 0.3814607 0.18270421 -0.3810615 0.1564005
0.0213754 -0.09953071 0.08889267 0.1932052 0.4935643 0.09996566 -0.15797165 -0.045116134
-0.0041701216 0.40134737 -0.014588963 0.21731661 0.22300099 0.13589324 -0.010177284 0.086747736
0.31416905 0.048825406 0.52735764 0.07985501 -0.025821265 0.17350006 -0.015145523 -0.082037196
0.19008946 0.13051172 0.14855099 0.5068047 0.6439798 0.24288616 -0.22416578 -0.14991833
0.20791872 -0.2943782 0.5697134 0.13091163 0.10401776 0.55183333 0.8751461 0.022945587
0.44503832 0.67177236 0.751433 0.7556077 0.5386369 0.15775277 -0.13722594 -0.17016228
0.50492555 0.13353272 0.48870572 -0.24243292 0.0075576976 0.7140479 -0.35565177 -0.027441842
-0.23498444 -0.19769724 0.08305052 0.43939805 0.25065097 0.0160891 -0.15827556 0.17037703
-0.13415878 -0.13786894 0.32587585 -0.01819637 0.19636641 0.43849108 0.5206774 -0.13402693
0.20606916 0.46324748 0.38272324 0.18160051 0.1477223 0.16965011 0.013274529 0.100763924
0.38454705 -0.28808516 0.1789577 0.0714084 -0.013710212 0.4032585 -0.2641836 0.011435106
0.10656918 0.061826617 0.16655213 0.29163477 0.2873555 0.15874991 -0.3525362 0.12587842
-0.12971286 0.06676097 0.18344998 -0.11361966 -0.1758135 0.16373254 0.52045375 0.16840035
-0.018241454 -0.07148877 0.3626113 0.41547045 0.4640661 0.40851206 0.05618476 0.012868929
0.15691972 0.02860276 0.50582176 0.028829938 0.048882548 0.16752905 -0.03722633 0.11982526
-0.0864829 0.16249791 0.0402076 0.28852987 0.7294892 0.01551851 -0.42495483 -0.016067853
-0.053317085 -0.056454077 0.43877456 -0.011882338 0.23236375 0.29640675 0.39871833 -0.010747277
0.32185465 0.3359808 0.2110097 0.38159135 0.41747507 0.14203344 0.14341761 0.17247717
0.46894935 0.063887104 0.5548354 0.062039405 -0.026835581 0.5528271 -0.18661061 0.2780628
-0.055034503 0.035363782 -0.0032116189 0.32486594 0.5717099 0.009213974 -0.018254284 0.14978145
-0.09909683 -0.23134215 0.32116774 0.0043798005 0.43920097 0.42872465 0.61727166 -0.12975866
0.07913446 0.16640249 0.7486029 0.3675656 0.5641677 0.35740936 0.100109465 -0.16793287
0.30863607 0.09803722 0.4330024 -0.15237598 -0.3220358 0.3643343 -0.47223574 -0.036219783
0.21120736 -0.01083192 -0.07333029 0.056310076 0.6926542 -0.01612378 -0.2161495 -0.042804107
-0.15171017 -0.17416129 0.11638233 0.046998464 0.25683525 0.4800657 0.30662143 -0.12108515
0.5404094 0.47573546 0.6944141 0.66495204 0.5888703 0.21742406 -0.15129516 0.07140627
0.4948066 0.0614179 0.34727865 -0.17714171 -0.08325161 0.5341473 -0.19035195 -0.13656001

lstm.weight_hh_l0 f4 [128, 32]
00000000: 6398 453d 94fd 923c af5f 8a3c 0b41 943e
00000010: 3405 623e 3b95 cf3e 02f6 233e 83f0 5c3e
00000020: 1966 f33d f2e4 943d 0b91 a83e dd29 893d
00000030: d1a3 173e a89f 0b3d 7ab4 d5bb 5408 703e
00000040: ccbc 723e f291 973e ff9f 943d 8841 c73e
00000050: 0f0f 22be e424 e43d d980 9abe 4912 543e
00000060: 7607 6a3b a3e7 8e3e ea47 473e 8db4 2cbe
00000070: 7426 1f3d 721a 973e 3acf 4bbe ad2e 9b3e
00000080: 2c7d 65bd 1adc 2a3f fd01 473e acc1 5a3e
00000090: 9207 ddbc 16fc a8bd c4e6 693e d9d4 f43b
000000a0: 0f4b 06be 7bc9 19be af29 a23d 0e2d b13d
000000b0: ed31 5bbd 7b1d 7abe c8d4 05be 3648 1d3e
000000c0: ce21 85be 460a 953d eeab 8a3b eac9 ddbb
000000d0: bb8b 87be 9bf7 0dbd 13b0 6f3e dfb9 d7bd
000000e0: ec3d 4b3d 1a30 ffbd 8d5d 253e 4dc6 20be
000000f0: d840 323c b3a9 41bd 8de0 eabd ecfe 353e
00000100: d39a 383e 155f a1be 4cd0 a5bd a80c 21bd
00000110: 9383 9b3e 67a2 0bbe 1f6e 4cbd 18ff 383e
00000120: 1728 a8bd b27d bdbe 6de4 a63e d155 663e
00000130: eb5d fb3c cbb0 84be 24ae 87be 17ca 283d
00000140: 73ff af3c 8802 8f3d 51e5 313e 33ae 133c
00000150: e4a6 e5bd 37d2 6ebe 9655 0ebe 73cd 263c
00000160: cab2 193e d1a0 403e 8e1e aebd 55e5 1bbe
00000170: 2652 193e 389a 7a3d 8561 86be b883 a03d
00000180: d00c c33d cb71 a7bc d25b 39be b359 0fbe
00000190: d5f9 493e 9062 38bd 3d98 89bd 066f 5dbd
000001a0: 5726 83bd 97b5 27bf bcb6 843b cacd 953d
000001b0: 2a7b bbbe 00e5 03be e037 863d be1b ee3d
000001c0: c6fc 8f3c 053e 813d 0471 14be aa5c 963d
000001d0: eb61 cf3d b244 6a3c 7de3 abbd 5f12 e13d
000001e0: 6edb 9c3d 366d 3dbe d4d1 233e e2e0 8e3d
000001f0: 17e2 903e 2ed4 853e f0cf bbbe bf85 153e
00000200: 68ee a7be cae8 a33e 1130 d13e 5573 bcbe
00000210: 5e3f 35be b16c 5bbe 01b0 6dbe 3720 00bf
00000220: ad12 76be 0124 dd3d 0ce4 69be 9136 e23e
00000230: 5b40 1c3e 5c92 abbe ee18 a73e 6b85 17be
00000240: 25e3 a4be a0f7 aabe 905e 42be 412a 873a
00000250: 5072 d53d ff25 f3be a804 013e bceb 25be
00000260: d8cb c5be 7de7 0cbd f4a8 a9be 2809 cc3d
00000270: 3397 59be 80e4 5fbe ba55 8e3e 6350 11be
00000280: 1e94 a6be 60f9 453e f5b8 bb3d 79a3 e7bb
00000290: c94f 733e 3a0c 67bc 5961 8cbe 3b25 c9bd
000002a0: a882 0cbe e52d b73b 94e4 0d3e 68e9 853e
000002b0: 9bec 9e3d 3a03 cf3d b3a9 9a3d 3ec3 d3be
000002c0: 2148 133e d521 46bd 92a9 b7bd 1518 343e
000002d0: c656 5f3e 5ad5 70be b6ac b1bb 8b1e 12be
000002e0: 3205 f8bd 8e10 993d cbd0 d7bd 17d8 62be
000002f0: 33c2 bdbd e0f5 923d ad7d 65bd 03a7 29be
00000300: b526 76bc d5a5 00be c4e3 eb3d 074c 193e
00000310: c2f1 683e 8fba 653d 92a5 a6bd e680 55be
00000320: 4321 873d b58f f33c 01cd 653e fbe4 f33d
00000330: 245d 893e 824f 92be 5227 f0bb 67a3 093f
00000340: e892 e03d 5cf8 9e3d 4e7c 8abd ea95 923d
00000350: dcb3 bd3d 320c fd3d 6e20 0bbe db73 d63d
00000360: a321 a03e 66a1 b13d afd4 eb3d caa3 97be
00000370: dc1c 703c 83d9 863d 31cd 43be 0420 aabc
00000380: f0c3 5bbc f00d 6bbe 6e5a c8be ca34 f53e
00000390: 851d 103e 6790 753d 96af 703e 3e00 303e
000003a0: 9823 ab3d 8c87 45be e991 b33e b25a 77be
000003b0: c4a1 20be e58a 883c cf3c a63c 68cc 7d3e
000003c0: 968c 243e ba84 743e 34cb 353e 35ed 273e
000003d0: 2603 9abd fa04 6a3e 4b43 26be 2737 c83d
000003e0: 9537 84bd 4f9d 923e e254 793e 7898 ccbe
000003f0: 482f 9c3e 0b90 d73d c0ee 3abe a94b a93d
0.04824103 0.017943181 0.016891329 0.28955874 0.22072297 0.4054354 0.16011813 0.21576123
0.11884708 0.0727023 0.3292316 0.06697438 0.14808585 0.034087807 -0.0065217586 0.23440677
0.23704833 0.29603535 0.07257079 0.38917184 -0.15826057 0.11139849 -0.30176428 0.207101
0.0035710013 0.279111 0.19461027 -0.1686575 0.03885503 0.29512364 -0.1990327 0.30309048
-0.056027576 0.667421 0.19434352 0.21362942 -0.026981149 -0.082512066 0.22841936 0.0074716625
-0.1311457 -0.15018265 0.07918107 0.086511716 -0.05351441 -0.24425308 -0.13069451 0.15359578
-0.26002353 0.0727735 0.0042319214 -0.006768455 -0.26473793 -0.034659963 0.2340701 -0.10533499
0.0496196 -0.124603465 0.16148968 -0.15700646 0.010879718 -0.04728098 -0.11468611 0.17773026
0.18027811 -0.31517854 -0.0809637 -0.03931871 0.3037382 -0.1363617 -0.049909707 0.1806606
-0.082107715 -0.3700996 0.3259615 0.22493674 0.030684432 -0.25916132 -0.26500046 0.041208353
0.021484112 0.06982905 0.17372634 0.0090137 -0.112134725 -0.23322378 -0.13899836 0.010180819
0.15009609 0.18811347 -0.085019216 -0.15224202 0.14972743 0.06118223 -0.26246276 0.07837623
0.09523928 -0.020440003 -0.18101433 -0.13999061 0.1972421 -0.04501587 -0.0671849 -0.05406096
-0.06403797 -0.6551146 0.004050104 0.07314642 -0.36617404 -0.12880325 0.06553626 0.11626385
0.017576586 0.063106574 -0.14496237 0.07341893 0.10126098 0.014298605 -0.08392999 0.10989832
0.076590404 -0.18498692 0.15998012 0.06976487 0.28297493 0.26138443 -0.3668208 0.14601801
-0.32799077 0.3201354 0.40856984 -0.3680674 -0.17699954 -0.21428181 -0.23211671 -0.50049156
-0.24030562 0.10797883 -0.22840899 0.44182256 0.15258925 -0.335101 0.32636207 -0.14796989
-0.32204548 -0.33392048 -0.18981385 0.0010312275 0.10422194 -0.47489926 0.12599432 -0.16203207
-0.38632083 -0.034400452 -0.33136714 0.09962684 -0.21249084 -0.2186451 0.2779978 -0.14190821
-0.3253488 0.1933341 0.09166137 -0.007069048 0.23760904 -0.014102036 -0.2741802 -0.09821554
-0.13721716 0.005590188 0.13856727 0.26154637 0.07759973 0.10108037 0.07551899 -0.41359895
0.14382984 -0.04837211 -0.0896789 0.17587312 0.21810445 -0.23518887 -0.0054222 -0.14269464
-0.12110366 0.07473861 -0.10537871 -0.22152744 -0.09265556 0.07175803 -0.056028057 -0.16567616
-0.015023877 -0.1256326 0.11518052 0.14970408 0.22748473 0.05608612 -0.08137049 -0.20849952
0.06598141 0.02973161 0.22441484 0.11908909 0.26828873 -0.28576285 -0.007328906 0.5376496
0.1096552 0.077622145 -0.067619905 0.071575 0.09262821 0.12355842 -0.1358659 0.104713164
0.31275663 0.086733624 0.115151756 -0.2961715 0.014655318 0.06584456 -0.19121243 -0.02076722
-0.013413414 -0.22954535 -0.39131492 0.47891837 0.14073761 0.059952166 0.2350448 0.17187592
0.08356398 -0.19289988 0.35072258 -0.24155691 -0.15686709 0.016667793 0.020292668 0.24785006
0.16069254 0.23878756 0.17753297 0.16399081 -0.07520132 0.22853461 -0.16236608 0.097761445
-0.06455914 0.28635642 0.24348786 -0.39960074 0.30504823 0.10525521 -0.18255138 0.08266384

lstm.bias_ih_l0 f4 [128]
00000000: ff59 96be b63f e8bd 8098 b4bd ee24 43be
00000010: 8767 83be 86a9 b7be efd8 eabe 4773 f3bd
00000020: 0ec5 6fbe dbae 10be e37c 76be e5cc 42bd
00000030: cd05 7cbe 055b 30be 7691 94be 5cdd eebd
00000040: 5024 60bb 4fac 21be a80f 5fbe 7830 24be
00000050: 2aa6 dfbd 5cf0 d6be b7c0 bcbd 5ea5 b4be
00000060: 4302 acbe 1ef1 63be 26c3 91be ba29 15be
00000070: 05ff a4be 88fa 80be dba7 3bbd d67d 72be
00000080: b71f 21bf 7a03 30bf 1ec5 31bf f6de 52bf
00000090: 952a 52bf d4d1 0ebe 137a 883c 8fae 7fbf
000000a0: b67f 84bf ee6f 85bf 01ec a0bf f8eb 23bf
000000b0: a6ba 06bf ba2c 71be 5cb7 c7be 3bc1 b9bd
000000c0: 1f0e 64bf e6c3 78bf 347e 97bf 4e95 93bd
000000d0: 4ba1 3cbf 691c aabf 0df5 03bf 8600 2bbf
000000e0: 9020 26bf cb27 00be 5b6a 55bf 6cbc 38bf
000000f0: b67f 6abe 5bc2 2abf e410 53bf 5c93 57bd
00000100: 37ef 1bbd 3b7f 6d3d f2cf 74bc b237 9dbd
00000110: 254f 123e 032a f63d caa7 27bd c702 883d
00000120: dcad eabd 073b a13d 90b5 0cbd e669 ed3d
00000130: a8f7 883d 03b8 4e3d dbc1 dc3b 8aa2 10bd
00000140: 0d16 febd 8715 00be 425c e4bd 2dc1 fd3d
00000150: d7f8 d33d af77 98bd 02e0 19bd 3fc7 88bb
00000160: 4495 60bd cc94 5f3c eedd 47bd 7cb4 343c
00000170: f6b3 0f3b 8118 fbbd e526 aabd 8ac3 08be
00000180: e6d8 a4be e90e ddbe f8c3 0cbf 4d21 cfbe
00000190: 2be6 b5be 620f adbe fe03 f2be c7f6 f2be
000001a0: 9e76 f8be 23d1 2ebf 346d 84be 731d 22bf
000001b0: 9331 35be b111 4bbe a7ea ddbe a006 a43d
000001c0: 812f 07bf 7845 7fbe 210b f2be c31d 2dbf
000001d0: 0077 a3be a562 7ebe e581 d5be 572e acbe
000001e0: 40c9 33be 9826 4bbe e310 93be f632 e4be
000001f0: 79a5 12bf dedb bdbe 9721 04bf 4ecc fcbe
-0.29365537 -0.11340277 -0.088181496 -0.19057056 -0.25664923 -0.35871524 -0.45868632 -0.11887222
-0.23415014 -0.14129202 -0.24071078 -0.047558684 -0.24611588 -0.17222221 -0.29017228 -0.11663315
-0.0034201331 -0.15788387 -0.21783316 -0.16034114 -0.10920365 -0.41980255 -0.09216445 -0.35282415
-0.33595476 -0.22259948 -0.284692 -0.14566699 -0.32225814 -0.2519114 -0.045814376 -0.23680815
-0.6293902 -0.68755305 -0.694414 -0.8237146 -0.82096225 -0.1394723 0.016659772 -0.9987573
-1.0351474 -1.0424783 -1.2572023 -0.64031935 -0.5262855 -0.23552218 -0.3900708 -0.09070059
-0.8908405 -0.9717392 -1.1835389 -0.07206212 -0.73683614 -1.328992 -0.5154579 -0.66797674
-0.64893436 -0.1251518 -0.8336541 -0.7216251 -0.2290028 -0.6670281 -0.8244765 -0.052630767
-0.03806993 0.057982665 -0.014942156 -0.07676639 0.14288004 0.12019732 -0.0409315 0.06641155
-0.11458942 0.07872587 -0.03435284 0.11592464 0.06687862 0.050468456 0.0067369766 -0.03531126
-0.124065496 -0.12508212 -0.11150409 0.12390361 0.10350197 -0.07444703 -0.037567146 -0.0041741426
-0.05482985 0.013646316 -0.048795633 0.011029359 0.0021927333 -0.12260533 -0.083082 -0.13355842
-0.3219673 -0.43175438 -0.54986525 -0.40455094 -0.35527167 -0.338008 -0.4726867 -0.474539
-0.48527998 -0.6828787 -0.25864565 -0.63326186 -0.17694692 -0.19830967 -0.43343088 0.08009076
-0.5280686 -0.24928844 -0.47274116 -0.6762354 -0.31926727 -0.24842317 -0.41700664 -0.33629104
-0.1755724 -0.19838941 -0.2872382 -0.4457013 -0.5728374 -0.37081808 -0.51613754 -0.49374622

lstm.bias_hh_l0 f4 [128]
00000000: 0f52 8fbe fc3b dfbe c1d3 9bbe 60ec d5be
00000010: b36c 8abe f0f2 a2be c82e 7ebe 95e5 9abd
00000020: 1652 a9bd abff 1fbe e6d9 32be 1442 a6be
00000030: fd66 20be 3daa d6bd 06b4 b9bd 46dc c13a
00000040: 76ab 72be ec9f acbe 2c92 95be 11be 90be
00000050: 8bfc b4bb d192 01bf 5926 c2be bb23 36bd
00000060: b963 d0be f012 42be f590 6fbe f235 0abe
00000070: 8f73 a1be f9ef 75be def2 e8bc 47af d0be
00000080: cbdd 38bf 8684 6abf 28ec 38bf 1438 83bf
00000090: cf3a 23bf cd5d 83be e7aa ea3d f07c 48bf
000000a0: 30ea 80bf 15d0 8fbf 2f12 81bf e6be 22bf
000000b0: 9294 0abf 215d c3be 829c ddbe 9b28 953c
000000c0: ddfb 62bf 2493 4abf baac 95bf 17b4 9cbe
000000d0: 9577 52bf f544 a9bf efe4 0dbf 363a 48bf
000000e0: ce95 14bf b57a 9a3c 7f3c 05bf 423f 77bf
000000f0: 7559 d3be a369 26bf a2c2 68bf 086b 52bd
00000100: 2a87 ce3c eb52 7dbd a680 183e eac8 a9bd
00000110: f536 afbd 9c99 4dbe 8df0 ccbc f5d4 72bb
00000120: b066 013e 8fa3 40be 600e bfbd 8aff 8bbd
00000130: 7858 943d 97e2 423d 99bc 9b3c 7a48 c63d
00000140: 84b3 f6bc 1ebe babd 6c44 723d af8c 223d
00000150: 6bf5 ee3d 2155 eb3d 1655 84bd f894 653d
00000160: 4cfe 623d de16 113e 30c2 68bd 60b9 ec3d
00000170: 4448 62bc 136b c73d 8ebd 18bd 92ac 3d3e
00000180: 0c83 bbbe 7384 d1be 32a3 29bf 3747 06bf
00000190: e11e 97be dc30 07bf 96c1 08bf 9f76 ffbe
000001a0: f936 26bf 97cd 21bf dbd2 08bf ffbb 1abf
000001b0: 5104 a2be 1071 00bf 8b68 b7be aadc 32bc
000001c0: 5737 efbe 3f48 07bf e45e 21bf db70 1dbf
000001d0: 182f febe 52c8 b6be a1a2 8ebe a6ea 12bf
000001e0: fb9c 92be 8863 c5bd a317 f7be ca83 d1be
000001f0: f6b6 18bf 04df f6be 73fb 09bf 70cd ddbe
-0.27992293 -0.43600452 -0.30434993 -0.41781902 -0.27036056 -0.31825972 -0.24822533 -0.075633205
-0.0826761 -0.15624873 -0.17465934 -0.3247229 -0.15664287 -0.10481689 -0.0906754 0.0014790378
-0.2369822 -0.3371576 -0.29213083 -0.2827001 -0.0055232695 -0.5061465 -0.37919882 -0.04446767
-0.40701082 -0.18952537 -0.2339514 -0.13497141 -0.31533477 -0.24017324 -0.02843612 -0.40758726
-0.7221343 -0.91608465 -0.72235346 -1.0251489 -0.6376161 -0.25657502 0.11458378 -0.7831564
-1.0071468 -1.1235377 -1.0083674 -0.6357254 -0.5413295 -0.3815699 -0.43283468 0.018207839
-0.8866556 -0.7913077 -1.1693337 -0.30606148 -0.8221372 -1.3224169 -0.5542745 -0.7821382
-0.58041084 0.01885734 -0.52045435 -0.965809 -0.41279188 -0.6500494 -0.90921986 -0.051371604
0.025210936 -0.061846655 0.14892825 -0.082902744 -0.08555404 -0.20078129 -0.025017047 -0.0037053202
0.12636828 -0.18812393 -0.09328914 -0.068358496 0.072434366 0.047579374 0.019010829 0.096817926
-0.030114897 -0.09118293 0.059147283 0.039684948 0.116679035 0.114908464 -0.06461541 0.05605027
0.055418298 0.1416888 -0.056825817 0.11558795 -0.013811175 0.0973722 -0.03729015 0.18522862
-0.36623418 -0.40921363 -0.6626464 -0.52452415 -0.29515746 -0.5280893 -0.5342039 -0.49895188
-0.6492763 -0.6320433 -0.5344674 -0.6044311 -0.31643918 -0.5017252 -0.35821947 -0.010916868
-0.46721908 -0.52844614 -0.63035417 -0.6150033 -0.49645305 -0.35699707 -0.2785845 -0.57389295
-0.28635392 -0.09638125 -0.4826022 -0.4092086 -0.59654176 -0.48217022 -0.53899306 -0.433208

lstm.weight_ih_l1 f4 [128, 32]
00000000: dbcd 0cbe 9313 14bc c9b4 1bbe b914 093e
00000010: a940 4b3c 7f3f 193e 99c7 2f3d 742d bebc
00000020: 218d 3dbc 659f bfbc f8d3 cabd 1549 abbd
00000030: d3af 113e 5049 05be 925b 9dbd 6b88 813e
00000040: e5bd 953d 8c42 4b3e cace 913e 35fa 9dbc
00000050: 8fcb e3bd 6a7d 133d e322 a4bd 151b 30bd
00000060: 3558 9c3d e44d d43d 1913 463e 880d 32be
00000070: 1576 e83d 577e d23d edf8 d83c 7851 b7bd
00000080: 5683 13be ba10 813e d9ac ea3c 7ec6 0bbe
00000090: 996d ab3d d498 bd3d d45e 913d b633 10bc
000000a0: a068 8fbe e50e e6bc 430a 6a3e 85da ed3d
000000b0: 3583 233e f536 40bd efa7 9c3c 4a07 bcbe
000000c0: fac5 58bd bca8 173e c3be 68bc ec79 233e
000000d0: 62fe 8c3e 2f05 97be 57aa 66be 33fd ccbd
000000e0: a658 e8bc b871 0ebe 1c53 093d 1599 fc3d
000000f0: 45d3 66be 3463 e23d 369d 533c 17de e73d
00000100: 63cd d4bd f892 073d fead 99be d48c 133d
00000110: 7d77 a6bd 408d 99bd cf84 38bc 0d77 533c
00000120: 25da a2bc ae01 80be d03b 433e f254 d63d
00000130: 9ff6 3d3e 2cba 9d3d 1650 18be ae14 d73d
00000140: 2581 88bd 5575 cdbd e35f d93d 8ef0 273d
00000150: 82eb f3bc 863a ad3d 0575 9bbd 6271 313d
00000160: b16e c7be 7a19 903d 9430 103e e3b9 54bc
00000170: d9e2 d73d a708 463d 097b 4f39 e3fb 7d3e
00000180: dc62 adbc 3562 2abe 0e21 c03c 2e2b 8b3d
00000190: ee8e a03d 4a4f 153e 23d6 cf3d 53ab 86be
000001a0: f759 1fbd a2ee babd 1721 473e 4081 cabd
000001b0: c93b 9e3c 5721 4ebe f7e2 95bd a5e2 8b3e
000001c0: 77c8 66bc 7cce 7a3e fb0b 353e 6021 47bc
000001d0: 2ee1 003e c9c6 763e e20c 09be 8d9a 113e
000001e0: ae49 ff3d 503b 853e 8a73 b6bd e112 1fbe
000001f0: c5c3 803d 10fe 04be 5d38 bcbd 0f5f 5d3d
00000200: 6dcf 623d 4d39 103e c343 bc3b cb8f 053c
00000210: 8554 323e 5d5e 763d 7bc3 fabd 3e5f ccbd
00000220: 27fe 87be c939 16be 5a96 ddbd cc08 643e
00000230: 378d 80bd e636 99be 72a9 b7bd cb20 2f3d
00000240: 3b48 3c3e 2321 193d 2c9e 00be 9f4a ea3d
00000250: b057 2b3e 8249 843e 8f27 8f3b d366 abbd
00000260: 6bad 9abd a9c4 ad3d 742a 06bd 7249 133d
00000270: 0cb0 ef3c b1a5 883d 151c 55be 126b a13c
00000280: eb3e 2fbe bc20 e83d b950 e7bd 5464 18bb
00000290: c7b4 183d 399e 2f3d c176 19be 5fc4 e7bd
000002a0: f743 1dbe b485 0dbe 4f4f b3bc 860e 35bc
000002b0: 9061 0abe 36d0 17be fd1a 22be a441 813e
000002c0: 79b2 2c3e 363f 6e3e b97e 533e 035b 063e
000002d0: ecc7 a93b f470 ad3d 85fd 1ebd 35f4 f63d
000002e0: b0a3 183a ca26 a73d 7c21 b23d c915 12be
000002f0: d1ef 653d 8e94 4bbd 7e46 f3bd 591e 3f3d
00000300: 8177 123e e48d 693b 135c 0bbe 74aa 50be
00000310: 4a34 cf3d 829f 383d 6a5b 8c3d 0b2a 2cbc
00000320: 5f5c 053d 96e5 93be 7250 f3bb efb5 14be
00000330: 0422 a83d 11bb 1c3e 89f7 313d d303 e73c
00000340: eb87 153e 6a29 20be 853e 963c 48d4 52bd
00000350: 37f1 34bd 58ea 2c3e 4705 e5bd 06d7 743e
00000360: 03e1 8abd 99ea 9dbc a563 463e 240b 3d3e
00000370: f1f1 243e 2e7e adbd 20b2 42be 9246 883d
00000380: 0571 183c 270d ab3c 6703 3f3e 2e58 7cbd
00000390: 7f68 84bb 31b1 f03d 5505 783d db33 d9bd
000003a0: 0686 20be b6f9 9bbd 5517 e73d c3bf a2bd
000003b0: bc90 883e ddc1 bcbd d184 f63d 83e9 dfbd
000003c0: cca0 c13d ae85 173e 129d 25be 110e 7b3d
000003d0: 43c2 7d3d 54c8 b1be 9282 403e 1ec5 08bb
000003e0: d769 3abe c0a5 603e dcd0 333e 8148 adbd
000003f0: c7c9 fcbd 2d1e 19bc 45bf 21bd 301d 0f3e
-0.13750403 -0.00903787 -0.15205683 0.13386811 0.012405553 0.14965628 0.04291496 -0.023215033
-0.011569292 -0.023391435 -0.09903711 -0.08363549 0.14227228 -0.13016248 -0.07683481 0.2529939
0.0731161 0.19849604 0.2847808 -0.019284347 -0.1112281 0.036008276 -0.080144666 -0.042994577
0.07634012 0.10366419 0.19343223 -0.17387974 0.11350647 0.10278004 0.026485885 -0.08951086
-0.1440557 0.25208074 0.028646873 -0.13649938 0.083705135 0.09257665 0.07098165 -0.008801391
-0.2800951 -0.028083274 0.22855477 0.11613945 0.1596802 -0.04692741 0.019123046 -0.3672431
-0.05292318 0.14810461 -0.014205637 0.15964478 0.2753783 -0.29496142 -0.22525917 -0.100092314
-0.028362583 -0.13910568 0.033526525 0.123338856 -0.2254153 0.11054078 0.0129159 0.11321657
-0.10390737 0.033099145 -0.30015558 0.036022976 -0.08128259 -0.074976444 -0.011262133 0.012906802
-0.01987941 -0.25001281 0.19065785 0.10465421 0.1855111 0.07701525 -0.148743 0.10501991
-0.06665257 -0.10032145 0.10613992 0.041000895 -0.029775385 0.08458428 -0.07590679 0.04332102
-0.38951638 0.07036109 0.14081031 -0.012983772 0.10541315 0.048348095 0.00019786893 0.24803118
-0.021165304 -0.16639026 0.023453262 0.06795345 0.07839762 0.14581028 0.10148265 -0.26302585
-0.038904157 -0.09127547 0.19446217 -0.09887934 0.019315617 -0.20129906 -0.07318681 0.27321354
-0.0140858805 0.2449283 0.17680351 -0.012153953 0.12585899 0.24099268 -0.1338382 0.14219113
0.12465225 0.26021814 -0.08908756 -0.15534545 0.0628734 -0.12987542 -0.09190438 0.054045733
0.055373598 0.14084359 0.0057453825 0.008151959 0.17415054 0.060148586 -0.12244316 -0.099791035
-0.2656109 -0.14670481 -0.10819693 0.2226898 -0.062769346 -0.29924697 -0.08967866 0.042755883
0.18386929 0.037385117 -0.12560338 0.11440014 0.16732669 0.25837332 0.0043687294 -0.083692215
-0.07552608 0.084847756 -0.03275533 0.035958715 0.02925875 0.06672228 -0.20811494 0.019704375
-0.17113845 0.113343686 -0.112946935 -0.002325316 0.037281778 0.042875502 -0.14986707 -0.11316752
-0.15357958 -0.13820535 -0.021888403 -0.011050826 -0.1351378 -0.1482552 -0.15830608 0.25245392
0.16864957 0.232663 0.2065381 0.13120656 0.0051813032 0.0846881 -0.038815994 0.120582975
0.0005822731 0.08161695 0.08697793 -0.14266123 0.05613691 -0.04970222 -0.1187868 0.0466598
0.143034 0.0035637552 -0.13609342 -0.20377523 0.10117395 0.045073994 0.06853373 -0.010508071
0.032558795 -0.28886098 -0.0074253613 -0.14522527 0.08209613 0.15305735 0.04344896 0.028200066
0.1460263 -0.15640798 0.018340359 -0.05147198 -0.044175353 0.1688627 -0.11182647 0.2391015
-0.06781199 -0.019276904 0.19373949 0.18461281 0.16107918 -0.084713325 -0.19013262 0.06654085
0.00930429 0.020880295 0.18653642 -0.061607532 -0.004040777 0.117525466 0.06055196 -0.10605594
-0.15676126 -0.07615988 0.11283747 -0.07946732 0.26672924 -0.09216664 0.120370515 -0.10933211
0.09454498 0.14797089 -0.16173199 0.06129271 0.06195284 -0.3472315 0.18799809 -0.0020869444
-0.18204437 0.21938229 0.17560142 -0.08461095 -0.123431735 -0.009345573 -0.03948905 0.13975978

lstm.weight_hh_l1 f4 [128, 32]
00000000: c6fc 903e 40b4 4b3e 7d9c c8be ee5f bfbb
00000010: 0a7b 8a3e 3b35 be3e 5280 ebbe 67bd 463e
00000020: 2499 aebd 16d9 adbb a163 aa3e 1614 f1bc
00000030: 81d9 953d 67ce 1d3e 4262 d4be 3a7f 143e
00000040: 374e cdbe 53ca 813e 99fd a8be cd9b 343e
00000050: bd73 843e fa11 d13e d21a e53e 754c 01bf
00000060: 5cb6 6ebe 2c2f 373e b581 a43e 1f87 70be
00000070: 930d 35be f035 643e 67d6 9ebe 748a 01be
00000080: b4a5 b9be 7137 39be d9fd c13e cd83 6dbe
00000090: f714 62be 4706 8bbe b535 433e b886 ccbe
000000a0: 7633 d13e 3985 17be 7c84 5ebd d4f3 ba3d
000000b0: 41bb d03e df02 99be 3147 003d a2e6 f9be
000000c0: 8012 eb3e 4cda d2be 6f5f 903e d205 9ebe
000000d0: 557d 20be de0b 1abe c0f1 31be dc33 2cbd
000000e0: 128b 913e 050f c2be ab56 05be 5f13 5d3e
000000f0: f32e 6cbd cecc a0be 9fd9 1f3e 1d78 993e
00000100: f228 d13d 8612 763e a4c2 63be 19f4 db3d
00000110: ad0c 543d 11d2 06bd 2f5d afbc d698 b3bd
00000120: 59f8 0cbe 39b5 0e3e 1ca0 3ebd d4eb 03be
00000130: 07b3 463e a65f 7e3e e30b 8fbe fc17 963c
00000140: 14d1 bbbe e5bd 823d fd08 ecbd e321 6d3e
00000150: 7982 643e dc18 fb3e 0d41 033e 911a 58be
00000160: 8743 bbbe ccd9 89bd 2c63 c93e e08d 1ebe
00000170: 9d1f 71be f5b8 193d d61e cbbe 1199 8abe
00000180: 5a75 073e bf85 f83d ca7a a7be 01c2 a03e
00000190: 854a 653e 46d5 bc3d af0d a9be 23d6 813e
000001a0: c612 96be fbec f83d 86bd cd3e e7f3 26be
000001b0: f4b2 f6bd 6ab0 913d 2445 f3bd f2d5 693e
000001c0: 7335 b0be e7d2 c83d b96a c7be b387 773e
000001d0: d4e3 ac3e 9f30 d03e 1ccd ca3e 8c86 5fbe
000001e0: 26aa babe 3b5a 1c3e 4089 833e a1ef edbe
000001f0: a8cf 30be fc5a 983e 2f8d e9be 3504 09be
00000200: 3d0a 00be de16 6b3e e138 acbe fcc8 453e
00000210: 81d5 b03e da36 ad3d 6ad3 8bbe bf24 18be
00000220: 8019 b83d e348 63bd 5c20 d03e 4e38 af3d
00000230: 28b1 6ebd fb80 8dbd 7465 a8be 28da cdba
00000240: e2af 6ebe 4cfa 393e 13f5 65be 7412 5c3e
00000250: fa9c fb3d d8ca 7a3e 5cfa cb3e 622f 64be
00000260: 676c cabe f5ac 2a3e 6414 f43d 9716 62be
00000270: 87c0 efbe 7e93 b83e c326 acbe 9e9c b2bd
00000280: 43ee 143e b204 7a3d 637c d3be dfb2 823e
00000290: 9220 c93b 5865 d93e b6b3 d2be 6b46 f2bd
000002a0: 2f5a ac3d 464e b4bd 506a b53e b6b8 0dbe
000002b0: a8eb aabd f883 483c 208b efbd 9eab 3d3e
000002c0: e69f 8bbe 4810 9c3e 6053 11be b99d c23e
000002d0: 79d6 953e 3ff1 cb3e a7f2 123e ba20 c2be
000002e0: d458 90be fec9 21bd db08 843e 2840 28be
000002f0: e711 65be bf78 173e 39ba b5be e802 22be
00000300: 5b0d 363e 9db1 6d3e 4592 183a 68dc b5bd
00000310: b507 d03d 5a5f 3abd 78d8 4f3e 19e6 133d
00000320: fcd6 a3bd 5d6a 4bbd 8193 453d 0397 dabd
00000330: 4bcc 70bd f57b 2abd a9ff 28be 9c01 8b3d
00000340: bdfa a3bc 3050 a83e 4404 57bc 72b0 8c3e
00000350: df3b 1b3d 10bb b73e 3ff0 a13c ee5c 82bc
00000360: b792 143d 9bac 143e e85f 603e c498 c7bc
00000370: 6fc3 eebe 8ee1 3b3e 9949 21be 437e c5bd
00000380: 88f7 d8be f3d2 593d 587a e13e cc03 1fbe
00000390: 2a34 5cbe 0e6d 7bbe b234 993d c592 0bbf
000003a0: de4f b03e 67cf e0be 76ef e1bd 9a62 993e
000003b0: 19cb 5e3e 192f 75be 3323 9b3e 448c 73be
000003c0: 4188 e13e b6cd 26be cc4f cf3e f701 61be
000003d0: 0b34 74be b8e0 12be 2ab1 a9bc 5674 3b3d
000003e0: a2c8 b73e 269b 9dbe caf0 6dbe 4771 733e
000003f0: ce82 84bc 53b5 8bbe 278e 14bc e35d 233e
0.2831785 0.19892979 -0.3918189 -0.005840293 0.27046996 0.37149987 -0.45996338 0.19408189
-0.08525303 -0.0053054197 0.33279136 -0.029428523 0.07316876 0.15410767 -0.41481215 0.14501658
-0.40098736 0.25349674 -0.3300598 0.17637558 0.2586955 0.40834028 0.44747025 -0.5050729
-0.23311752 0.17889088 0.3213021 -0.23489045 -0.1768096 0.222862 -0.3102295 -0.12650472
-0.36259234 -0.18087555 0.37888983 -0.2319481 -0.2207831 -0.27153227 0.19063456 -0.39946532
0.40859574 -0.14796914 -0.054325566 0.09128538 0.40767863 -0.29885003 0.031317893 -0.4880877
0.45912552 -0.41182172 0.2819781 -0.30863816 -0.1567281 -0.1504359 -0.17377377 -0.042041644
0.28426415 -0.37902084 -0.13021342 0.2158942 -0.05766196 -0.31406254 0.1561036 0.29974452
0.10212888 0.24030504 -0.22242218 0.10739917 0.0517699 -0.03291518 -0.021406738 -0.087693855
-0.13766612 0.13936318 -0.04653941 -0.1288293 0.19404231 0.24841174 -0.27938756 0.018321984
-0.3668295 0.06383876 -0.11525152 0.23157458 0.22315396 0.49042404 0.12817784 -0.21103884
-0.36574957 -0.067309946 0.39333475 -0.15483809 -0.23547216 0.037529904 -0.39671963 -0.27069905
0.1322836 0.12134885 -0.32710868 0.31398013 0.22391708 0.09220366 -0.33018252 0.25358686
-0.29311198 0.121545754 0.40183657 -0.16303979 -0.12045851 0.071137264 -0.11878422 0.2283552
-0.3441578 0.098058514 -0.3894861 0.24172859 0.3376757 0.40662095 0.3960961 -0.2182867
-0.36457938 0.15268795 0.2569065 -0.46471885 -0.17266715 0.29756916 -0.45615527 -0.13380511
-0.12503906 0.22957942 -0.33637145 0.1931495 0.3453789 0.08457728 -0.27309734 -0.14857768
0.08989239 -0.055489432 0.40649688 0.08555661 -0.058274418 -0.06909367 -0.32889903 -0.0015705274
-0.23309281 0.18161887 -0.2245677 0.21491414 0.122858 0.24491441 0.39839447 -0.222837
-0.3953583 0.1666754 0.11917952 -0.2207893 -0.46826574 0.36050028 -0.33623323 -0.087212786
0.14544015 0.061039634 -0.41305837 0.25527093 0.006137916 0.42460132 -0.41152734 -0.118298374
0.08415639 -0.08803992 0.35432673 -0.13839993 -0.08345729 0.012238495 -0.11696458 0.18522498
-0.2727043 0.30481172 -0.14191961 0.38010958 0.29265192 0.39832494 0.14350377 -0.37915593
-0.2819277 -0.039499275 0.25788006 -0.16430724 -0.2237011 0.14792155 -0.3549364 -0.15821421
0.17778532 0.23212285 0.00058201357 -0.0887993 0.1015772 -0.04550109 0.2029742 0.03610811
-0.079999894 -0.049661983 0.048236374 -0.106733344 -0.05878858 -0.04162212 -0.16503777 0.06787416
-0.020017022 0.32873678 -0.013123576 0.27478367 0.037898894 0.35884905 0.019767879 -0.015913453
0.03627273 0.14518969 0.21911585 -0.024364837 -0.4663348 0.18347761 -0.15750732 -0.09643223
-0.4237635 0.053179692 0.44038653 -0.15528792 -0.21504274 -0.2455332 0.07480754 -0.5452083
0.34435934 -0.43908235 -0.11032002 0.2995804 0.21757163 -0.23943748 0.30300292 -0.23783976
0.44049266 -0.1628941 0.40490568 -0.21973406 -0.23847978 -0.14343536 -0.020714361 0.045765243
0.35895258 -0.3078243 -0.23236385 0.2377368 -0.016175654 -0.27286777 -0.009067095 0.15953784

lstm.bias_ih_l1 f4 [128]
00000000: c174 c9be dc6d 00be 4f59 c7be 5b25 a7bd
00000010: 484b cbbe 286b 19be dd5c 8fbe 7121 3cbe
00000020: 3a01 aebd 2ff9 abbe cdc3 aebd 780f 29be
00000030: 3a2a c9be 4a0a 9fbd 78a0 aebe 22c4 5abe
00000040: 248a cdbe 21d5 35be 9d54 c3be 1710 01bf
00000050: ec68 6fbe 98f3 d9be 2d12 88be 9ef4 67be
00000060: 58e5 bfbe 1d31 cfbe 1d15 56be e60f f9be
00000070: 178f fbbe 562f dcbe 2e5f 5fbe 09eb 35be
00000080: c76f 8ebe f255 38be e086 e5be 831e 8ebe
00000090: f8e2 8ebe 8552 b5be ee99 61bf 0b0b 60be
000000a0: 73f5 a7be 31c0 76be 051b 45be 7e60 b3be
000000b0: b463 23bf 2829 61be b105 b4be 55ff bcbe
000000c0: a62b a9be a0f3 fcbe 55d6 7dbe 8877 18bf
000000d0: 2cbe 21bf ddbf b7be dfb3 fcbe 8fdf c9be
000000e0: 8743 1bbf 2b4a 15be 5a14 dcbe bf46 98be
000000f0: d9f9 06bf abcc 9ebe c25a 12bf d144 56be
00000100: f8d1 6a3b e083 babd 7382 94bd c3a0 263d
00000110: e3a5 7c3d c74a 2abe b8f6 6d3d ff9b eabd
00000120: 6bd8 82bd fbee a53c 8cb9 c8bc 139a a63d
00000130: 3e28 ce3d f550 083d d7c3 c8bc 34de 87bd
00000140: 190b 5bbc 81a3 173c b4c2 7fbd 9002 dc3c
00000150: 7f33 bebc 3681 ca3d 7209 9fbd 36ee 2dbe
00000160: 9b1d 81bd 3519 11bd d5b5 2fbd 9d07 c43d
00000170: 2f25 ef3d 7d2b ec3b 967f 253d 7b99 fdbc
00000180: ab40 acbe 2270 68be 54bf 34bf a03d e4be
00000190: 8500 0dbf c641 1ebf 7213 f8be d591 f1be
000001a0: 13ea 82be d794 a2be c0eb 24bf 5c5e b9be
000001b0: 32d3 dbbe e778 10bf 086a bcbe 0c49 12bf
000001c0: 8569 1dbf ea67 8fbe 3684 63be fcc4 06bf
000001d0: d1cc 9fbe 44e9 18bf 3122 83be ca48 82be
000001e0: 7a85 c7be da09 c4be f30e 3ebe 6653 fbbe
000001f0: 5316 88be 13e6 44be 6c2a 0fbf 02f6 03bf
-0.3934689 -0.12541908 -0.38935325 -0.08161422 -0.39705873 -0.14982283 -0.28000537 -0.18372132
-0.08496328 -0.3358855 -0.0853344 -0.16509807 -0.3929003 -0.07765634 -0.34106803 -0.21363881
-0.40144455 -0.17757083 -0.38150492 -0.50415176 -0.23379868 -0.4256866 -0.26576367 -0.22651908
-0.37479663 -0.40467158 -0.20906492 -0.48644942 -0.49132606 -0.43004864 -0.21813652 -0.1776544
-0.27819654 -0.18001536 -0.44829464 -0.27757654 -0.27907538 -0.3541452 -0.88125503 -0.21879213
-0.3280445 -0.24096753 -0.19248588 -0.35034555 -0.6382401 -0.21988356 -0.35160592 -0.36913553
-0.33041114 -0.4940462 -0.24788792 -0.5955739 -0.63180804 -0.35888568 -0.4935598 -0.39428374
-0.60649914 -0.14579074 -0.42984277 -0.29741475 -0.5272499 -0.31015524 -0.57169735 -0.20924689
0.0035830718 -0.091071844 -0.07251444 0.040680658 0.06168164 -0.16630088 0.058096617 -0.11455535
-0.06388935 0.020255556 -0.024502538 0.08134856 0.10066269 0.03328033 -0.024507446 -0.06634179
-0.013369345 0.009255291 -0.062441543 0.02685669 -0.023217915 0.09887926 -0.077654734 -0.16985402
-0.06304475 -0.03542443 -0.042898018 0.095717646 0.11677014 0.0072073326 0.04040488 -0.030956974
-0.33643088 -0.22699025 -0.70604444 -0.44578266 -0.5507892 -0.6181911 -0.48452336 -0.47181574
-0.2556921 -0.3175418 -0.64422226 -0.36204803 -0.42934567 -0.5643448 -0.36799645 -0.5714271
-0.61489135 -0.28008968 -0.22218403 -0.52644324 -0.3121095 -0.59730935 -0.25612023 -0.2544616
-0.38969022 -0.38288766 -0.1856039 -0.49087065 -0.26579532 -0.19228391 -0.55924106 -0.51547253

lstm.bias_hh_l1 f4 [128]
00000000: 2728 dabe 406f a3be 32ed c6bd ecce a4be
00000010: 2a8a 86be 36e9 0dbe 92c4 80be 510e 1bbe
00000020: 3d99 61be 5528 9ebe 2fac 0cbe d603 2bbe
00000030: fc76 7ebe 4b3b 72be c2cc 9abe 5af0 c6bd
00000040: b2cf 0abe 37a2 cdbd 71d3 a6be 3b88 92be
00000050: 33a2 86be ca3e c5be 90fa b5be 39ed c1be
00000060: 96d8 b7be 8b46 bebe 7f72 85be 5c88 3abe
00000070: 818c 2ebe 102e afbe aac9 87be 79d1 d9be
00000080: e24e 06be ddc2 04be 90e8 edbe 9799 2abe
00000090: b633 e9be 376a 8bbe c25c 39bf 0a2a 81be
000000a0: 0695 70be f756 aabe b9ee f7be 4cad 9abe
000000b0: 86a5 08bf 5c19 eabe 4f10 22be 5dd5 b0be
000000c0: 6fdf 1ebf 8804 f4be 7d98 43be ba6e 05bf
000000d0: eeba c5be 2b9d b9be 6997 8ebe f38d d4be
000000e0: 019b 12bf e49e b4be a2a6 01bf 8701 aabe
000000f0: 3e72 d6be eb31 4bbe bdb9 9bbe 1d0d 9abe
00000100: 3641 3ebd 8c0f c63d 63ef cc3d 33d5 85bd
00000110: 5252 c1bd c3ab 1d3e c9e4 d3bc c752 fb3d
00000120: 7000 9e3d dbd8 1e3b 123d db3c 5e1a 4bbd
00000130: 0b93 42bd 1ec6 80bc 0914 413d 2b1b 543d
00000140: f443 f03c f7e3 69bb 6953 ad3d d2a4 98bc
00000150: 82c4 fd3a 8ee7 8abd c475 763d 281c 283e
00000160: 278c 393d 792f 1d3d 3209 9c3c db11 dfbd
00000170: a380 f6bd 70a5 f7bc defc 1cbd 50b7 b03d
00000180: 5166 b4be 0af6 ccbe ebe1 ebbe 9ae5 d6be
00000190: b5ed c0be 60ae 09bf eee8 07bf fff5 02bf
000001a0: 9c30 7fbe 17df f5be b327 c2be c1cc 78be
000001b0: b7ff 0cbf ff89 e0be e5d2 4ebe 6422 16bf
000001c0: efd9 b8be f532 0abf 6c13 07bf 12fd d1be
000001d0: db36 c0be e982 7fbe 8914 f4be 1aea b9be
000001e0: 1aad fbbe 04b8 a7be aa5d c2be 1e29 7dbe
000001f0: 8617 0dbe 7a29 d3be db42 c0be 8088 02bf
-0.4260876 -0.31920815 -0.0971321 -0.3218912 -0.26277286 -0.13858494 -0.2514997 -0.1514218
-0.22031112 -0.30890146 -0.13737558 -0.16700682 -0.24850076 -0.23655431 -0.30234343 -0.09713812
-0.13555792 -0.10040706 -0.32583192 -0.2861956 -0.26295623 -0.38524467 -0.35542727 -0.378763
-0.3590743 -0.37163195 -0.26063916 -0.1821608 -0.17045785 -0.3421483 -0.26521045 -0.42542627
-0.13116029 -0.1296496 -0.46466494 -0.16660152 -0.45547265 -0.27229473 -0.7240716 -0.25227386
-0.23494348 -0.33269474 -0.48424318 -0.3021034 -0.5337757 -0.45722473 -0.15826534 -0.34537783
-0.6205968 -0.47659707 -0.19101138 -0.5212208 -0.3861918 -0.36252722 -0.27849892 -0.4151455
-0.5726777 -0.35277474 -0.50644886 -0.3320429 -0.41884035 -0.19843261 -0.30415145 -0.3008813
-0.04644891 0.09670934 0.10006597 -0.06534805 -0.094395295 0.15397553 -0.02586593 0.12271648
0.07714927 0.0024238143 0.026762519 -0.049585693 -0.047503512 -0.01571947 0.047138248 0.051783722
0.029329278 -0.0035688856 0.08463175 -0.01863328 0.0019360932 -0.06782447 0.060170904 0.16416991
0.045299675 0.03837535 0.019047353 -0.108920775 -0.12036254 -0.030230254 -0.03832709 0.08628714
-0.3523431 -0.40031463 -0.460708 -0.41972047 -0.37681356 -0.537817 -0.530898 -0.5115661
-0.24920887 -0.48021767 -0.37920913 -0.24296857 -0.5507769 -0.43855283 -0.20197637 -0.58646226
-0.3610377 -0.53984004 -0.5276401 -0.4101339 -0.3754185 -0.24952282 -0.47671917 -0.36311418
-0.49155504 -0.3275758 -0.37962085 -0.24722716 -0.13778505 -0.41242582 -0.37551007 -0.5098953

linear_2.weight f4 [1, 64]
00000000: cccb 433e 40ac 56be 5d32 82be f2c2 5f3e
00000010: 7940 453e 40f9 303e c3f9 223e cc67 6e3e
00000020: 55c9 623e b497 6cbe 3897 583e ca9f 78be
00000030: bdd1 4ebe ace0 203e 3218 6dbe ece6 8dbd
00000040: f451 5c3e d10b 5e3e 6fc6 6a3e 63c6 5e3e
00000050: 4165 48be a68e 843e d69a 3dbe fdeb 513e
00000060: e86d 4d3e 3caf 07be cafb 363e 0a72 61be
00000070: ce79 6a3e 578c 383e 5558 40be dbc6 233e
00000080: 7b61 583e b0ba 3b3e 67ca 41be d8db 453e
00000090: ee6c 543e 03ee 503e bbf8 4fbe 8876 543e
000000a0: a2cc 43be 7f94 4b3e 0223 343e e204 40be
000000b0: bb59 4dbe 1bf1 413e 3c03 4bbe c1c9 2a3e
000000c0: 0207 2fbe e08c 3c3e da1f 57be ad55 613e
000000d0: 7324 523e a590 4b3e 1852 443e 0818 57be
000000e0: 91a7 40be 6bfa 3a3e e58e 3d3e aaa8 44be
000000f0: 2cae 65be 5e15 603e edfb 4abe 2470 47be
0.19120711 -0.20964146 -0.2542905 0.2185171 0.19262876 0.17282581 0.15915589 0.23281783
0.22147115 -0.23104745 0.21151435 -0.24279705 -0.20197196 0.15710706 -0.23153761 -0.069288105
0.21515638 0.21684195 0.22927259 0.21755366 -0.19569875 0.25890082 -0.18516096 0.20500179
0.20061457 -0.1325044 0.17869487 -0.22016159 0.22898027 0.18022285 -0.18783696 0.15993826
0.21130936 0.18332934 -0.18924867 0.19322145 0.20744678 0.20403294 -0.20309727 0.20748341
-0.1912103 0.19880866 0.1759148 -0.18751863 -0.2005376 0.1893963 -0.19825453 0.16678526
-0.17092517 0.18413115 -0.21008244 0.22005339 0.20521717 0.19879396 0.19171941 -0.21005261
-0.18813922 0.1825959 0.18511541 -0.19204965 -0.22429723 0.21883151 -0.19822665 -0.19476372
