stock_models/IBM.pth (torch, 137360 bytes, 7 tensors)

linear_1.weight f4 [64, 4]
-0.41511795 0.062387723 -0.2563657 0.09018151 0.382563 -0.21176288 0.03510579 0.19672269
0.0032140068 -0.0022593928 0.0030764388 0.0031936725 -0.32556498 -0.07865804 0.35097286 -0.15236911
0.3700856 -0.08224378 0.20732802 0.017107893 2.8212991e-05 0.00028222002 9.392071e-06 9.402328e-06
-0.21876132 -0.20205271 -0.4209865 -0.29128948 -0.26939216 -0.151807 -0.01447183 -0.09293593
-0.070932046 -0.09412318 0.35571742 -0.045278817 0.092740126 0.22953287 0.15909833 0.041025665
0.00042917664 -0.000113982846 0.0005282573 0.00040394015 0.00067283015 -0.00053519243 0.00036962907 0.0008744939
0.0013996074 0.00020131697 0.0012102171 0.0016837406 0.23035231 0.16593076 0.21649997 0.019972524
-0.037976887 -0.19442227 -0.4203467 0.118702225 0.04449743 0.1551624 0.2692972 0.28432566
0.4695031 0.10042989 0.23794499 0.0952733 0.30500546 0.09147372 0.1507186 0.14247338
0.19964541 0.07223183 0.110544845 -0.086505264 0.35121185 0.03741704 0.31526092 0.19607715
-0.2263996 0.12278642 -0.2533872 -0.08183909 6.6613648e-06 -0.00021852237 8.877453e-06 -1.0367308e-05
-0.35231408 -0.044684645 -0.30104014 0.07769933 -0.26904696 0.24530675 -0.17228274 -0.13069333
-0.1641797 -0.25755212 0.26334378 -0.21004063 -0.25398305 -0.030709185 -0.33517656 0.20457388
-0.36502913 0.121060334 -0.04067183 0.24622382 0.0018885233 0.0033878419 0.0013219134 0.00054935284
0.028257996 -0.10321394 0.06835395 -0.0064226934 0.34169874 0.16995026 0.3634212 -0.12669583
0.26184562 0.22547017 0.038443148 0.14328665 0.2681313 -0.12989055 -0.2911113 -0.16417435
-0.091938 -0.055871934 0.16770501 -0.10509435 -0.43402597 0.17400259 0.3604768 -0.27371773
0.13471746 0.19289611 -0.39076662 -0.2955281 0.002705822 -0.0016333148 0.002778772 0.0026955751
-0.30076048 -0.008423025 0.16293895 -0.2351702 8.696373e-08 7.2221333e-06 3.15276e-08 -2.8093515e-08
-0.37374368 -0.014456699 -0.17700341 0.05596866 0.002374447 -0.005254456 0.0025528858 0.0029977844
-0.0006026733 -0.00018619742 -0.0005821213 -0.0008309353 -0.19862764 0.041287307 0.022016685 -0.14497243
-0.10865546 0.037781235 0.17132547 -0.22983494 -0.20458576 -0.2028091 0.17905511 -0.26580653
0.0010737358 0.0010724664 0.000853644 0.00039461892 -0.2800677 -0.107624464 -0.34872803 0.43256474
0.37287843 0.12944941 0.028598255 -0.12928718 0.25336397 -0.15157855 0.009399245 0.043427393
0.2992676 0.006373545 0.2848208 -0.44845074 -0.00011336739 0.00014838789 -0.0001263733 -0.00013852044
0.10893277 -0.15052085 0.13373809 0.039295834 -0.41664395 -0.25731915 -0.3778439 -0.41419438
0.00038054827 -0.00038796134 0.00048088413 0.000594482 0.09788297 0.14120787 0.08638662 0.18033586
0.0031316555 8.48723e-05 0.002566561 0.0020367575 0.1771018 0.0072408007 0.10447067 0.2251252
0.00090758613 5.492498e-05 0.0011127993 0.0018705853 0.0006036193 -2.5734456e-05 0.00053228415 -5.321041e-05
-7.055998e-08 -5.1981483e-06 -5.7224966e-08 1.18015606e-07 0.0013015727 0.00061191554 0.0013101482 0.0015088355
0.28137714 -0.13985918 0.2431828 -0.33810088 0.012046532 -0.14299871 -0.001235699 0.017706074
0.45853844 -0.14184164 -0.15692902 -0.09451878 -0.46061662 0.04325536 -0.37132698 -0.09053494
00000000: 578a d4be 458a 7f3d 5d42 83be 15b1 b83d
00000010: 4cdf c33e 5ed8 58be 17cb 0f3d ac71 493e
00000020: 16a2 523b 5212 14bb 149e 493b ef4c 513b
00000030: 74b0 a6be 7717 a1bd b7b2 b33e a606 1cbe
00000040: dc7b bd3e 6d6f a8bd cc4d 543e da25 8c3c
00000050: f0aa ec37 eef6 9339 a392 1d37 b1be 1d37
00000060: f802 60be e8e6 4ebe 8b8b d7be e523 95be
00000070: c5ed 89be 4b73 1bbe 411b 6dbc 3155 bebd
00000080: d244 91bd a7c3 c0bd 9820 b63e 4876 39bd
00000090: 89ee bd3d aa0a 6b3e acea 223e 870a 283d
000000a0: 1d03 e139 130a efb8 bf7a 0a3a eec7 d339
000000b0: de60 303a 284c 0cba c6ca c139 4b3e 653a
000000c0: 0873 b73a 9d18 5339 26a0 9e3a f6b0 dc3a
000000d0: 7ae1 6b3e c1e9 293e 2bb2 5d3e 6b9d a33c
000000e0: a78d 1bbd a216 47be af37 d7be 271a f33d
000000f0: f042 363d e4e2 1e3e 53e1 893e 2293 913e
00000100: b662 f03e 30ae cd3d daa7 733e a61e c33d
00000110: ad29 9c3e 9356 bb3d fa55 1a3e 8be4 113e
00000120: d96f 4c3e 48ee 933d 5665 e23d ac29 b1bd
00000130: 0ad2 b33e 9c42 193d e169 a13e 73c8 483e
00000140: 4cd5 67be 7277 fb3d f8bb 81be 419b a7bd
00000150: b084 df36 2723 65b9 5ff0 1437 40ef 2db7
00000160: 8362 b4be 3f07 37bd ef21 9abe d420 9f3d
00000170: 86c0 89be b131 7b3e e36a 30be 79d4 05be
00000180: b91e 28be dfdd 83be ffd4 863e e414 57be
00000190: 110a 82be d491 fbbc 439c abbe d17b 513e
000001a0: 19e5 babe 7bee f73d 8197 26bd 1922 7c3e
000001b0: 5488 f73a 8e06 5e3b 0e44 ad3a 7202 103a
000001c0: 507d e73c d561 d3bd 28fd 8b3d 7575 d2bb
000001d0: 23f3 ae3e 7107 2e3e 5812 ba3e 8dbc 01be
000001e0: a110 863e a7e1 663e 9076 1d3d bcb9 123e
000001f0: 8148 893e 0702 05be 8a0c 95be 521d 28be
00000200: fd49 bcbd f8d9 64bd ddba 2b3e b53b d7bd
00000210: a738 debe bc2d 323e 6a90 b83e bb24 8cbe
00000220: 60f3 093e 8f86 453e 9012 c8be 764f 97be
00000230: 2954 313b f314 d6ba 0f1c 363b 3fa8 303b
00000240: 47fd 99be ba00 0abc 78d9 263e 75d0 70be
00000250: d1c0 ba33 a755 f236 f668 0733 4b52 f1b2
00000260: 555b bfbe cadb 6cbc 6240 35be 653f 653d
00000270: 9c9c 1b3b 922d acbb 514e 273b 7a76 443b
00000280: b8fc 1dba fd3d 43b9 8099 18ba 20d3 59ba
00000290: 0b65 4bbe e11c 293d 565c b43c a773 14be
000002a0: c186 debd 7fc0 1a3d f26f 2f3e da59 6bbe
000002b0: ee7e 51be 30ad 4fbe 395a 373e cb17 88be
000002c0: 98bc 8c3a 0092 8c3a 14c7 5f3a dbe4 ce39
000002d0: 0965 8fbe 376a dcbd 7b8c b2be 2079 dd3e
000002e0: ece9 be3e 638e 043e e346 ea3c dc63 04be
000002f0: ecb8 813e 6837 1bbe 4aff 193c ece0 313d
00000300: 9a39 993e 2cd9 d03b 08d4 913e 569b e5be
00000310: a7bf edb8 9298 1b39 1383 04b9 cc3f 11b9
00000320: 2518 df3d 2322 1abe a3f2 083e abf4 203d
00000330: 5b52 d5be 56bf 83be c174 c1be 4911 d4be
00000340: 5384 c739 4a67 cbb9 2d1f fc39 03d7 1b3a
00000350: de76 c83d cc98 103e 78eb b03d f7a9 383e
00000360: 763c 4d3b 78fd b138 c033 283b 1f7b 053b
00000370: 2d5a 353e 3d44 ed3b b8f4 d53d 3887 663e
00000380: 13eb 6d3a 405f 6638 59db 913a 6d2e f53a
00000390: 353c 1e3a 53e0 d7b7 fc88 0b3a 3e2e 5fb8
000003a0: c286 97b3 c16b aeb6 84c7 75b3 c46f fd33
000003b0: 8899 aa3a f568 203a 47b9 ab3a 1ec4 c53a
000003c0: aa10 903e 3f37 0fbe e904 793e 8f1b adbe
000003d0: d15e 453c 416e 12be 2ef7 a1ba 540c 913c
000003e0: 8dc5 ea3e ef3e 11be 00b2 20be 1093 c1bd
000003f0: f1d5 ebbe 882c 313d 921e bebe 626a b9bd

linear_1.bias f4 [64]
0.3494927 0.23207803 -0.0039078007 -0.012001234 0.4070764 -0.0013386458 0.09608141 -0.27629337
0.41926038 -0.020013051 -0.0028706214 -0.006698248 -0.0035097755 -0.1646016 -0.33829716 0.37860677
0.27338663 -0.011021425 0.24153301 -0.10988412 -0.3230301 -0.001664105 -0.22695053 -0.25773367
-0.04981897 0.23292643 -0.22413473 -0.001776091 -0.14373428 0.07268086 0.21274598 0.13553274
-0.14703733 0.16021383 -0.40516394 -0.0015692005 -0.19320005 -0.00028113986 -0.43119562 -0.0050146165
-0.006841104 0.10125023 0.11934516 0.22949503 -0.0033731859 -0.014412611 0.22436896 0.27223012
0.23043315 0.0001032724 -0.11765501 -0.17498237 -0.0021827854 -0.02798666 -0.005726419 -0.03550645
-0.0073045124 -0.005560905 -0.00066254043 -0.006116686 0.063040316 -0.20599616 0.2606692 0.10143052
00000000: b5f0 b23e dda5 6d3e 020d 80bb d3a0 44bc
00000010: 516c d03e 8075 afba 55c6 c43d 5376 8dbe
00000020: 4ca9 d63e 69f2 a3bc 0921 3cbb fa7c dbbb
00000030: 4304 66bb 528d 28be 4935 adbe bfd8 c13e
00000040: 55f9 8b3e 3593 34bc 6e54 773e ed0a e1bd
00000050: 3464 a5be 191e daba b865 68be abf5 83be
00000060: fa0e 4cbd 4484 6e3e 9383 65be bacb e8ba
00000070: 142f 13be b4d9 943d 15da 593e 18c9 0a3e
00000080: f490 16be 180f 243e a671 cfbe a2ad cdba
00000090: 3cd6 45be f465 93b9 acc5 dcbe a751 a4bb
000000a0: 572b e0bb 485c cf3d 3c6b f43d bf00 6b3e
000000b0: ab10 5dbb df22 6cbc fac0 653e bf61 8b3e
000000c0: abf6 6b3e f393 d838 1cf5 f0bd 942e 33be
000000d0: 100d 0fbb 4844 e5bc afa4 bbbb 366f 11bd
000000e0: b15a efbb 4138 b6bb 56ae 2dba 7b6e c8bb
000000f0: 481b 813d a8f0 52be 6f76 853e ceba cf3d

lstm.weight_ih_l0 f4 [256, 64]
-0.00058950204 -0.0036630195 -0.00041552508 0.0049266526 -0.000801723 -7.023395e-07 0.0027430893 0.013485051
-0.0052820584 0.0077446545 -8.914589e-06 4.255054e-05 1.7244201e-05 0.003457958 0.008592076 0.009836869
0.008751166 0.0026501347 0.0036179645 0.0007898742 0.010152822 1.5300498e-07 0.01478561 0.015021444
0.0015729272 0.009164735 0.0039593554 0.00026900123 -0.00597697 0.006209 0.011498022 0.0042420737
-0.0017405514 0.002395547 0.012363031 -0.0004524465 0.010367281 -3.1483518e-12 0.013145067 0.0035759895
-2.6131916e-06 0.009507619 0.0024182023 0.0075701205 0.00041363435 0.008318319 0.006839515 -0.00058595923
-0.0034713873 -5.9551414e-05 -0.008532326 0.020920034 -4.3600426e-06 0.0030528195 0.00025114237 -0.0013687594
-2.560009e-05 -2.779373e-06 -8.6953056e-10 -2.97148e-09 -0.0046106335 -0.0075787553 -0.0012861372 0.031637345
0.0065608583 0.01044235 0.00076332956 0.00079014344 0.008705055 -5.980314e-07 0.004140386 0.004861481
0.0027912478 0.001604605 5.9974764e-07 2.7946726e-06 7.277423e-06 0.00051172083 0.0015324446 0.014454029
0.012903653 0.0068146577 0.007399153 0.010858214 0.006978544 1.3770105e-07 0.0073752003 0.012614531
-0.0033526197 0.00062725495 0.0030877762 -4.9380647e-05 0.002597022 0.005970308 0.0103657935 -0.001908253
0.005316731 0.00050670607 0.008683314 0.0015449759 0.0033442045 3.3175962e-12 0.0033912149 0.004212159
7.247835e-07 0.003924408 -0.0013980601 -0.0012761018 0.00063084706 0.0029415975 0.007102122 0.008519308
0.0021400873 -6.787022e-05 0.0072684996 0.025553225 -5.0133963e-06 0.0024399313 -0.00015368222 0.009842888
-2.7617585e-05 4.87952e-07 3.7701847e-10 -2.1266434e-08 0.008661789 0.0025380414 0.006469107 0.022190126
0.0028460769 -0.0017488528 5.2661464e-05 0.0023897262 9.495285e-05 -2.9337048e-06 0.0027259942 0.0041414625
-0.0036134634 0.008372465 -5.5747014e-06 -9.5236115e-05 4.2838633e-06 0.002469936 0.0015670011 0.009476306
0.007841314 0.0033202847 0.0059339544 0.0030548358 0.009117738 1.3938208e-07 0.0060940697 0.018613225
-0.002099673 6.380331e-06 0.007612584 -0.0002791906 0.00031567577 0.006617862 0.012483079 -0.0016038469
0.0014899062 0.006974793 0.015522099 3.1658918e-05 0.0061685327 7.8759e-13 0.006465674 0.0002739155
9.766535e-07 0.0067269634 0.0033750718 -0.003963367 0.00020282505 0.0027830522 0.009582551 0.00146639
0.0011993988 -9.952455e-05 -0.0011099863 0.014609688 -6.52772e-06 0.00264299 -3.2943622e-06 0.0016602369
4.108644e-06 3.361898e-06 -3.785306e-10 1.6446025e-08 0.0027255411 -0.0003534162 0.0012418765 0.009233759
0.04299472 0.027237494 0.0015192499 0.014849262 0.026530674 5.0864182e-05 0.08495719 0.022148792
0.025204 0.031930584 1.2139157e-05 -0.0010311473 -9.793402e-05 0.021711716 0.025734851 0.051827267
0.053553738 0.024538016 0.03179151 0.024673272 0.026568793 2.1284757e-06 0.050912596 0.026251635
0.013025629 0.014343175 0.00059711887 -0.00010873302 0.012358108 0.03833536 0.051166512 0.025769051
0.006112161 0.050588317 0.034340702 0.002235274 0.01704364 -5.056212e-12 0.012719003 0.0022859615
-4.7767544e-06 0.006018774 0.0073323664 -0.0029700235 -0.00013204991 0.023976408 0.03853606 0.02319767
0.0065160273 0.00017165214 0.016238337 0.09496629 -4.9930444e-05 0.023725014 -0.0005596414 0.0109252585
-5.3760585e-05 -1.0586901e-06 1.8988356e-08 7.8765254e-08 0.011745615 0.016170545 0.011728811 0.0489591
00000000: d088 1aba 450f 70bb d5da d9b9 c26f a13b
00000010: b82a 52ba 6788 3cb5 67c5 333b 67f0 5c3c
00000020: 1e15 adbb dfc6 fd3b de8f 15b7 4b78 3238
00000030: a4a7 9037 e99e 623b c7c5 0c3c d22a 213c
00000040: 0d61 0f3c e2ad 2d3b 5f1b 6d3b 8f0f 4f3a
00000050: 0658 263c b049 2434 583f 723c 811c 763c
00000060: ae2a ce3a af27 163c 7bbd 813b bc08 8d39
00000070: 75da c3bb de74 cb3b 3362 3c3c 1801 8b3b
00000080: 3723 e4ba 9cfe 1c3b 4f8e 4a3c 5736 edb9
00000090: 87db 293c aa8b 5dac 685e 573c 265b 6a3b
000000a0: 4a5e 2fb6 d8c5 1b3c b47a 1e3b c60e f83b
000000b0: 10dd d839 8f49 083c 031e e03b 0f9b 19ba
000000c0: 3780 63bb d8c6 79b8 2bcb 0bbc 7e60 ab3c
000000d0: 7b4c 92b6 d011 483b c2ab 8339 f267 b3ba
000000e0: c6bf d6b7 4485 3ab6 c603 6fb0 d432 4cb1
000000f0: cc14 97bb 3557 f8bb 9a93 a8ba 2996 013d
00000100: 78fc d63b 6416 2b3c 2e1a 483a a121 4f3a
00000110: a69f 0e3c 6888 20b5 13ac 873b 0f4d 9f3b
00000120: 5eed 363b 9c51 d23a 58fe 2035 1c8c 3b36
00000130: 9630 f436 0125 063a 4fdc c83a 97d0 6c3c
00000140: d869 533c 7e4d df3b 9874 f23b a7e6 313c
00000150: 45ac e43b fada 1334 aaab f13b 2ead 4e3c
00000160: a0b7 5bbb 5e6e 243a 4a5c 4a3b 111e 4fb8
00000170: cd32 2a3b 93a2 c33b 4ad5 293c 581e faba
00000180: f937 ae3b 78d4 043a 7544 0e3c ca80 ca3a
00000190: 712a 5b3b 8074 692c 253f 5e3b 2706 8a3b
000001a0: be8e 4235 5298 803b 1d3f b7ba df42 a7ba
000001b0: 6e5f 253a d1c7 403b ebb8 e83b 9194 0b3c
000001c0: b540 0c3b 8c55 8eb8 982c ee3b ff54 d13c
000001d0: bf38 a8b6 41e7 1f3b c225 21b9 1144 213c
000001e0: 50ac e7b7 cefb 0235 a244 cf2f 62ad b6b2
000001f0: 2dea 0d3c 4555 263b cdfa d33b 11c8 b53c
00000200: 3f85 3a3b c339 e5ba d1e0 5c38 f49c 1c3b
00000210: 6c21 c738 aae0 44b6 98a6 323b 1bb5 873b
00000220: dbcf 6cbb aa2c 093c 520e bbb6 80b9 c7b8
00000230: 1bbe 8f36 a6de 213b d563 cd3a 8242 1b3c
00000240: db78 003c 2299 593b 9e71 c23b a433 483b
00000250: 9162 153c 0ea9 1534 c3b0 c73b c37a 983c
00000260: ab9a 09bb a016 d636 fc72 f93b 5460 92b9
00000270: 4981 a539 a6da d83b d485 4c3c 2c38 d2ba
00000280: f548 c33a ce8c e43b 6750 7e3c 81c9 0438
00000290: 6721 ca3b d7af 5d2b 01de d33b 519c 8f39
000002a0: 8f15 8335 dc6d dc3b 4f30 5d3b 22df 81bb
000002b0: 6fad 5439 de63 363b 2200 1d3c e233 c03a
000002c0: 2535 9d3a d6b7 d0b8 f67c 91ba 795d 6f3c
000002d0: b008 dbb6 0436 2d3b b614 5db6 4e9c d93a
000002e0: fcdc 8936 f89c 6136 7219 d0af 3145 8d32
000002f0: fe9e 323b b84a b9b9 76c6 a23a 3149 173c
00000300: 3b1b 303d 2a21 df3c 9121 c73a 524a 733c
00000310: db56 d93c 0057 5538 09fe ad3d 6271 b53c
00000320: 9e78 ce3c a5c9 023d 48a9 4b37 9027 87ba
00000330: ed61 cdb8 c5dc b13c e5d1 d23c d448 543d
00000340: 2a5b 5b3d f303 c93c d037 023d 9a1f ca3c
00000350: cca6 d93c efd6 0e36 ba89 503d ab0d d73c
00000360: 7369 553c a3ff 6a3c f887 1c3a 9807 e4b8
00000370: a979 4a3c 8a05 1d3d fa93 513d 9e19 d33c
00000380: 8648 c83b b235 4f3d d6a8 0c3d ad7d 123b
00000390: 1b9f 8b3c 4fe6 b1ac 5d63 503c 12d0 153b
000003a0: 0248 a0b6 2339 c53b 5944 f03b baa4 42bb
000003b0: e176 0ab9 2c6a c43c fdd7 1d3d 0a09 be3c
000003c0: 6684 d53b 85fd 3339 4306 853c b07d c23d
000003d0: 686c 51b8 f65a c23c e6b4 12ba dbff 323c
000003e0: fd7c 61b8 5118 8eb5 d61b a332 a825 a933
000003f0: ae70 403c 1778 843c 332a 403c 5689 483d

lstm.weight_hh_l0 f4 [256, 64]
0.002987068 0.004626842 -0.00614359 -0.0042378055 0.0050350367 -0.0030895737 -0.0056883334 0.0036995544
0.0046016304 -0.0050007687 -0.0037334387 -0.0051846183 0.0047536083 -0.0050463076 0.0043668486 -0.0065689534
-0.0040925406 0.0063318554 -0.0031239353 0.006265509 0.006633324 0.0054344735 -0.0033793314 -0.006428688
-0.0046177623 0.0053745853 0.004868274 0.0036004733 0.0057614446 0.0027064038 0.006135906 0.005367078
-0.0048875213 0.0036374975 0.0050602523 -0.0034045733 0.003627591 0.005704935 0.0058247326 0.004961791
0.004771404 -0.0039028882 -0.0048932033 -0.004367492 -0.0045984574 -0.005130476 0.003556178 0.0047434582
-0.004163644 -0.0045153275 -0.0051191626 -0.0034653991 -0.003304401 0.0050546112 -0.004879495 0.0041065635
-0.005175967 -0.004477337 0.0054404293 0.0042558005 0.0051935245 -0.0038080374 0.0053451005 0.0044093393
-0.0024915684 -0.0049819625 0.0052550733 0.0030949595 -0.003695159 0.0028145553 0.0018032211 -0.0036168916
-0.0028143872 0.003964938 0.004162681 0.0031148607 -0.003527656 0.0017039091 -0.0026924815 0.003183277
0.0035051245 -0.0025066533 0.003859106 -0.0055424892 -0.0029664754 -0.0022721866 0.0040423265 0.002398833
0.0036460685 -0.0039485707 -0.0040701814 -0.0037161876 -0.0021335613 -0.003149448 -0.0032787842 -0.0023977137
0.0047261436 -0.00455846 -0.0036442934 0.005110604 -0.0022761114 -0.004525993 -0.0035118293 -0.0034111121
-0.0031970826 0.004788653 0.0040337523 0.0043780385 0.0030140423 0.0021307922 -0.0039454815 -0.002947263
0.0026035686 0.0052520204 0.0048564724 0.0033319949 0.002630286 -0.004513353 0.0012485795 -0.0020302539
0.004248672 0.001994093 -0.0032250427 -0.0022793538 -0.0037754897 0.004471768 -0.0034544952 -0.003695172
0.0046478617 0.004807912 -0.0037886456 -0.004680648 0.003608165 -0.0037049807 -0.0050839 0.0039953445
0.0041031092 -0.00504759 -0.0056092287 -0.004253419 0.0045508384 -0.004806943 0.0053661126 -0.004514224
-0.0041527897 0.0059014326 -0.002856065 0.0045253765 0.005426753 0.0056305737 -0.0034784744 -0.005883173
-0.0033439558 0.0035135092 0.00507311 0.0046180184 0.005169132 0.0046850326 0.0042507886 0.005014871
-0.0039081965 0.0037396906 0.0038462572 -0.0037603932 0.0039789593 0.003646834 0.005633477 0.005007391
0.0053245695 -0.003621053 -0.0045207213 -0.003784998 -0.004284481 -0.0038539534 0.0045632888 0.0043152017
-0.0038323246 -0.0034757506 -0.0022066992 -0.0045415126 -0.0026342566 0.00536317 -0.0044422075 0.0024771455
-0.0036545373 -0.0048010573 0.004174048 0.004877184 0.007289347 -0.004735127 0.0053560906 0.0038623724
-0.0064592347 -0.005647888 0.0051178606 0.010191689 -0.007846815 0.009492066 0.008063516 -0.0073102824
-0.007200823 0.005889818 0.005860948 0.007396978 -0.0054832334 0.007809373 -0.0070619453 0.0032089127
0.005240869 -0.0019579697 0.004781979 -0.004569797 -0.00027237285 -0.0033174616 0.0041539995 0.0052219057
0.007858933 -0.006277045 -0.004401049 -0.005583855 -0.00229031 -0.009623621 -0.0023934904 -0.003265215
0.0099155465 -0.0043735933 -0.0041742767 0.007842984 -0.0024645908 -0.003081133 -0.0048458036 -0.0060094367
-0.0043169395 0.0011995918 0.0045832037 0.0050974395 0.008243172 0.007523557 -0.005702524 -0.0056217895
0.0072498526 0.0027051335 0.010858928 0.006728408 0.0058548017 -0.008185809 0.0051827612 -0.010068573
0.0052712886 0.006174074 -0.010139102 -0.0065855733 -0.0057446733 0.005801248 -0.0049381563 -0.0075365487
00000000: afc2 433b c49c 973b 2b50 c9bb 4add 8abb
00000010: f3fc a43b 727a 4abb 3365 babb 3974 723b
00000020: 46c9 963b 7ddd a3bb b5ac 74bb bbe3 a9bb
00000030: 28c4 9b3b 7f5b a5bb c817 8f3b 6040 d7bb
00000040: b81a 86bb 747b cf3b f0ba 4cbb e64e cd3b
00000050: 5b5c d93b ab13 b23b c677 5dbb bea7 d2bb
00000060: 9950 97bb 4a1d b03b 0b86 9f3b ebf5 6b3b
00000070: 80ca bc3b ec5d 313b b60f c93b 50de af3b
00000080: 8027 a0bb 1563 6e3b 79d0 a53b 431f 5fbb
00000090: e1bc 6d3b 77f0 ba3b 66dd be3b 8596 a23b
000000a0: 7059 9c3b 99c7 7fbb 2a57 a0bb 2e1d 8fbb
000000b0: a8ae 96bb 8d1d a8bb c40e 693b 036f 9b3b
000000c0: 2d6f 88bb 50f5 93bb a6be a7bb c01b 63bb
000000d0: a68e 58bb 27a1 a53b 2ce4 9fbb 5a90 863b
000000e0: 289b a9bb a0b6 92bb a145 b23b 3e74 8b3b
000000f0: 712e aa3b 4490 79bb f425 af3b 387c 903b
00000100: 9549 23bb bb3f a3bb c032 ac3b ced4 4a3b
00000110: 7b2a 72bb 6774 383b 0f5a ec3a 5f09 6dbb
00000120: 9571 38bb 50ec 813b 1967 883b b122 4c3b
00000130: 3f30 67bb b455 df3a 5874 30bb 879e 503b
00000140: 3bb6 653b aa46 24bb 0ee9 7c3b c59d b5bb
00000150: 3369 42bb f7e8 14bb 7e75 843b bd35 1d3b
00000160: e1f2 6e3b 0363 81bb 285f 85bb 488b 73bb
00000170: 38d3 0bbb f866 4ebb dfe0 56bb f622 1dbb
00000180: c4dd 9a3b 225f 95bb 19d5 6ebb db76 a73b
00000190: d02a 15bb c84e 94bb b826 66bb f78c 5fbb
000001a0: 2586 51bb 22ea 9c3b 912d 843b a675 8f3b
000001b0: 3d87 453b c3a4 0b3b 1949 81bb de26 41bb
000001c0: a2a0 2a3b 2419 ac3b 0b23 9f3b 995d 5a3b
000001d0: e060 2c3b c0e4 93bb 60a7 a33a 020e 05bb
000001e0: 7238 8b3b 54af 023b 3d5b 53bb 3661 15bb
000001f0: 356e 77bb e987 923b d064 62bb b32a 72bb
00000200: 174d 983b b08b 9d3b ed4a 78bb 1f60 99bb
00000210: f776 6c3b 43cf 72bb d896 a6bb 61eb 823b
00000220: 6073 863b 4166 a5bb 9fcd b7bb 4460 8bbb
00000230: 331f 953b 8f83 9dbb 37d6 af3b 0eec 93bb
00000240: 2014 88bb ce60 c13b d22c 3bbb 9c49 943b
00000250: e7d2 b13b ad80 b83b 1ef7 63bb a2c7 c0bb
00000260: 4526 5bbb e742 663b 553c a63b bf52 973b
00000270: d261 a93b e784 993b 334a 8b3b c953 a43b
00000280: 5410 80bb 9915 753b 7d11 7c3b ee70 76bb
00000290: ee61 823b b9ff 6e3b 0899 b83b 0a15 a43b
000002a0: ba79 ae3b 304f 6dbb 8f22 94bb bb0d 78bb
000002b0: d564 8cbb 9c92 7cbb a487 953b 8966 8d3b
000002c0: bd27 7bbb 6bc9 63bb 459e 10bb f8d0 94bb
000002d0: 7ea3 2cbb 88bd af3b f08f 91bb 9b57 223b
000002e0: f680 6fbb 3052 9dbb 74c6 883b c9d0 9f3b
000002f0: 79db ee3b 2029 9bbb 2582 af3b db1f 7d3b
00000300: fda7 d3bb eb11 b9bb bab3 a73b 0bfb 263c
00000310: ed8f 00bc 9c84 1b3c d61c 043c 188b efbb
00000320: e2f4 ebbb 60ff c03b 320d c03b 5962 f23b
00000330: b2ac b3bb c5e5 ff3b e467 e7bb 9f4c 523b
00000340: 98bb ab3b 4851 00bb 26b2 9c3b 3cbe 95bb
00000350: 44cd 8eb9 c569 59bb 461e 883b 851c ab3b
00000360: c1c2 003c abaf cdbb ad36 90bb c5f8 b6bb
00000370: 0719 16bb 64ac 1dbc 1bdc 1cbb 38fd 55bb
00000380: d174 223c 5c50 8fbb 5fc8 88bb dc7f 003c
00000390: f984 21bb d5ec 49bb 8cc9 9ebb cfea c4bb
000003a0: 1d75 8dbb 9f3b 9d3a b32e 963b 6c08 a73b
000003b0: 5f0e 073c 2c88 f63b 3ddc babb fd36 b8bb
000003c0: 2c90 ed3b 9c48 313b a5e9 313c fa79 dc3b
000003d0: a3d9 bf3b c51d 06bc 27d4 a93b a8f6 24bc
000003e0: c6ba ac3b e34f ca3b 7a1e 26bc cbcb d7bb
000003f0: d03d bcbb 6518 be3b 42d0 a1bb 27f5 f6bb

lstm.bias_ih_l0 f4 [256]
-0.0007282891 -0.011509927 -0.0070374077 0.03956877 -0.015821433 -0.034277644 -0.0073878146 -0.0013714611
0.034650665 -0.0074830796 -0.0011951278 -0.013338965 -0.008297157 4.9270282e-05 -0.0065502306 -0.011567877
-0.015159724 -0.003528378 -0.0062297485 -0.0055877506 -0.0110792825 -0.017838249 -0.0067668287 -0.009829868
-0.017219916 -0.0019232349 -0.0063244333 0.0040204446 -0.0050756936 -0.010047657 -0.0006206448 -0.0061716125
0.008699489 -0.0069427188 -0.009806749 -0.001352845 0.009425554 -0.0068936106 -0.010823307 -0.009427897
-0.0009539273 -0.00827358 -0.011383326 -0.015639612 0.00837378 -0.01516409 0.03742227 0.0063344687
-0.0148642445 -0.00905781 -0.016703913 -0.021840109 -0.012779482 -0.049324512 -0.0067490414 0.063428186
-0.020467697 -0.0054364614 0.01752656 -0.013116533 -0.0070145135 -0.031349678 -0.0031178119 0.009349548
-0.023405313 -0.023695705 -0.019171992 -0.018245164 -0.040240373 -0.030726964 -0.027829794 -0.016839238
0.019819854 -0.037785396 -0.022700604 -0.016357422 -0.0364086 -0.01859236 -0.02911013 -0.026588932
-0.04333781 -0.019519271 -0.016804418 -0.018207911 -0.02444201 -0.02830893 -0.019541595 -0.02195943
-0.0260566 -0.018760866 -0.028521381 -0.02847847 -0.013279004 -0.013503329 -0.010307186 -0.017380144
-0.04151198 -0.015875535 -0.019964214 -0.016346112 0.10295798 -0.015412793 -0.021621678 -0.013292954
-0.019079095 -0.02175761 -0.026097938 -0.032019306 -0.03396252 -0.015769938 0.057371173 -0.023840751
-0.016873669 -0.02719351 -0.032570537 -0.028929353 -0.015092304 -0.0050304076 -0.026868965 0.048050217
-0.016838897 -0.025965119 -0.018938888 -0.033051997 -0.024561679 0.025715416 -0.016602794 -0.037828956
0.0123033 -0.0017169677 0.05543036 0.059544418 -0.024477009 0.10321496 0.05362654 -0.009802273
-0.112397835 0.013551053 -0.023925059 0.00880389 -0.037896775 0.05104241 0.029444711 -0.020877656
-0.049714293 0.027733319 -0.01147443 -0.028518688 -0.0026153123 -0.033963833 -0.00020356746 -0.009963331
-0.011654244 0.032051846 0.030344613 0.015370262 -0.0539403 -0.05150857 -0.0005888054 -0.06502907
-0.026305797 0.031615693 -0.005947238 -0.012813403 -0.019351743 -0.045450084 -0.056803633 -0.009814977
0.01181808 0.011863511 0.04534003 -0.016093075 0.019253058 0.031006439 -0.043906897 -0.016442973
0.056825664 -0.025274519 -0.0140784765 0.02270447 0.026393013 -0.07136621 -0.021258604 -0.05256412
-0.0144853275 0.015048665 -0.0791148 -0.029844297 0.007628398 0.003588634 0.02337061 -0.07699869
-0.016446903 -0.0093686655 -0.012056711 0.059680033 -0.03783847 0.0017446751 -0.026429728 -0.0021855375
-0.0006734472 -0.03363498 -0.010832189 -0.014639781 -0.01690037 -0.0032014402 -0.01122926 -0.019977823
-0.012980717 -0.01217446 -0.006946144 -0.0110833235 -0.019828573 0.01811909 -0.0118851075 -0.012761386
-0.029992502 -0.020042652 -0.009895214 0.009562005 -0.0049040015 -0.014167419 -0.008968156 -0.0072011002
0.005338231 -0.01685246 -0.014149531 0.0046867165 0.042505484 -0.011982539 -0.011161609 -0.03780764
-0.006553753 -0.014351892 -0.0216256 -0.040101558 0.0036654293 -0.017810125 -0.019264683 0.0067887576
0.0045531504 -0.013453026 -0.02326182 -0.006264419 -0.0050914045 -0.016378196 -0.00788026 0.01622642
-0.031246413 -0.0031652797 0.022229852 -0.026331771 -0.013890263 0.009498076 -0.00030214738 0.029076185
00000000: a7ea 3eba 2294 3cbc 0e9a e6bb dd12 223d
00000010: f39b 81bc b766 0cbd 7b15 f2bb 99c2 b3ba
00000020: dbed 0d3d 9f34 f5bb d6a5 9cba ad8b 5abc
00000030: ccf0 07bc 90a7 4e38 51a3 d6bb 3187 3dbc
00000040: 7e60 78bc 5c3c 67bb eb22 ccbb 7319 b7bb
00000050: e185 35bc 8521 92bc 46bc ddbb 740d 21bc
00000060: c810 8dbc 0e15 fcba 313d cfbb efbd 833b
00000070: 0152 a6bb ee9e 24bc c4b2 22ba 3d3b cabb
00000080: 4d88 0e3c bf7f e3bb 7dac 20bc f251 b1ba
00000090: a46d 1a3c cce3 e1bb 3d54 31bc 7777 1abc
000000a0: fa10 7aba e98d 07bc 2181 3abc a51e 80bc
000000b0: 2e32 093c ce72 78bc 1848 193d 6091 cf3b
000000c0: 2989 73bc 3567 14bc a5d6 88bc 07ea b2bc
000000d0: 0861 51bc 8008 4abd 1027 ddbb a3e6 813d
000000e0: dfab a7bc 5824 b2bb dc93 8f3c bae6 56bc
000000f0: 01da e5bb 8568 00bd 3454 4cbb d92e 193c
00000100: 80bc bfbc 7f1d c2bc 950e 9dbc e276 95bc
00000110: 17d3 24bd 1db7 fbbc 4ffb e3bc 71f2 89bc
00000120: 3f5d a23c dcc4 1abd 9ef6 b9bc 0000 86bc
00000130: 2f21 15bd 014f 98bc 5e78 eebc 08d1 d9bc
00000140: fd82 31bd e1e6 9fbc 6ba9 89bc c228 95bc
00000150: 9c3a c8bc 21e8 e7bc b215 a0bc 43e4 b3bc
00000160: a774 d5bc 63b0 99bc aca5 e9bc ae4b e9bc
00000170: 2e90 59bc 113d 5dbc 79df 28bc ce60 8ebc
00000180: 7708 2abd 690d 82bc fe8b a3bc 48e8 85bc
00000190: a2db d23d f085 7cbc f21f b1bc b1ca 59bc
000001a0: c34b 9cbc 043d b2bc 58cb d5bc ad26 03bd
000001b0: 491c 0bbd f52f 81bc 09fe 6a3d ae4d c3bc
000001c0: a63a 8abc edc4 debc af68 05bd 40fd ecbc
000001d0: b645 77bc 1ed6 a4bb 4e1c dcbc 4ed0 443d
000001e0: baf1 89bc cdb4 d4bc ba25 9bbc 8861 07bd
000001f0: 9335 c9bc 23a9 d23c 9502 88bc 89f2 1abd
00000200: c893 493c e00b e1ba f20a 633d d9e4 733d
00000210: 0284 c8bc 5d62 d33d 81a7 5b3d b699 20bc
00000220: d630 e6bd 3c05 5e3c 7cfe c3bc 313e 103c
00000230: a639 1bbd d911 513d 0936 f13c 9e07 abbc
00000240: 37a1 4bbd fc30 e33c 3fff 3bbc 06a0 e9bc
00000250: a965 2bbb a91d 0bbd b974 55b9 3d3d 23bc
00000260: 71f1 3ebc cc48 033d 4495 f83c 8dd3 7b3c
00000270: 81f0 5cbd a6fa 52bd 105a 1aba f62d 85bd
00000280: 417f d7bc 757f 013d 0ce1 c2bb 4fef 51bc
00000290: 8c87 9ebc de29 3abd edaa 68bd ffce 20bc
000002a0: 9fa0 413c 2c5f 423c 78b6 393d a0d5 83bc
000002b0: 97b8 9d3c 3701 fe3c b8d7 33bd 6ab3 86bc
000002c0: 07c2 683d 820c cfbc 69a9 66bc bafe b93c
000002d0: 2936 d83c 7328 92bd 8626 aebc 7a4d 57bd
000002e0: de53 6dbc ad8e 763c f106 a2bd 077c f4bc
000002f0: a4f7 f93b 4a2f 6b3b b973 bf3c 7db1 9dbd
00000300: a8bb 86bc 087f 19bc 8389 45bc 0d73 743d
00000310: 83fc 1abd 95ad e43a 2883 d8bc 3c3b 0fbb
00000320: 478a 30ba d5c4 09bd 7e79 31bc b1db 6fbc
00000330: a572 8abc 41cf 51bb eefa 37bc 88a8 a3bc
00000340: 13ad 54bc 6377 47bc 7b9c e3bb d496 35bc
00000350: 886f a2bc 7c6e 943c c1b9 42bc 2215 51bc
00000360: d6b2 f5bc 7d30 a4bc 891f 22bc f5a9 1c3c
00000370: bfb1 a0bb 761e 68bc 2cef 12bc 35f7 ebbb
00000380: 54ec ae3b 2c0e 8abc 6fd3 67bc 0793 993b
00000390: 3b1a 2e3d 6952 44bc 2edf 36bc 2fdc 1abd
000003a0: ddc0 d6bb 3324 6bbc 2c28 b1bc 8841 24bd
000003b0: b337 703b 8ae6 91bc f8d0 9dbc 3a74 de3b
000003c0: 9832 953b 156a 5cbc 938f bebc c145 cdbb
000003d0: ccd5 a6bb 912b 86bc 351c 01bc 45ed 843c
000003e0: 7af8 ffbc 9570 4fbb 611b b63c bab5 d7bc
000003f0: fc93 63bc d19d 1b3c 8969 9eb9 2e31 ee3c

lstm.bias_hh_l0 f4 [256]
-2.1221735e-05 -0.012240652 -0.006693096 0.07823138 -0.026561415 -0.028281579 -0.013281613 -0.007090571
-0.00732695 0.0016032143 0.0029967995 -0.011320535 -0.018009908 -0.0037438516 -0.009448241 -0.01029256
-0.022579765 -0.005766275 -0.004806581 -0.0043951697 -0.011976464 0.0032568548 -0.0053594816 -0.0077759824
-0.0014093249 -0.007372771 -0.02441556 -0.01215978 -0.01049492 -0.020054571 -0.007622374 -0.0068477727
0.0010546768 -0.008754587 -0.008667328 7.410206e-05 0.013408583 -0.0047059935 -0.00974532 -0.011837117
-0.011606544 -0.010136038 -0.0110886125 -0.023440091 -0.007127328 -0.0075893686 0.04228973 -0.008558542
-0.026823297 -0.0073692105 0.0061693806 -0.01650095 -0.008700948 0.0005705225 -0.00842209 0.06566574
-0.018164977 -0.0006832118 0.015681542 -0.002520874 -0.01035059 0.037633188 0.0022681728 -0.0034031253
-0.029326253 -0.02318438 -0.019570837 0.02883602 -0.023153368 -0.003849778 -0.028913764 -0.009072945
-0.011668123 -0.04343381 -0.025644826 -0.015051647 -0.04994816 -0.019899148 -0.027593767 -0.026619203
0.008894558 -0.017379792 -0.014780169 -0.016859686 -0.028020157 -0.017124843 -0.020077277 -0.021663694
-0.0064429576 -0.039002504 -0.028129999 -0.035031985 -0.022544187 -0.016152874 -0.013378636 -0.0221596
-0.03373579 -0.023135465 -0.016639061 -0.010692115 0.10543079 -0.01716632 -0.026349891 -0.015822314
-0.018393211 -0.020435257 -0.023857227 -0.017218541 -0.037297573 -0.024006467 -0.0023173692 -0.011221233
-0.024823746 -0.028776152 -0.006002762 -0.026260812 -0.019111194 -0.04035683 -0.026889466 0.012639288
-0.02250394 -0.023270302 -0.012829473 -0.031498533 -0.019397024 -0.0005648021 -0.01645221 -0.019076005
-0.041430965 -0.055459816 -0.015375651 -0.038917053 0.018642267 0.006504031 -0.03936166 -0.039566297
-0.027681438 0.018228566 0.03140728 0.011948866 -0.0043477714 0.014653903 -0.059166275 0.023093427
0.015616451 -0.048530567 -0.0352708 0.009547801 -0.011776325 -0.052555814 0.030239187 0.06609937
0.005835112 -0.03872686 0.0038919346 -0.034791026 0.044210672 0.06343527 -0.0021375953 0.03283203
0.066561535 -0.027746413 -0.028474806 0.035230495 -0.004223123 0.049727485 -0.015837101 -0.058995202
-0.046189822 -0.013810749 -0.0036628372 0.04098859 -0.019715948 0.016560629 -0.046688583 -0.0852824
0.061399765 0.026729595 -0.018075308 0.02718534 0.020229254 0.030717993 0.054263566 -0.009428984
-0.043964636 0.055183265 -0.040706564 -0.0086187795 -0.03288119 -0.034261815 -0.032173455 -0.036311533
-0.012571461 -0.0065987534 -0.007941817 0.011258425 -0.015489208 0.0018546889 -0.0013939703 -0.020331284
0.024053797 -0.011158096 -0.027062636 -0.020967461 -0.010746942 -0.0069093937 -0.033503927 -0.015968598
0.0031771236 -0.009758552 -0.012213652 -0.0146401 -0.021068884 0.0356596 -0.008192694 -0.0067166053
-0.018482266 -0.018241435 -0.0024232932 -0.0024553777 -0.008992743 -0.03931858 -0.013838187 -0.009618417
-0.0051332745 -0.009089627 -0.009861931 -0.0053960434 0.047276728 -0.0062071336 -0.011944869 -0.029825108
-0.0064355927 -0.015250284 -0.015145406 -0.037361868 -0.018168462 -0.009171052 0.039375238 0.0033045963
0.0014719712 -0.038136363 0.00065297796 -0.026297627 -0.014453898 -0.0037026682 -0.018236456 0.05820074
-0.035159685 -0.0032706924 0.0052415775 -0.019603169 -0.01745668 -0.01278329 -0.0056224572 0.018967297
00000000: 5405 b2b7 048d 48bc c251 dbbb c637 a03d
00000010: 5397 d9bc c5ae e7bc 1f9b 59bc 0558 e8bb
00000020: e916 f0bb f222 d23a f465 443b c479 39bc
00000030: 8489 93bc 685b 75bb cccc 1abc 20a2 28bc
00000040: 33f9 b8bc 05f3 bcbb 8680 9dbb 5b05 90bb
00000050: ee38 44bc f570 553b 979e afbb abcd febb
00000060: 19b9 b8ba 4997 f1bb 2403 c8bc d039 47bc
00000070: e3f2 2bbc 7c49 a4bc 1cc5 f9bb 4863 e0bb
00000080: 153d 8a3a 666f 0fbc 6901 0ebc 3e67 9b38
00000090: acaf 5b3c bc34 9abb d6aa 1fbc 78f0 41bc
000000a0: 6029 3ebc a011 26bc 03ad 35bc 6f05 c0bc
000000b0: 5c8c e9bb 3db0 f8bb ff37 2d3d 2039 0cbc
000000c0: 88bc dbbc 6b79 f1bb 8428 ca3b 002d 87bc
000000d0: 6c8e 0ebc 1e8f 153a cefc 09bc c27b 863d
000000e0: b8ce 94bc 9119 33ba 9476 803c 3f35 25bb
000000f0: 8595 29bc 4225 1a3d a0a5 143b f806 5fbb
00000100: 9c3d f0bc 2bed bdbc 0553 a0bc 8439 ec3c
00000110: 22ac bdbc 8f4c 7cbb 8fdc ecbc b1a6 14bc
00000120: a82b 3fbc a7e7 31bd 1915 d2bc 2f9b 76bc
00000130: 7196 4cbd 8a03 a3bc 530c e2bc 8410 dabc
00000140: 7bba 113c 1160 8ebc 8628 72bc 531d 8abc
00000150: 878a e5bc 6649 8cbc 1a79 a4bc 0f78 b1bc
00000160: 721f d3bb 17c1 1fbd e270 e6bc b37d 0fbd
00000170: 96ae b8bc 0853 84bc 1132 5bbc 0d88 b5bc
00000180: 8a2e 0abd 9686 bdbc a44e 88bc fb2d 2fbc
00000190: 19ec d73d 62a0 8cbc badb d7bc cc9d 81bc
000001a0: 5cad 96bc d767 a7bc 3b70 c3bc e60d 8dbc
000001b0: 57c5 18bd 36a9 c4bc 01df 17bb 43d9 37bc
000001c0: 2b5b cbbc f7bb ebbc d1b2 c4bb ea20 d7bc
000001d0: 148f 9cbc 344d 25bd 4c47 dcbc 0415 4f3c
000001e0: 2f5a b8bc 5ca1 bebc b632 52bc 9b04 01bd
000001f0: 82e6 9ebc 3a0f 14ba c9c6 86bc 4845 9cbc
00000200: 84b3 29bd d529 63bd 28ea 7bbc 7d67 1fbd
00000210: abb7 983c c41f d53b b139 21bd 4510 22bd
00000220: 2fc4 e2bc 1354 953c eca4 003d 2dc5 433c
00000230: c077 8ebb ed16 703c 5658 72bd 6d2e bd3c
00000240: 25dc 7f3c fdc7 46bd 1d78 10bd 616e 1c3c
00000250: 7df1 40bc c444 57bd 2cb8 f73c 1b5f 873d
00000260: 7834 bf3b 0ea0 1ebd d40f 7f3b 0981 0ebd
00000270: 4016 353d 5aea 813d e616 0cbb e17a 063d
00000280: 6a51 883d 724c e3bc ff43 e9bc da4d 103d
00000290: 2062 8abb 0caf 4b3d cfbc 81bc f4a4 71bd
000002a0: 8a31 3dbd 7b46 62bc 360c 70bb a7e3 273d
000002b0: 5783 a1bc 28aa 873c 873c 3fbd 8aa8 aebd
000002c0: 527e 7b3d 06f8 da3c ab12 94bc cab3 de3c
000002d0: d2b7 a53c 4da4 fb3c 7943 5e3d 067c 1abc
000002e0: 4314 34bd d907 623d edbb 26bd c835 0dbc
000002f0: 6dae 06bd 1e56 0cbd 50c8 03bd 67bb 14bd
00000300: 87f8 4dbc 5b3a d8bb 651e 02bc 4275 383c
00000310: 72c6 7dbc 0819 f33a e2b5 b6ba cb8d a6bc
00000320: 780c c53c 72d0 36bc 76b2 ddbc f4c3 abbc
00000330: f113 30bc 3268 e2bb 6a3b 09bd 94d0 82bc
00000340: 4a37 503b 55e2 1fbc c51b 48bc 08dd 6fbc
00000350: a798 acbc cd0f 123d a63a 06bc f816 dcbb
00000360: 1f68 97bc 106f 95bc 1dd0 1ebb 67ea 20bb
00000370: 4c56 13bc 850c 21bd 90b9 62bc 9196 1dbc
00000380: 0735 a8bb a9ec 14bc f093 21bc 4bd1 b0bb
00000390: 3ea5 413d 3665 cbbb 69b4 43bc c953 f4bc
000003a0: aae1 d2bb 54dc 79bc 7024 78bc c208 19bd
000003b0: 07d6 94bc 2e42 16bc ee47 213d ed91 583b
000003c0: 28ef c03a e034 1cbd 9c2c 2b3a 1f6e d7bc
000003d0: 0bd0 6cbc 77a8 72bb 9f64 95bc e663 6e3d
000003e0: 9a03 10bd 1d59 56bb 8ac1 ab3b d396 a0bc
000003f0: 5001 8fbc 0171 51bc 973c b8bb 4e61 9b3c

linear_2.weight f4 [1, 64]
-0.079351716 -0.078512885 0.07928494 0.09784706 -0.09572513 0.09935786 0.08245136 -0.07823648
-0.10521135 0.101381816 0.08001531 0.08044087 -0.099573016 0.08407504 -0.07972267 0.08551445
0.11763561 -0.07637607 0.07649732 -0.07536169 -0.08659168 -0.12874824 0.076011926 0.08117003
0.083431154 -0.08463231 -0.08912563 -0.09008611 -0.07784443 -0.076735295 -0.0760017 -0.077386655
0.078567855 -0.080049366 -0.07771511 0.079073295 -0.12951401 -0.08484033 -0.090182506 -0.08528308
-0.08109257 0.081238635 0.08561354 0.08339639 0.08981989 0.08713739 -0.122641355 -0.08262907
0.08240804 0.08821947 0.07737852 0.08860362 0.0796015 -0.10100622 0.08602972 -0.09174824
0.09009582 0.082565494 -0.08344529 -0.08434006 -0.07745185 0.119757675 -0.08165535 -0.100423425
00000000: 2783 a2bd 5dcb a0bd 2560 a23d 0a64 c83d
00000010: 890b c4bd 227c cb3d 42dc a83d 733a a0bd
00000020: 0c79 d7bd 45a1 cf3d 11df a33d 2fbe a43d
00000030: f0ec cbbd 892f ac3d a445 a3bd 3322 af3d
00000040: f0ea f03d 0f6b 9cbd a0aa 9c3d 3b57 9abd
00000050: fb56 b1bd 94d6 03be 24ac 9b3d 793c a63d
00000060: f4dd aa3d b453 adbd 8087 b6bd 117f b8bd
00000070: e76c 9fbd 6527 9dbd c7a6 9bbd e57c 9ebd
00000080: 2fe8 a03d ecf0 a3bd 1929 9fbd 2ef1 a13d
00000090: 529f 04be c4c0 adbd 9bb1 b8bd e5a8 aebd
000000a0: dd13 a6bd 7160 a63d 2756 af3d bacb aa3d
000000b0: 7ef3 b73d 1775 b23d 642b fbbd 6e39 a9bd
000000c0: 8cc5 a83d 69ac b43d a178 9e3d d175 b53d
000000d0: 1c06 a33d 59dc cebd 5a30 b03d 80e6 bbbd
000000e0: 2884 b83d 1918 a93d 5de5 aabd 7bba acbd
000000f0: 139f 9ebd 8343 f53d ec3a a7bd ccaa cdbd
