stock_models/IBM.pth (torch, 271474 bytes, 11 tensors)

linear_1.weight f4 [64, 4]
0.1004154 0.2985468 0.0013260666 0.46059898 0.4612692 -0.10458247 -0.05975865 -0.32126287
0.048825756 0.04741927 0.008497692 0.30153832 -0.4149652 -0.275404 0.050120343 -0.02167335
0.20464848 0.36202317 0.51058614 0.035881255 0.094868615 -0.1375922 0.22708386 0.06733502
0.1786692 0.10380293 0.32734835 -0.18590485 -0.474863 -0.09656433 0.13341036 0.21866202
0.0825883 -0.01616454 -0.105453044 0.020378517 -0.40114805 0.09059523 -0.03454674 -0.25932795
-0.42955092 -0.2919292 -0.13231836 0.40496147 -0.50627905 0.09738675 -0.46714693 -0.39428738
-0.19440567 0.1328512 -0.38305604 0.4114616 -0.07357114 0.22836237 0.47015303 -0.26885128
-0.43525794 -0.33100137 0.1468505 -0.40497643 -0.5242237 -0.28734952 -0.2957102 0.3016866
-0.24612413 0.032175373 -0.039576333 0.21708632 -0.10880637 -0.30084574 -0.46953487 -0.22940366
-0.44878614 -0.19612421 -0.43074322 -0.25701177 0.24613953 0.2702369 0.14850867 0.08919206
0.028953142 -0.08240866 0.033674076 -0.0997835 0.16363624 -0.18363102 0.22089823 -0.40219194
0.39836246 -0.39185974 -0.054790527 0.28555164 -0.2698233 0.09534911 0.106696755 -0.05855276
-0.27338082 0.12418893 0.3943935 0.104069576 -0.4331995 -0.30531096 0.12501483 -0.30008912
-0.3616868 0.27225748 0.08489093 0.20272614 -0.46626782 0.3393475 -0.24545811 -0.07830341
0.07564793 -0.22666249 -0.19517554 0.06482589 0.42304456 0.23736024 -0.14837392 -0.17549443
0.40366986 -0.070901126 0.15656486 0.10015953 0.1310469 -0.1759765 -0.40233183 0.22429389
-0.29183576 0.06385331 0.2362521 -0.052582767 -0.43805206 0.18287793 0.26119512 0.12656133
-0.051669665 -0.10664672 -0.34623915 0.19919847 0.112734094 0.12587813 0.3663309 -0.22722296
0.3289929 0.4106108 0.46685225 -0.05634548 0.326491 0.050569415 -0.049555738 0.32649764
0.16566505 -0.24524522 0.39722824 -0.2591145 -0.03349527 -0.004836069 0.08672348 -0.067558594
0.013753071 -0.0024618153 0.34431452 -0.16160959 -0.0892182 0.09672441 -0.36619946 0.11308298
-0.10291621 -0.041076776 0.33284694 -0.033168964 -0.2177267 0.036010288 0.17285661 0.034786586
0.38149422 -0.11943691 -0.18267879 0.44962966 0.17421359 -0.31111148 -0.24824245 -0.06768177
0.15158683 0.10440916 0.2765235 0.047806196 0.551985 -0.19333008 0.004417809 -0.4147422
-0.0980291 -0.3632834 0.33207083 0.24586412 0.19579145 -0.10378162 0.18675748 -0.16039805
-0.2025864 0.2908696 0.38156602 -0.34047595 0.4657331 -0.13005637 0.060594678 0.36845124
-0.31635568 0.2112997 0.27804348 -0.36229536 -0.25915658 -0.13467479 0.30759814 -0.18389338
0.2993185 0.2612236 -0.4406714 -0.061750017 0.3710205 0.29593366 0.24839336 0.10382019
0.12540047 0.40745604 0.2903952 -0.040986147 0.03120885 -0.11000413 0.062752604 -0.1503296
0.013428448 -0.00023004427 -0.014643841 -0.0004098672 0.013056159 -0.038183544 -0.2576088 -0.24251191
-0.34537685 -0.39016178 -0.20781638 -0.061683457 0.42696205 -0.08740236 0.12259835 -0.1327839
0.0418159 0.35023758 -0.46540806 0.14775717 -0.19459039 -0.16086882 0.06826356 -0.051385116
00000000: 97a6 cd3d 20db 983e 69cf ad3a a1d3 eb3e
00000010: 7a2b ec3e 562f d6bd 7cc5 74bd 917c a4be
00000020: 84fd 473d b53a 423d e739 0b3c 3b63 9a3e
00000030: 5276 d4be c101 8dbe fd4a 4d3d 4f8c b1bc
00000040: 5f8f 513e 1a5b b93e c6b5 023f 39f8 123d
00000050: 7a4a c23d f8e4 0cbe ac88 683e f1e6 893d
00000060: 0ff5 363e a196 d43d 349a a73e d75d 3ebe
00000070: 3e21 f3be 85c3 c5bd ba9c 083e f0e8 5f3e
00000080: 0e24 a93d 7f6b 84bc c4f7 d7bd d9f0 a63c
00000090: 4763 cdbe fe89 b93d e280 0dbd a2c6 84be
000000a0: 19ee dbbe be77 95be 777e 07be 1c57 cf3e
000000b0: 819b 01bf b472 c73d e22d efbe 09e0 c9be
000000c0: 4812 47be 250a 083e ec1f c4be 18ab d23e
000000d0: 77ac 96bd d3d7 693e e6b7 f03e e0a6 89be
000000e0: 21da debe 0379 a9be fa5f 163e 1259 cfbe
000000f0: 8633 06bf 7a1f 93be 5467 97be ab76 9a3e
00000100: f707 7cbe 53ca 033d cb1a 22bd e04b 5e3e
00000110: e0d5 debd 7408 9abe e066 f0be cbe8 6abe
00000120: 4cc7 e5be c9d4 48be 608a dcbe 0c97 83be
00000130: 000c 7c3e 7e5c 8a3e a812 183e 54aa b63d
00000140: 242f ed3c dfc5 a8bd d4ed 093d 4b5b ccbd
00000150: 4290 273e c509 3cbe 2533 623e 1aec cdbe
00000160: 2af6 cb3e d7a1 c8be 086c 60bd d333 923e
00000170: 4826 8abe 6546 c33d d483 da3d 05d5 6fbd
00000180: 92f8 8bbe c456 fe3d f2ed c93e 6e22 d53d
00000190: 53cc ddbe b851 9cbe e303 003e 48a5 99be
000001a0: 032f b9be 5565 8b3e 4cdb ad3d 7197 4f3e
000001b0: a8ba eebe f5be ad3e 5f59 7bbe 8a5d a0bd
000001c0: 4ded 9a3d 361a 68be 19dc 47be 70c3 843d
000001d0: 4c99 d83e 900e 733e 55ef 17be d0b4 33be
000001e0: d1ad ce3e 9c34 91bd 8a52 203e 7120 cd3d
000001f0: 2931 063e 2f33 34be 70fe cdbe 4cad 653e
00000200: 7f6b 95be 86c5 823d 12ec 713e 0761 57bd
00000210: 5c48 e0be 5a44 3b3e 5ebb 853e 4b99 013e
00000220: 92a3 53bd 9869 dabd 4246 b1be affa 4b3e
00000230: 22e1 e63d 32e6 003e b98f bb3e 23ad 68be
00000240: c271 a83e 943b d23e 4207 ef3e 85ca 66bd
00000250: d429 a73e e021 4f3d f5fa 4abd b32a a73e
00000260: 19a4 293e 9021 7bbe 8061 cb3e a8aa 84be
00000270: 5632 09bd e377 9ebb 149c b13d 295c 8abd
00000280: 9054 613c 6856 21bb fe49 b03e fc7c 25be
00000290: 08b8 b6bd 7317 c63d 7f7e bbbe 0d98 e73d
000002a0: bcc5 d2bd 1f40 28bd ea6a aa3e 2edc 07bd
000002b0: bff3 5ebe 867f 133d 5301 313e 617c 0e3d
000002c0: 3653 c33e 579b f4bd 2610 3bbe dc35 e63e
000002d0: 0c65 323e 014a 9fbe 4533 7ebe bd9c 8abd
000002e0: 9439 1b3e 78d4 d53d 7d94 8d3e 6ed0 433d
000002f0: e44e 0d3f 52f8 45be 45c3 903b 1759 d4be
00000300: 7bc3 c8bd 4800 babe 3005 aa3e cec3 7b3e
00000310: 8e7d 483e 758b d4bd 5a3d 3f3e 633f 24be
00000320: cf72 4fbe dcec 943e 9f5c c33e dd52 aebe
00000330: 9274 ee3e 7f2d 05be 2032 783d a4a5 bc3e
00000340: 5ff9 a1be f35e 583e b75b 8e3e c77e b9be
00000350: 2cb0 84be 30e8 09be 817d 9d3e 8c4e 3cbe
00000360: 4640 993e 1abf 853e af9f e1be 96ed 7cbd
00000370: 66f6 bd3e 9e84 973e d45a 7e3e ae9f d43d
00000380: fb68 003e 149e d03e aeae 943e 17e1 27bd
00000390: b4a9 ff3c d849 e1bd 7084 803d 01f0 19be
000003a0: fe02 5c3c 0a38 71b9 b9ec 6fbc 72e3 d6b9
000003b0: 80e9 553c 5966 1cbd 4de5 83be 0b55 78be
000003c0: 3cd5 b0be 49c3 c7be d1cd 54be cba7 7cbd
000003d0: c59a da3e 0200 b3bd d814 fb3d 81f8 07be
000003e0: 2647 2b3d 5752 b33e f749 eebe a84d 173e
000003f0: b442 47be ccba 24be c4cd 8b3d 3379 52bd

linear_1.bias f4 [64]
0.24286044 -0.2698978 -0.47424734 0.14402191 -0.3337636 -0.4891789 0.03421055 0.04799151
-0.05241384 0.18317746 0.26636383 -0.20739812 0.33394888 -0.12065309 -0.40658882 0.00080607896
0.40920573 -0.22368017 0.19997302 -0.047813077 -0.13941778 0.075989954 -0.43267894 0.14964731
-0.46139216 0.41692308 0.025475884 0.33451602 -0.3860226 -0.33928946 -0.5223265 -0.32169792
0.21337306 -0.11594085 0.062018957 -0.32735166 0.41923556 -0.38276577 -0.54431653 -0.016969446
-0.3153919 0.3735208 -0.016396498 -0.060291667 0.34432125 -0.33035612 -0.040295742 -0.036169674
-0.047325544 0.1503514 0.16162468 -0.4636667 -0.21815954 0.29563484 0.0045071957 0.23099715
0.2369144 -0.18861793 -0.0041193836 -0.26599187 -0.3367401 0.049305376 0.13922259 -0.1855165
00000000: 68b0 783e 0b30 8abe 8cd0 f2be 7b7a 133e
00000010: 10e3 aabe a875 fabe 5d20 0c3d bf92 443d
00000020: e5af 56bd df92 3b3e d760 883e 2c60 54be
00000030: 59fb aa3e f818 f7bd 692c d0be 0b4f 533a
00000040: 6a83 d13e 6a0c 65be bac5 4c3e a5d7 43bd
00000050: 89c3 0ebe 9fa0 9b3d 1888 ddbe 253d 193e
00000060: 983b ecbe f176 d53e cdb2 d03c af45 ab3e
00000070: c1a4 c5be 59b7 adbe 31b7 05bf 97b5 a4be
00000080: 787e 5a3e 6572 edbd 9707 7e3d a39a a7be
00000090: 0ba6 d63e e0f9 c3be 5458 0bbf 8203 8bbc
000000a0: 0c7b a1be 1e3e bf3e f351 86bc 65f4 76bd
000000b0: e04a b03e 7024 a9be 260d 25bd a726 14bd
000000c0: 6ed8 41bd b8f5 193e f180 253e b965 edbe
000000d0: 3765 5fbe 735d 973e 19b1 933b 848a 6c3e
000000e0: b099 723e 0f25 41be e5fb 86bb 1630 88be
000000f0: 3369 acbe 6ff4 493d 5e90 0e3e 0af8 3dbe

lstm.weight_ih_l0 f4 [256, 64]
-0.060791034 0.011447293 0.0022176635 -0.052696068 -0.0029908593 0.0034335381 0.064645484 -0.0063832873
-0.0018228252 -0.0109202545 -0.04458772 0.0057197823 -0.033388995 -0.012929384 -0.006428906 0.0008255285
-0.008053368 -0.0019524099 -0.00615073 0.080400266 -0.0064247474 -0.034926467 0.0694896 -0.025282659
0.0016277957 -0.09239801 -0.02715601 -0.035966713 -0.0025572223 -0.009944285 0.030402042 0.0017613176
-0.036420606 -0.013556231 -0.0069749136 0.0032325776 0.051082794 0.046315506 0.015429659 -0.0016388696
0.011235691 -0.051058233 -0.019356577 -0.00391921 0.10205415 -0.005239613 -0.007843839 -0.011614482
0.022069186 0.063169524 -0.058922462 0.037542902 -0.011589577 -0.0478875 -0.024037201 0.080230765
0.067231014 -0.007478148 1.6909813e-05 -0.00071390165 -0.009904801 0.0041991584 -0.041814577 -0.0047844807
0.10435194 0.021891534 0.061548356 -0.017402574 0.07006662 0.08472148 0.08890657 -0.0067858333
-0.0015406772 -0.025938548 -0.02650344 0.030001171 -0.03512103 0.025203625 0.0002484538 -0.0032331832
-0.06357448 0.0065792124 0.0068884613 0.018352274 -0.0030747736 -0.011594764 -0.01347784 -0.021958688
0.0151553275 -0.036832925 -0.020687012 -0.033418845 -0.0019342571 0.010222846 -0.007860137 0.00094648794
-0.02680674 -0.012032807 -0.0032705246 0.007094026 0.02573671 0.05212317 0.011826979 -0.00082755584
0.026037393 -0.02703087 -0.014241333 -0.0032294923 0.110495016 -0.0037611765 0.036676966 -0.016990433
-0.08298747 -0.042912908 -0.0056234943 0.08060119 -0.013239862 -0.027764596 -0.01966428 0.0011420737
0.086484954 -0.0037442262 -1.6047761e-05 -0.0010014784 0.0020803895 0.105474405 -0.0434761 -0.0036607464
-0.06035236 0.030100161 0.0015119858 -0.028747516 0.09171149 0.011912744 0.040158346 -0.015995905
9.7168144e-05 0.00180035 -0.034623045 0.010585676 -0.015900306 0.036492996 -0.01615725 -0.022846885
-0.05247295 -0.01378203 -0.027276712 -0.0033969057 -0.0029987502 -0.013374647 0.03493208 -0.010554057
0.00465373 -0.060058244 -0.009727155 0.028484292 -0.014518032 0.013818969 0.03602278 -0.0062661944
-0.012800733 -0.0051186704 -0.0076537356 0.039276928 0.06462224 0.062042296 0.053724147 -0.0012452889
0.029349318 -0.009127784 -0.030735238 -0.0012855169 -0.05538901 -0.021151418 0.017522873 0.058380395
0.082688294 0.0048132422 -0.0047377637 0.078920655 -0.0049578007 -0.0103987465 -0.0025278372 0.09744593
0.05037907 -0.0034970134 2.9309624e-05 0.0018677698 -0.022308191 0.022288349 -0.004479049 -0.010855445
0.015302054 0.022669196 0.006522159 0.013561885 0.08892788 0.030067332 0.046142135 0.017204545
0.0026644103 -0.014442321 0.04684014 -0.006195817 -0.023658073 0.015986914 0.018624615 0.023518981
-0.024047427 0.024109567 0.0031728097 0.017075766 0.0025814935 0.01405423 0.0012302528 -0.012091071
-0.0026684143 0.00670257 -0.02446539 -0.04791055 0.009280419 0.006361293 0.030640937 0.010260508
-0.006725396 -0.008891387 0.008050641 0.026502114 -0.06560074 0.030607298 0.03904057 -0.0010712129
0.011033338 -0.017057145 0.025315026 -0.00080987357 -0.01585725 0.013199633 0.012789495 0.031027663
0.07623416 0.039937 -0.033242412 0.04641584 -0.00985723 0.023075573 -0.017481424 0.057582665
0.038432833 0.0031492768 1.8928877e-05 0.0024731313 0.023446323 0.0013236514 -0.04386109 0.0099097695
00000000: 0500 79bd 6d8d 3b3c 3856 113b d5d7 57bd
00000010: 4b02 44bb 3605 613b da64 843d e52a d1bb
00000020: ddeb eeba deea 32bc 9da1 36bd 036d bb3b
00000030: e6c2 08bd c4d5 53bc 93a9 d2bb 4868 583a
00000040: 46f2 03bc 01e8 ffba 108c c9bb e5a8 a43d
00000050: b086 d2bb 0e0f 0fbd 9050 8e3d 941d cfbc
00000060: c35b d53a 2b3b bdbd 4876 debc d551 13bd
00000070: 1297 27bb 5bed 22bc b40d f93c 03dc e63a
00000080: c62d 15bd f41a 5ebc d18d e4bb a7d9 533b
00000090: 313c 513d 54b5 3d3d aecc 7c3c 57cf d6ba
000000a0: e715 383c 7022 51bd af91 9ebc b76c 80bb
000000b0: c401 d13d 0fb1 abbb 7283 00bc ab4a 3ebc
000000c0: 70ca b43c 065f 813d ae58 71bd 96c6 193d
000000d0: 36e2 3dbc af25 44bd aae9 c4bc 0750 a43d
000000e0: 6ab0 893d 410b f5bb 8cd9 8d37 2125 3bba
000000f0: bf47 22bc 1899 893b c345 2bbd 22c7 9cbb
00000100: 78b6 d53d e055 b33c 211a 7c3d d88f 8ebc
00000110: 177f 8f3d 7582 ad3d a614 b63d b25b debb
00000120: 8cf0 c9ba 147d d4bc be1d d9bc 04c5 f53c
00000130: 12db 0fbd d577 ce3c e842 8239 d0e3 53bb
00000140: 5633 82bd 6f96 d73b 9ab8 e13b 8257 963c
00000150: 2482 49bb f7f7 3dbc 29d2 5cbc b5e2 b3bc
00000160: 0d4e 783c 1fde 16bd cf77 a9bc 33e2 08bd
00000170: e686 fdba b97d 273c cec7 00bc bb1d 783a
00000180: cf99 dbbc 4025 45bc 4c56 56bb 0175 e83b
00000190: cbd5 d23c 1b7f 553d f2c5 413c 55f0 58ba
000001a0: 5f4c d53c d86f ddbc 7b54 69bc e4a5 53bb
000001b0: 364b e23d 127e 76bb 963a 163d 852f 8bbc
000001c0: 56f5 a9bd 72c5 2fbd 4a45 b8bb 3d12 a53d
000001d0: 02ec 58bc 9472 e3bc fc16 a1bc a2b1 953a
000001e0: 061f b13d b161 75bb 4e9e 86b7 0a44 83ba
000001f0: 2557 083b f702 d83d ff13 32bd 22e9 6fbb
00000200: 0934 77bd 9d94 f63c d32d c63a e97f ebbc
00000210: 3cd3 bb3d ab2d 433c 147d 243d d809 83bc
00000220: c0c6 cb38 b9f9 eb3a e5d0 0dbd 8b6f 2d3c
00000230: 5c41 82bc ae79 153d 365c 84bc 6429 bbbc
00000240: e0ed 56bd 06ce 61bc 6973 dfbc 9f9e 5ebb
00000250: ae86 44bb 5621 5bbc f114 0f3d ecea 2cbc
00000260: 517e 983b a2ff 75bd a55e 1fbc e457 e93c
00000270: 0add 6dbc f568 623c 9f8c 133d a654 cdbb
00000280: 2aba 51bc 85ba a7bb 30cc fabb d8e0 203d
00000290: aa58 843d 1020 7e3d da0d 5c3d f638 a3ba
000002a0: fb6d f03c b38c 15bc 77c8 fbbc ca7e a8ba
000002b0: 96df 62bd bd45 adbc 218c 8f3c 4820 6f3d
000002c0: 7b58 a93d 67b8 9d3b 3e3f 9bbb 27a1 a13d
000002d0: 0c75 a2bb 815f 2abc 12aa 25bb bb91 c73d
000002e0: 495a 4e3d 262e 65bb f0dd f537 f4cf f43a
000002f0: abbf b6bc 0e96 b63c fcc4 92bb 09db 31bc
00000300: 77b5 7a3c c0b4 b93c d6b7 d53b ab32 5e3c
00000310: d21f b63d c44f f63c 89ff 3c3d 8cf0 8c3c
00000320: 639d 2e3b 7c9f 6cbc 72db 3f3d 4806 cbbb
00000330: 93ce c1bc fdf6 823c a692 983c e1aa c03c
00000340: 1cff c4bc 6d81 c53c eaee 4f3b 7ae2 8b3c
00000350: 462e 293b b743 663c 6f40 a13a a119 46bc
00000360: 90e0 2ebb 3ba1 db3b a46b c8bc da3d 44bd
00000370: e60c 183c 6572 d03b b402 fb3c b11b 283c
00000380: b660 dcbb 2ead 11bc d6e6 033c f61a d93c
00000390: ae59 86bd 28bc fa3c 01e9 1f3d f167 8cba
000003a0: 2cc5 343c 6dbb 8bbc 7561 cf3c b24d 54ba
000003b0: 10e7 81bc 4643 583c 088b 513c ba2d fe3c
000003c0: a820 9c3d fb94 233d 3229 08bd 891e 3e3d
000003d0: 3880 21bc fc08 bd3c 3435 8fbc cddb 6b3d
000003e0: bf6b 1d3d 1964 4e3b 74c9 9e37 4214 223b
000003f0: 8112 c03c 5f7e ad3a b0a7 33bd 965c 223c

lstm.weight_hh_l0 f4 [256, 64]
0.04152916 0.017086064 0.01662046 -0.017748306 -0.022612842 -0.013880166 0.014307923 -0.004360214
-0.015446441 0.026187398 0.01038016 -0.012935977 -0.0019016021 -0.007897126 -0.0341428 -0.011118658
0.008535888 -0.010315488 -0.031718522 -0.01687875 0.03745247 -0.008425238 0.0007536608 0.019530382
-0.0033720273 0.050237145 0.020193085 0.010550985 0.013133667 0.031216092 -0.005766401 -0.013635415
0.00067263434 0.04661896 0.026466226 0.04924789 0.00924772 -0.01915316 -0.012955082 0.020035736
-0.015901908 -0.06389843 0.01320242 -0.0079342695 -0.0038250305 0.020698454 0.016591327 -0.011458535
-0.0102401655 -0.021175874 0.0554556 -0.0138009 -0.0242752 -0.015002307 -0.019157626 -0.006782832
0.0058393152 -0.006239263 -0.0012176536 -0.004159261 -0.0003155491 0.006035365 -0.009493014 0.008585924
-0.015027147 0.009607659 0.013946502 -0.03217827 -0.045593217 -0.004320319 0.0029615918 -0.002167988
-0.018704109 0.06379907 0.005360052 0.0023237295 0.0013656416 -0.017484412 0.01344435 -0.002496332
0.0051111793 -0.004704756 0.011826945 -0.010337036 0.017515099 0.012771948 -0.00044967368 0.058085393
-0.01493462 0.058722164 0.03313066 0.040289354 0.018181983 0.05732547 -0.0067482633 0.07558417
0.009600334 0.044698633 -0.018404962 0.032347627 0.003751345 -0.015315903 -0.008946741 0.0136927515
-0.03602121 -0.06618552 0.0050777993 0.0006832739 -0.00078349956 0.04173319 -0.003399512 0.019054415
0.011892525 -0.00093511137 0.079738386 -0.0055655306 -0.014970686 -0.0025027127 -0.015352897 -0.009464813
0.016795881 0.0035979676 -0.0017474868 -0.04655285 0.018386994 0.0009043933 0.010095144 -0.0062311008
0.0044955974 -0.012133882 0.017060177 -0.0054628807 0.008145118 -0.0017228235 -2.974231e-05 0.0034957943
0.0056751524 -0.023666572 0.0018784995 -0.032697596 0.007265882 -0.008684537 0.02414404 0.0052426104
0.0045056995 0.0019264142 -0.02999928 -0.003167279 0.022742389 -0.0012280071 0.0018740917 -0.008336286
0.034860473 0.02357758 0.016071374 -0.016515411 -0.0021429756 -0.009566665 -0.004178892 0.0057491586
-0.0065411353 0.022009863 -0.016379539 -0.025075262 0.0011749073 0.025274534 0.0017252429 0.0063190274
0.007956169 -0.014973573 0.0030424462 0.002952678 0.0029644533 -0.022774944 -0.031852607 -0.011209991
0.027127853 0.026442159 0.039544825 -0.0028154429 0.03064202 -0.0022413526 0.011776825 0.025397835
0.021571506 0.0025376393 -0.0037206039 -0.023435764 0.0027886126 -0.0010827894 -0.013779204 0.02725579
0.011987572 0.0011660542 -0.010634685 0.013682497 0.009294489 0.0008426621 -0.00014840934 1.9262428e-05
-0.0094033815 -0.0016916611 -0.0072721685 -0.007861184 0.0011373522 0.00082881236 -0.0035642027 -0.00015884431
0.0052350676 -0.00039244152 -0.014801851 -0.0056764553 0.00040317932 0.008324707 -0.0013395773 0.014873382
-0.015109801 -0.006025334 -0.0075229043 -0.024131065 0.0060740616 -0.0025734764 0.004479822 0.007378171
0.008226635 -0.0029105893 0.0021808806 -0.0010077382 -8.500225e-06 0.018536178 0.0017402405 0.0016354129
0.011178208 0.015589027 0.005978879 -0.00015720035 -0.0016670419 0.005581638 0.00018028096 0.0003358229
0.025657414 0.008715271 -0.014328531 -0.005507532 -0.0005030989 0.0019516166 0.0050197397 0.006790877
0.010113418 0.0012274724 0.0015719471 0.010973275 -0.007715505 -0.003392578 0.009522322 -0.001663158
00000000: 7b1a 2a3d 13f8 8b3c a227 883c e564 91bc
00000010: 913e b9bc a369 63bc c76b 6a3c 20e0 8ebb
00000020: 1213 7dbc f486 d63c 8c11 2a3c 6cf1 53bc
00000030: 2e3f f9ba f262 01bc 52d9 0bbd 082b 36bc
00000040: 1cda 0b3c 4b02 29bc 48eb 01bd 4e45 8abc
00000050: c367 193d 020a 0abc 5291 453a 2efe 9f3c
00000060: 3bfd 5cbb 77c5 4d3d f86b a53c 0ade 2c3c
00000070: 982e 573c e4b8 ff3c 14f4 bcbb 1367 5fbc
00000080: ba53 303a 86f3 3e3d b3cf d83c 28b8 493d
00000090: c083 173c 16e7 9cbc 8d41 54bc fc21 a43c
000000a0: b844 82bc 2edd 82bd f74e 583c bdfe 01bc
000000b0: 5dad 7abb ce8f a93c 89ea 873c 94bc 3bbc
000000c0: 5ec6 27bc 0779 adbc 6925 633d 2c1d 62bc
000000d0: c9dc c6bc 3ccc 75bc 74f0 9cbc 8542 debb
000000e0: ba57 bf3b bb72 ccbb ad99 9fba 694a 88bb
000000f0: 4970 a5b9 50c4 c53b 9688 1bbc faab 0c3c
00000100: 6c34 76bc 7169 1d3c de7f 643c 5dcd 03bd
00000110: f4bf 3abd 7691 8dbb 4417 423b ce14 0ebb
00000120: 5c39 99bc 16a9 823d 60a3 af3b b649 183b
00000130: 54ff b23a 783b 8fbc b145 5c3c 8099 23bb
00000140: ae7b a73b 5b2a 9abb cdc5 413c ac5c 29bc
00000150: d37b 8f3c 6f41 513c 2ec2 ebb9 f3ea 6d3d
00000160: 56b0 74bc a786 703d 04b4 073d 7306 253d
00000170: 62f2 943c 1dce 6a3d 8920 ddbb e0cb 9a3d
00000180: b84a 1d3c ea15 373d 01c6 96bc f27e 043d
00000190: 20d9 753b 8eef 7abc 5a95 12bc 9057 603c
000001a0: fa8a 13bd 468c 87bd ab63 a63b bc1d 333a
000001b0: c463 4dba 6cf0 2a3d 59ca 5ebb 0118 9c3c
000001c0: ddd8 423c 4322 75ba e14d a33d 0e5f b6bb
000001d0: 9c47 75bc 8d04 24bb b88a 7bbc 4e12 1bbc
000001e0: 8497 893c e1cb 6b3b ed0b e5ba 34ae 3ebd
000001f0: 52a0 963c cf14 6d3a 1a66 253c 432e ccbb
00000200: ce4f 933b 31cd 46bc c9c1 8b3c f701 b3bb
00000210: 1a73 053c 5dd0 e1ba 207f f9b7 b219 653b
00000220: a1f6 b93b 66e0 c1bc fc37 f63a eaed 05bd
00000230: a316 ee3b 9749 0ebc b9c9 c53c 34ca ab3b
00000240: 8ca4 933b bc7f fc3a 0dc1 f5bc 2092 4fbb
00000250: 3f4e ba3c 15f5 a0ba 15a4 f53a eb94 08bc
00000260: dbc9 0e3d c525 c13c 1da8 833c 544b 87bc
00000270: 2a71 0cbb 80bd 1cbc 16ef 88bb 7063 bc3b
00000280: 0557 d6bb 074e b43c 622e 86bc a36a cdbc
00000290: 59ff 993a 8a0c cf3c 8c21 e23a d80f cf3b
000002a0: 975a 023c b853 75bc c763 473b b781 413b
000002b0: 4647 423b 8592 babc e177 02bd 1caa 37bc
000002c0: 3b3b de3c 3a9d d83c c1f9 213d 4b83 38bb
000002d0: f904 fb3c a8e3 12bb 96f3 403c 1f0f d03c
000002e0: bab6 b03c 864e 263b 60d5 73bb 5cfc bfbc
000002f0: 28c1 363b 62ec 8dba 2cc2 61bc 8947 df3c
00000300: 8567 443c 49d6 983a 1a3d 2ebc 8d2c 603c
00000310: ea47 183c 19e6 5c3a 549e 1bb9 c095 a137
00000320: a410 1abc baba ddba 5f4b eebb 32cc 00bc
00000330: 3513 953a a844 593a 6695 69bb 728f 26b9
00000340: ee8a ab3b 9cc0 cdb9 7683 72bc 8f01 babb
00000350: d061 d339 5a64 083c c194 afba 7caf 733c
00000360: 198f 77bc 2a70 c5bb b282 f6bb 83ae c5bc
00000370: ec08 c73b c5a7 28bb 78cb 923b 96c4 f13b
00000380: 02c9 063c 96bf 3ebb 1bed 0e3b 1516 84ba
00000390: 309c 0eb7 2fd9 973c c818 e43a 5a5b d63a
000003a0: cd24 373c 1e69 7f3c 79ea c33b 26d6 24b9
000003b0: a580 daba 2ce6 b63b cd09 3d39 6311 b039
000003c0: 7f2f d23c 7fca 0e3c 37c2 6abc 8778 b4bb
000003d0: 65e2 03ba 63cd ff3a a17c a43b 0186 de3b
000003e0: c0b2 253c 24e3 a03a cb09 ce3a 40c9 333c
000003f0: 59d2 fcbb 0456 5ebb 8303 1c3c 52fe d9ba

lstm.bias_ih_l0 f4 [256]
0.035707235 0.01067875 -0.09194674 -0.020847203 -0.07871141 -0.022770248 -0.023308305 -0.004934842
-0.09711956 -0.060302097 -0.009446554 -0.12321198 -0.0113917 -0.0014335745 -0.014633885 0.018250462
-0.041394066 -0.030495146 -0.0041384147 -0.05731228 -0.038432166 -0.0081706615 -0.023921136 -0.09235444
-0.10918496 -0.028818015 -0.10916671 -0.01521395 -0.12377892 -0.06873011 -0.06671637 -0.0030265728
-0.022108097 0.021367898 0.050188385 -0.13235745 -0.040589143 -0.10975476 -0.03564612 -0.0015289274
-0.041939374 -0.03020599 -0.021818243 -0.025204629 -0.01251401 -0.071901284 -0.030938873 -0.03716497
0.0006623132 -0.037682634 -0.06869192 -0.024191067 -0.11777206 -0.012930306 -0.021650268 -0.00063964096
-0.095314026 -0.003053475 -0.019461203 -0.05115231 -0.0354371 -0.014806938 -0.10156225 -0.028751342
-0.0635123 -0.0822299 0.0022543678 -0.039108086 -0.03465537 -0.005065965 -0.0025751863 -0.0016412006
-0.12770613 -0.14036985 -0.027938344 -0.082896195 -0.007993124 -0.002812722 -0.0051487274 0.036475014
-0.023290893 -0.005372293 -0.01692722 -0.032109115 -0.015672667 -0.004652787 -0.01658202 -0.08535279
0.11547613 0.003838461 -0.0025539275 0.03663856 -0.044931334 -0.004177487 -0.01709919 0.029215194
-0.01648981 -0.10627638 -0.119307436 0.066373594 -0.01877961 -0.0343451 0.027722174 0.0002555595
-0.07160405 -0.078678645 -0.01164237 -0.017257584 -0.013204793 -0.016356839 -0.07187305 0.018094674
0.019474741 0.0148526365 0.043720067 -0.012562702 0.004089848 0.008427582 -0.10170001 -0.11862971
-0.01470351 0.012627982 -0.0116147 -0.059562754 -0.045252066 -0.006564649 -0.0029796402 -0.039105885
-0.087270014 -0.00091355643 0.015866598 0.017008217 -0.09311888 -0.048762556 0.038967576 0.013585053
-0.045704104 0.0022396112 -0.08090393 0.060048737 -0.02258868 0.069224395 -0.036086306 -0.029741997
-0.004505957 0.066241 0.082463466 0.006004467 -0.065625794 -0.064362936 0.031230723 0.079892665
0.06428513 -0.040595867 -0.0919352 0.11831253 -0.003105141 0.06564895 -0.07731875 0.041507978
0.023654 -0.018082537 -0.04005929 0.06686953 0.05226626 0.011625972 0.06519673 0.06605009
0.0034597863 -0.067547955 -0.06075412 0.052719448 -0.045579176 0.038453206 -0.0029110792 -0.019868905
0.08716532 0.039381135 0.07024234 0.036810476 -0.0714049 0.023642203 0.071554504 -0.008416715
0.07999499 0.040641733 -0.0038522277 -0.0023792358 -0.09041374 -0.046874505 0.005292649 0.07765931
-0.008504743 -0.06218815 -0.038403578 -0.053397898 0.023930501 -0.023315864 -0.011115087 -0.0054400973
-0.05257304 -0.09314128 -0.019939443 0.039405596 -0.012232971 -0.013839195 -0.12240808 0.037220746
-0.025478221 -0.040080078 -0.06762203 -0.061215565 -0.12657773 0.018248957 -0.024052033 0.0473889
-0.003372943 -0.12751706 -0.08675035 -0.08732252 -0.061605897 -0.009804674 -0.055044238 -0.103668824
0.025903162 0.017678477 0.037527915 -0.06211626 -0.052469086 -0.10056864 -0.016602704 -0.08334239
-0.008917158 -0.13721192 -0.026317442 -0.030487208 -0.015130556 -0.0036308349 0.019373031 -0.14475855
0.01675208 0.06573193 0.07527566 -0.0032627012 0.00024944314 -0.011557641 -0.01653285 -0.032863412
-0.111680284 0.0387007 -0.019672818 0.041470714 -0.03456756 -0.011471682 -0.114459544 -0.10155069
00000000: c041 123d edf5 2e3c 934e bcbd c1c7 aabc
00000010: 7333 a1bd ac88 babc 0ff1 bebc 75b4 a1bb
00000020: 9fe6 c6bd 55ff 76bd b8c5 1abc 9056 fcbd
00000030: 41a4 3abc c7e6 bbba f6c2 6fbc fe81 953c
00000040: d38c 29bd f5d0 f9bc 8a9b 87bb 48c0 6abd
00000050: 0c6b 1dbd 3dde 05bc 42f6 c3bc 5324 bdbd
00000060: 5d9c dfbd c213 ecbc cc92 dfbd ee43 79bc
00000070: cd7f fdbd 5fc2 8cbd 98a2 88bd 7759 46bb
00000080: 0a1c b5bc bb0b af3c 5692 4d3d b688 07be
00000090: cd40 26bd 1bc7 e0bd aa01 12bd 4a66 c8ba
000000a0: 9fc8 2bbd 8d72 f7bc 2cbc b2bc f079 cebc
000000b0: 9007 4dbc fb40 93bd 8573 fdbc 4c3a 18bd
000000c0: 169f 2d3a 1b59 1abd 59ae 8cbd 582c c6bc
000000d0: 7a32 f1bd a2d9 53bc e75b b1bc 94ad 27ba
000000e0: 0034 c3bd cf1c 48bb 1a6d 9fbc 1685 51bd
000000f0: 7e26 11bd cd98 72bc deff cfbd ef87 ebbc
00000100: bd12 82bd 2668 a8bd 04be 133b cd2f 20bd
00000110: caf2 0dbd 6500 a6bb 75c4 28bb 8e1d d7ba
00000120: 65c5 02be 1dbd 0fbe f4de e4bc 7bc5 a9bd
00000130: 98f5 02bc a555 38bb a8b6 a8bb d366 153d
00000140: 8bcc bebc 0f0a b0bb f4aa 8abc d984 03bd
00000150: f763 80bc 6876 98bb 04d7 87bc 72cd aebd
00000160: c07e ec3d b08e 7b3b cb5f 27bb 5112 163d
00000170: eb09 38bd 4de3 88bb 9a13 8cbc b454 ef3c
00000180: a315 87bc 6ea7 d9bd 7557 f4bd e1ee 873d
00000190: b2d7 99bc 73ad 0cbd 9d19 e33c 9efc 8539
000001a0: 25a5 92bd 4522 a1bd a4bf 3ebc c75f 8dbc
000001b0: eb58 58bc c7fe 85bc 2d32 93bd 483b 943c
000001c0: 7e89 9f3c 7958 733c d013 333d cbd3 4dbc
000001d0: 2204 863b d713 0a3c 1848 d0bd 22f4 f2bd
000001e0: fee6 70bc 98e5 4e3c 954b 3ebc 13f8 73bd
000001f0: 3b5a 39bd 441c d7bb 1146 43bb 7e2d 20bd
00000200: 9fba b2bd bc7b 6fba abfa 813c d154 8b3c
00000210: 1db5 bebd 3fbb 47bd 779c 1f3d d893 5e3c
00000220: 3a34 3bbd 71c6 123b f6b0 a5bd aaf5 753d
00000230: e50b b9bc 85c5 8d3d 3ccf 13bd 7da5 f3bc
00000240: b5a6 93bb 5da9 873d 9be2 a83d 1fc1 c43b
00000250: d166 86bd b7d0 83bd 93d7 ff3c c49e a33d
00000260: eca7 833d da47 26bd 8648 bcbd d74d f23d
00000270: 9f7f 4bbb f572 863d 4b59 9ebd 4504 2a3d
00000280: 09c6 c13c d421 94bc 3615 24bd e4f2 883d
00000290: 2515 563d dc7a 3e3c dd85 853d 4545 873d
000002a0: 95bd 623b 9556 8abd 50d9 78bd 59f0 573d
000002b0: 3bb1 3abd 1c81 1d3d cec7 3ebb 1dc4 a2bc
000002c0: bb83 b23d 1d4e 213d 37db 8f3d 95c6 163d
000002d0: bb3c 92bd 4bad c13c 2b8b 923d 43e6 09bc
000002e0: 6ad4 a33d f277 263d a875 7cbb f4ec 1bbb
000002f0: d72a b9bd 7bff 3fbd f56d ad3b d80b 9f3d
00000300: 7a57 0bbc 00b9 7ebd 124d 1dbd c1b7 5abd
00000310: e609 c43c e900 bfbc 0e1c 36bc d842 b2bb
00000320: d456 57bd dbc0 bebd 0b58 a3bc c367 213d
00000330: cd6c 48bc cabd 62bc 16b1 fabd c874 183d
00000340: b4b7 d0bc 022b 24bd 6b7d 8abd 2cbd 7abd
00000350: 989d 01be d67e 953c c508 c5bc dd1a 423d
00000360: 980c 5dbb d593 02be 2baa b1bd 26d6 b2bd
00000370: 7756 7cbd c9a3 20bc 1176 61bd 5250 d4bd
00000380: de32 d43c 74d2 903c dfb6 193d 9f6d 7ebd
00000390: d3e9 56bd eef6 cdbd 6502 88bc 6aaf aabd
000003a0: 4519 12bc 4881 0cbe ad97 d7bc 4fc0 f9bc
000003b0: 27e6 77bc 4df3 6dbb 31b4 9e3c 963b 14be
000003c0: a83b 893c 769e 863d 202a 9a3d 0bd3 55bb
000003d0: b1c7 8239 435c 3dbc e66f 87bc c99b 06bd
000003e0: a2b8 e4bd a084 1e3d e428 a1bc 32dd 293d
000003f0: b796 0dbd b9f3 3bbc c469 eabd cff9 cfbd

lstm.bias_hh_l0 f4 [256]
-0.0864637 -0.048145678 -0.08487884 -0.0017836675 -0.08856933 -0.024063459 -0.01963582 -0.005207958
0.066538006 -0.011778771 -0.0066997274 -0.10740268 -0.011408871 -0.020997537 -0.05446424 0.018044025
-0.05823177 -0.031118525 -0.033720654 -0.054277226 -0.008985207 -0.0261291 -0.023917781 -0.07596402
-0.040472265 -0.023089819 -0.04523588 -0.079062685 -0.06521301 -0.0742676 -0.028191691 -0.042055584
-0.0068179537 -0.06764603 -0.0060527753 0.062008567 -0.041218076 -0.114472486 -0.020111008 -0.0019470403
-0.0045744414 0.013237773 -0.05102888 -0.031557962 -0.01299492 -0.007782198 -0.102782026 -0.07635355
-0.009042528 -0.13941675 -0.02870248 -0.03187437 -0.13618444 -0.0016489138 -0.0277143 -0.04729546
0.021027677 0.0039791004 -0.019455658 -0.0782688 -0.06589623 -0.014712508 -0.059448764 -0.052292224
-0.116491936 -0.03048776 -0.036972012 -0.056791686 -0.061467677 -0.005739544 -0.003689446 -0.0016310142
-0.06806764 -0.041739408 -0.011485493 -0.07036361 -0.007993187 -0.021535028 -0.12780987 0.034894574
-0.03961866 -0.0075699617 -0.0015946012 -0.030050898 -0.055104204 0.01292568 -0.01658201 -0.100269265
-0.08236929 -0.032954276 -0.10226406 -0.0054796515 -0.08791689 -0.10985627 -0.01688137 0.000110679786
-0.07946866 0.023471676 0.02748225 0.07925996 -0.012022618 -0.105606325 0.012270882 -0.004880728
-0.06098243 -0.1585721 -0.007947448 -0.01949409 -0.0131051475 0.0031201616 0.0029230923 -0.087298036
-0.03875113 -0.14653926 0.016102696 -0.0052375747 -0.06591298 0.007298634 -0.048891038 -0.12084955
0.025487663 -0.011564757 -0.01161472 -0.021608032 -0.05434297 -0.0066257273 -0.11891563 -0.12656678
0.0021885566 0.08611437 -0.10135597 -0.07213173 0.06755677 0.06303389 0.031680815 -0.001964385
-0.042778086 0.07210999 -0.032877043 0.12040068 0.043616526 -0.028948633 0.058811538 -0.09338573
-0.06048146 -0.026038935 -0.04116329 0.008189743 0.051425498 -0.00035702315 -0.0015254852 -0.10071124
-0.014373263 -0.071514085 0.02405043 0.09626294 -0.031869896 -0.06772418 0.06272422 0.037208878
0.04319108 -0.03723483 0.013879066 -0.056162015 -0.010070736 -0.021118648 0.03756232 0.013988135
-0.073273316 0.094608165 0.005033084 -0.053639792 -0.043143537 -0.08602516 0.08451605 0.011165546
-0.025318492 0.043224923 -0.055531036 0.017767092 0.07574352 0.0530854 -0.050580166 -0.012708437
0.00085358974 -0.031927057 0.050789237 -0.06538635 0.08275759 0.066513225 0.094877414 -0.02517234
-0.14701363 0.019953024 -0.09695018 -0.06794168 -0.06238196 -0.021166483 -0.008652023 -0.006073927
0.0721598 0.005492979 -0.010282531 -0.00909969 -0.012214642 -0.031433944 -0.10853373 -0.0594268
-0.061699472 -0.03043591 -0.04595913 -0.0035042996 -0.03235787 -0.07438542 -0.024057003 0.034975383
-0.07921448 0.009301767 0.041750826 -0.12530312 0.017434236 -0.051392883 -0.062964834 -0.051254306
-0.040888265 -0.080487035 -0.09293745 -0.047086086 -0.06055357 0.00040380177 -0.003730112 -0.019186676
-0.044125278 -0.16148783 -0.05226168 -0.031048741 -0.016075678 -0.001578664 0.08740297 -0.044627383
-0.066497646 -0.11050955 -0.0092240535 -0.009615824 -0.002291256 -0.018008512 -0.030803982 -0.086146586
-0.09786083 0.016332176 -0.019687405 -0.1220255 -0.06971605 -0.013294322 -0.13802625 -0.021579849
00000000: e113 b1bd 6734 45bd f5d4 adbd f3c9 e9ba
00000010: d663 b5bd bb20 c5bc 4ddb a0bc 85a7 aabb
00000020: 1445 883d bffb 40bc 6389 dbbb f0f5 dbbd
00000030: 46ec 3abc 0703 acbc e515 5fbd 10d1 933c
00000040: 7084 6ebd 47ec febc ab1e 0abd cc51 5ebd
00000050: b136 13bc b20c d6bc 39ef c3bc 0693 9bbd
00000060: 3fc6 25bd dc26 bdbc 4249 39bd 9eeb a1bd
00000070: 668e 85bd 9d19 98bd 43f2 e6bc 7a42 2cbd
00000080: 2469 dfbb 008a 8abd 5c56 c6bb b2fc 7d3d
00000090: 49d4 28bd 8d70 eabd d7bf a4bc d533 ffba
000000a0: 32e5 95bb 3fe3 583c a903 51bd ec42 01bd
000000b0: a5e8 54bc cf01 ffbb 627f d2bd 405f 9cbd
000000c0: 1d27 14bc 44c3 0ebe 7721 ebbc b38e 02bd
000000d0: ef73 0bbe 5e20 d8ba 1a09 e3bc e2b8 41bd
000000e0: 3c42 ac3c 1d63 823b 7961 9fbc 654b a0bd
000000f0: 9af4 86bd bb0c 71bc 8c80 73bd 5f30 56bd
00000100: 5393 eebd 78c1 f9bc f76f 17bd 669e 68bd
00000110: 88c5 7bbd c912 bcbb a2ca 71bb c1c7 d5ba
00000120: 0c67 8bbd f1f6 2abd a62d 3cbc cc1a 90bd
00000130: dbf5 02bc 3a6a b0bc 97e0 02be 9ded 0e3d
00000140: 2d47 22bd 710d f8bb f001 d1ba 4d2d f6bc
00000150: f2b4 61bd 3bc6 533c ffd6 87bc f959 cdbd
00000160: 3bb1 a8bd 10fb 06bd d26f d1bd a68e b3bb
00000170: c50d b4bd 53fc e0bd cd4a 8abc c21c e838
00000180: 77c0 a2bd ac47 c03c 7522 e13c 0c53 a23d
00000190: 84fa 44bc 2148 d8bd cf0b 493c 84ee 9fbb
000001a0: b6c8 79bd b960 22be 0336 02bc 12b2 9fbc
000001b0: f9b6 56bc a07b 4c3b 5a91 3f3b 50c9 b2bd
000001c0: 81b9 1ebd 630e 16be cde9 833c f69f abbb
000001d0: 62fd 86bd 6129 ef3b f841 48bd f87f f7bd
000001e0: 81cb d03c 1b7a 3dbc ab4b 3ebc 5403 b1bc
000001f0: bc96 5ebd a11c d9bb 0a8a f3bd b99a 01be
00000200: e36d 0f3b bb5c b03d b893 cfbd cdb9 93bd
00000210: 345b 8a3d ea17 813d bec3 013d e9bc 00bb
00000220: 1338 2fbd 67ae 933d 14aa 06bd a294 f63d
00000230: 3ea7 323d af25 edbc 5ee4 703d 0541 bfbd
00000240: 68bb 77bd 9b4f d5bc d79a 28bd 462e 063c
00000250: 8ba3 523d d62e bbb9 caf2 c7ba b241 cebd
00000260: d67d 6bbc fa75 92bd 6805 c53c 8125 c53d
00000270: 028a 02bd fab2 8abd 8e75 803d 5668 183d
00000280: 21e9 303d 8d83 18bd 0665 633c 240a 66bd
00000290: baff 24bc 0401 adbc f2da 193d 7e2e 653c
000002a0: 5210 96bd edc1 c13d 92ec a43b 66b5 5bbd
000002b0: 47b7 30bd f62d b0bd c016 ad3d b2ef 363c
000002c0: ba68 cfbc 9e0c 313d 8374 63bd 4b8c 913c
000002d0: 6b1f 9b3d 1470 593d 262d 4fbd 0c37 50bc
000002e0: 70c3 5f3a f2c5 02bd 6008 503d 47e9 85bd
000002f0: d07c a93d 1638 883d 174f c23d 3936 cebc
00000300: be8a 16be 8674 a33c d18d c6bd 0225 8bbd
00000310: 3a84 7fbd 5565 adbc 37c1 0dbc cb07 c7bb
00000320: 84c8 933d 73fe b33b 1078 28bc de16 15bc
00000330: ec1f 48bc e1c0 00bd ef46 debd 8469 73bd
00000340: 96b8 7cbd bb54 f9bc a43f 3cbd 64a8 65bb
00000350: b089 04bd 6257 98bd 3113 c5bc 5942 0f3d
00000360: 343b a2bd 7066 183c ea02 2b3d 764f 00be
00000370: 3ed2 8e3c 5881 52bd b5f3 80bd 09f0 51bd
00000380: 747a 27bd 63d6 a4bd fd55 bebd 57dd 40bd
00000390: 0507 78bd 5bb5 d339 e574 74bb 602d 9dbc
000003a0: b5bc 34bd 115d 25be 5810 56bd ee59 febc
000003b0: 24b1 83bc 2deb ceba 5400 b33d 34cb 36bd
000003c0: eb2f 88bd d552 e2bd 7c20 17bc b08b 1dbc
000003d0: e628 16bb 9686 93bc a258 fcbc 9f6d b0bd
000003e0: 426b c8bd 0ecb 853c 7b47 a1bc 81e8 f9bd
000003f0: 4ac7 8ebd 6ed0 59bc c156 0dbe 39c8 b0bc

lstm.weight_ih_l1 f4 [256, 64]
0.0023425487 0.0018586884 0.0020272322 -0.001102706 -0.0022327623 -0.0021056724 0.0028819654 -0.0007021108
0.0022453952 0.0016296613 0.002321539 -0.0019419589 0.0005017463 -0.00285729 -0.0026185815 -0.0005952656
0.0013748594 -0.0012859228 0.0021228967 -0.0015790412 0.0012997963 -0.0019527812 -0.0040003974 0.001831695
-0.001160952 0.0012099249 0.001351491 0.0016710857 0.0022058364 0.0023134812 -0.00035695516 0.002063229
-0.0023622203 0.0024031068 0.0025494704 0.0027656467 0.000838066 -0.0015501262 -0.0009836901 0.002389869
-0.0018656678 -0.0028253125 0.0019594387 -0.0008382798 -0.0008957562 0.00012258042 -0.001003229 -0.0023244205
0.00031309912 -0.0015615837 0.0008760763 -0.002833829 -0.0026449508 -0.0022821724 -0.0015975081 -0.0017320833
-0.00078096334 -0.0017716278 -0.0014922911 -0.0011699795 -0.00017100698 0.0017308961 -0.0009775643 0.0022963453
0.006368107 0.0044754124 0.0042010727 -0.004381449 -0.0065113213 -0.00484667 0.0060841725 -0.002802286
0.0063073174 0.0071024145 0.00457141 0.0041522807 -0.0044579157 -0.0060424185 -0.006438585 -0.0026476867
0.0042949053 -0.0032868448 0.0052371663 -0.0034808258 0.003631296 -0.0048946836 0.0044763167 0.0062325825
-0.00386512 0.0051746075 0.004037037 0.005138361 0.005523248 0.0058947904 -0.0039168163 0.005164559
-0.0046585803 0.006893393 0.007538299 0.007120911 0.0034523974 -0.0066492315 -0.0046044555 0.0044036214
-0.00463796 -0.0072011985 0.0032947937 -0.0036782469 -0.0030283143 0.004180032 0.0045195287 -0.0060803783
-0.004555187 -0.005724905 0.0063745393 -0.0060576065 -0.007301178 -0.00453017 -0.0044828965 -0.005315947
-0.00509337 -0.0033681365 0.004910457 -0.003530358 0.003902107 0.0032893606 -0.003968099 0.0070189647
0.0013053867 0.0011102094 0.0013921307 -0.00034874238 -0.0015053015 -0.0014683413 0.0022321444 0.00039653576
0.0016151192 0.0011235396 0.0017094356 -0.0018233145 0.0014136109 -0.001999083 -0.0017247812 0.00059639034
0.00042045736 -0.00043123745 0.0010689737 -0.00067565707 0.0003507784 -0.0010546552 -0.0039573153 0.00089582487
6.013515e-05 0.00036052766 0.0005555507 0.001106879 0.001589155 0.001576196 0.00045235112 0.0009892781
-0.0016172081 0.0016374241 0.0017887976 0.0020068914 -0.00018985139 -0.00096411095 -2.2248278e-05 0.0013971748
-0.0009938857 -0.0019454579 0.0010081306 -4.623516e-05 -4.5497145e-05 -0.0007231306 -0.0017010276 -0.0013735278
0.00076707354 -0.0011052183 0.00056916376 -0.002099891 -0.0018064966 -0.0015169004 -0.0010988079 -0.0010183662
-5.1221752e-05 -0.0012092396 -0.0014224098 -0.00043880127 -0.00061297 0.0009821346 -0.000125336 0.0016173732
0.004553565 0.0037730795 0.003675309 -0.0031054253 -0.0044168183 -0.0041618347 0.005151574 -0.0020712814
0.0045136567 0.0043182387 0.0042768437 -0.0015904651 -0.0011681836 -0.00502812 -0.0048810006 -0.0017340938
0.0029482543 -0.0026940417 0.003975879 -0.0031317458 0.002753962 -0.003592709 -0.0036540928 0.004060903
-0.0023087298 0.0032023406 0.003144956 0.003544497 0.004411129 0.0043960134 -0.0018804101 0.0038050537
-0.004229265 0.0048083807 0.0050146086 0.0050194804 0.0024337342 -0.0042098644 -0.0028608004 0.0040826
-0.0037210393 -0.0052569434 0.0037895166 -0.0022141375 -0.0022845357 0.0023359642 0.0013429401 -0.0044760234
-0.001790982 -0.0037650983 0.0041106655 -0.004945146 -0.005089252 -0.004104115 -0.0039622243 -0.0035612965
-0.0025663504 -0.0031834305 -0.0012078008 -0.0024974858 0.0017005177 0.003251933 -0.0027894392 0.0050144223
00000000: 7285 193b 3c9f f33a 50db 043b ac88 90ba
00000010: 8953 12bb 52ff 09bb 5bdf 3c3b dc0d 38ba
00000020: 7b27 133b 5c9a d53a f624 183b 5489 feba
00000030: a087 033a 5f41 3bbb 829c 2bbb 990b 1cba
00000040: a034 b43a 698c a8ba 4c20 0b3b d5f7 ceba
00000050: ed5d aa3a 77f4 ffba c415 83bb 7c15 f03a
00000060: 162b 98ba 5896 9e3a 8324 b13a 5508 db3a
00000070: cb8f 103b c69d 173b b625 bbb9 3d37 073b
00000080: 7bcf 1abb 717d 1d3b 0415 273b da3f 353b
00000090: a8b1 5b3a 9b2d cbba 2aef 80ba 599f 1c3b
000000a0: 6c89 f4ba e128 39bb ed69 003b 01c0 5bba
000000b0: 2ed1 6aba ee88 0039 c77e 83ba 4e55 18bb
000000c0: 7427 a439 0eae ccba 7ca8 653a c3b7 39bb
000000d0: e956 2dbb 8090 15bb 7a63 d1ba 1207 e3ba
000000e0: 90b9 4cba f735 e8ba fb98 c3ba ff59 99ba
000000f0: 5650 33b9 3cdf e23a 9d21 80ba 487e 163b
00000100: 8eab d03b 7ba6 923b 27a9 893b 4292 8fbb
00000110: ec5c d5bb d1d0 9ebb bd5d c73b 8fa6 37bb
00000120: 9dad ce3b 5fbb e83b c4cb 953b db0f 883b
00000130: b513 92bb 7bff c5bb c4fa d2bb d084 2dbb
00000140: 47bc 8c3b 1b68 57bb 899c ab3b 911e 64bb
00000150: 0afb 6d3b 9563 a0bb 11ae 923b b13a cc3b
00000160: f44d 7dbb c18f a93b 1f49 843b b25f a83b
00000170: 5dfc b43b 1629 c13b a358 80bb 763b a93b
00000180: 01a7 98bb f9e1 e13b d603 f73b 8856 e93b
00000190: 9e41 623b cce1 d9bb f9e0 96bb 414c 903b
000001a0: 07fa 97bb 08f8 ebbb 77ed 573b be0e 71bb
000001b0: af76 46bb a6f8 883b 8e18 943b e93d c7bb
000001c0: ae43 95bb fc97 bbbb 83e1 d03b e37e c6bb
000001d0: b83e efbb d271 94bb 43e5 92bb 6531 aebb
000001e0: 49e6 a6bb f4bb 5cbb e6e7 a03b 945d 67bb
000001f0: 7eba 7f3b 5092 573b d406 82bb 58ff e53b
00000200: 8219 ab3a 7284 913a 2878 b63a 69d7 b6b9
00000210: 894d c5ba 5c75 c0ba 2b49 123b 21e6 cf39
00000220: 68b2 d33a bc43 933a 240f e03a 48fc eeba
00000230: e948 b93a 0c03 03bb 0e12 e2ba 1457 1c3a
00000240: d570 dc39 b617 e2b9 ce1c 8c3a 941e 31ba
00000250: aee8 b739 5b3c 8aba 5eac 81bb cad5 6a3a
00000260: a039 7c38 3405 bd39 60a2 113a b214 913a
00000270: 324b d03a 5d98 ce3a 8a29 ed39 aaaa 813a
00000280: 80f8 d3ba d69e d63a 1676 ea3a 0d86 033b
00000290: d812 47b9 64bc 7cba d0a1 bab7 6821 b73a
000002a0: 4545 82ba bcfe feba 4023 843a a0ec 41b8
000002b0: 30d4 3eb8 7990 3dba 04f5 deba f207 b4ba
000002c0: 6f15 493a f9dc 90ba ef33 153a 539e 09bb
000002d0: f8c7 ecba bbd2 c6ba e005 90ba b37a 85ba
000002e0: f0d6 56b8 597f 9eba 2770 baba e90e e6b9
000002f0: b8af 20ba f8ba 803a a06c 03b9 0afe d33a
00000300: 1236 953b c545 773b 74dd 703b 6484 4bbb
00000310: f5ba 90bb 0060 88bb 89ce a83b 56be 07bb
00000320: 4ce7 933b 0380 8d3b c424 8c3b 2777 d0ba
00000330: bd1d 99ba edc2 a4bb cdf0 9fbb 884a e3ba
00000340: 8037 413b 858e 30bb 1748 823b fa3d 4dbb
00000350: d17b 343b a873 6bbb 8179 6fbb 5311 853b
00000360: 0f4e 17bb 5cde 513b 9b1b 4e3b cb4a 683b
00000370: 3b8b 903b 6f0c 903b 1878 f6ba 355e 793b
00000380: a595 8abb 9f8f 9d3b 9651 a43b 747a a43b
00000390: 497f 1f3b e7f2 89bb 447c 3bbb 55c7 853b
000003a0: aedc 73bb 7042 acbb 8a59 783b 101b 11bb
000003b0: 26b8 15bb fa16 193b 9805 b03a 9bab 92bb
000003c0: 62bf eaba debf 76bb c3b2 863b e40a a2bb
000003d0: bdc3 a6bb d07b 86bb 8cd5 81bb a464 69bb
000003e0: 3730 28bb 1aa1 50bb 124f 9eba dcac 23bb
000003f0: e8e3 de3a 621e 553b 06cf 36bb 0650 a43b

lstm.weight_hh_l1 f4 [256, 64]
-0.00082748255 -0.0060524708 -0.0012827655 0.000692734 0.0038859826 0.00626911 -0.00019576121 0.0018224427
0.0005689832 -0.0013454882 -0.0009645814 0.001075349 -0.0035647922 0.001062206 0.00024575094 -0.0025686456
-0.003638507 -0.0027481627 -0.00091302494 -0.0037096622 0.0033767503 -0.0031455185 -0.0032811076 0.0015240258
-0.0007994231 0.0015715198 -0.000720121 -0.0021168867 -0.0034898766 -0.0007700343 -0.006065217 -0.0015147312
0.001064918 -0.0020753876 -0.0011709451 8.188869e-05 -0.0037570284 0.001098614 -0.0027365247 0.0010338873
-0.0007610557 -0.0057388903 0.0009793789 -0.0063030147 -0.001454718 0.0066285315 0.0012353342 0.005393676
0.0026317188 0.0011086796 -0.0023606126 0.006877022 0.0013358097 0.0014956327 -0.0010268625 -0.003313808
-0.00077193166 0.00039928692 0.001200717 -0.0016202109 -0.0024484585 -0.0015079668 0.0012497078 -0.0015751505
0.0051158764 0.004093009 0.005073195 -0.0051102773 0.0075508817 -0.003543786 0.0048875273 0.004423192
-0.004878397 -0.004005244 0.0050897715 -0.0054162773 -0.007423684 -0.0050488687 -0.0051108883 0.004604608
-0.0073459833 -0.0058467817 0.0051853587 -0.0076386454 0.006736637 0.004246754 -0.0068525677 -0.004919926
0.0051700566 0.0040798057 0.003902598 0.0045667896 -0.0070668277 0.005051671 0.004086989 0.0049568396
0.0037657202 -0.0046870774 0.0049170586 -0.0044930964 -0.007518123 -0.0051717907 -0.005981429 -0.0051067327
0.005110403 0.0029903078 -0.0052439068 0.0038779255 0.0051050615 -0.0036316488 -0.0048767286 -0.0042939754
0.005994975 -0.005225411 -0.0051832236 -0.0039868434 -0.004476322 0.004433822 0.0049841646 0.0010398207
0.0049643125 -0.0048028147 -0.0051572835 0.0048706634 -0.0055029364 -0.0020362216 -0.0051039346 0.005115159
-0.0011373251 -0.006275711 -0.0013728295 0.0007762196 0.0026833578 0.00638817 -0.000121403136 0.00051370566
0.00076294143 2.5483721e-05 -0.0012440435 0.000870297 -0.002348705 0.0013045956 0.00034780317 -0.002405577
-0.0024468338 -0.001523938 -0.0014121181 -0.0024767308 0.0022174625 -0.003191445 -0.0021101239 0.0016913326
-0.0009188955 0.0001714975 -0.0019727012 -0.0020194876 -0.0023024715 -0.0009870857 -0.0060050017 -0.0015584596
-0.00025467313 -0.0007930931 -0.001186918 0.0004979301 -0.0025558374 0.0010218192 -0.0015351383 0.0014575568
-0.00096662465 -0.0060405154 0.0011390487 -0.006621542 -0.0017055061 0.0065928344 0.0016780745 0.005335136
0.0014864559 0.0012593216 -0.0011024016 0.006206897 0.0017422064 0.0002584796 -0.0011656483 -0.003517539
-0.0010700116 0.00033124862 0.0013367459 -0.0015238142 -0.0011678465 -0.0015293453 0.0015934927 -0.0016252963
-0.00078529073 -0.006492113 -0.0007934205 0.0008358339 0.0063098073 0.0060886205 6.7413202e-06 0.0036145055
-0.0007875901 -0.0031110714 -4.6273926e-06 0.00094749493 -0.0059826756 0.0010514385 1.191895e-05 -0.0022536605
-0.006058695 -0.004907653 -0.00074332376 -0.0061655855 0.0056794477 -0.0033620144 -0.0056250766 0.0009101091
-0.00031991082 0.0033204085 0.00137437 -0.0018764875 -0.005823585 -0.0007612107 -0.0061796657 -0.0008079065
0.0028447546 -0.0039670765 -0.0007623984 -0.000564219 -0.006178041 0.0005822588 -0.004889076 0.00076517044
-0.0002165609 -0.005405609 0.00040713605 -0.006722101 -0.00066210254 0.0062302486 0.00080428895 0.005130757
0.00484432 0.00041658792 -0.004412649 0.0069056377 -0.00060436217 0.003435653 -0.00067246484 -0.0035085827
-0.00088746997 8.332898e-05 0.00052815926 -0.00093597197 -0.004527711 -0.0023312822 0.0006727758 -0.00068603945
00000000: 6aeb 58ba ce53 c6bb 7822 a8ba 9798 353a
00000010: f8ab 7e3b 1b6d cd3b 4045 4db9 08df ee3a
00000020: d127 153a 185b b0ba f6db 7cba baf2 8c3a
00000030: 4a9f 69bb b839 8b3a 22d8 8039 b956 28bb
00000040: 0574 6ebb 851a 34bb 1158 6fba ce1d 73bb
00000050: 784c 5d3b 0b25 4ebb da07 57bb d2c1 c73a
00000060: 6090 51ba 74fb cd3a 81c6 3cba 77bb 0abb
00000070: 6ab6 64bb 21dc 49ba babe c6bb f289 c6ba
00000080: b894 8b3a 3a03 08bb 667a 99ba a8bb ab38
00000090: 7a38 76bb 5eff 8f3a 4457 33bb 8083 873a
000000a0: 9581 47ba 4d0d bcbb 815e 803a 8589 cebb
000000b0: 3cac beba 2734 d93b f0ea a13a 6fbd b03b
000000c0: ea78 2c3b 1d51 913a 82b4 1abb a458 e13b
000000d0: 5616 af3a 1b09 c43a ca97 86ba 792c 59bb
000000e0: 755b 4aba 6257 d139 6061 9d3a 425d d4ba
000000f0: 5176 20bb f8a6 c5ba 3ccd a33a 4875 ceba
00000100: 15a3 a73b a61e 863b 0b3d a63b 1d74 a7bb
00000110: 636d f73b dd3e 68bb 8d27 a03b 6cf0 903b
00000120: f6da 9fbb 6c3e 83bb 19c8 a63b 077b b1bb
00000130: 6042 f3bb fb70 a5bb 3d79 a7bb 40e2 963b
00000140: 93b6 f0bb 5c96 bfbb f1e9 a93b 9a4d fabb
00000150: 02bf dc3b 5b28 8b3b 818b e0bb 5537 a1bb
00000160: 9469 a93b e4af 853b bbc2 7f3b 02a5 953b
00000170: d990 e7bb 7d88 a53b 26ec 853b fc6c a23b
00000180: 4dca 763b 0e96 99bb 471f a13b d33a 93bb
00000190: 965a f6bb 2078 a9bb ddff c3bb 6156 a7bb
000001a0: 2b75 a73b 0af9 433b 14d5 abbb cb24 7e3b
000001b0: 5c48 a73b f500 6ebb f7cc 9fbb 7ab4 8cbb
000001c0: 7f71 c43b ed39 abbb 08d8 a9bb 11a4 82bb
000001d0: 1cae 92bb 9849 913b 3452 a33b 984a 883a
000001e0: acab a23b ee60 9dbb 6efe a8bb 169a 9f3b
000001f0: fa51 b4bb 2172 05bb e83e a7bb 109d a73b
00000200: 4c12 95ba 7ba4 cdbb 84f0 b3ba 377b 4b3a
00000210: 46db 2f3b db53 d13b d099 feb8 34aa 063a
00000220: 2200 483a e0c5 d537 2c0f a3ba a524 643a
00000230: bbec 19bb f7fe aa3a 5a59 b639 e3a6 1dbb
00000240: 0f5b 20bb e0be c7ba d216 b9ba a650 22bb
00000250: d952 113b 9027 51bb 014a 0abb b4af dd3a
00000260: 08e2 70ba 02d4 3339 6f48 01bb 6159 04bb
00000270: 10e5 16bb 1a61 81ba 9bc5 c4bb 3a45 ccba
00000280: a685 85b9 94e7 4fba 5c92 9bba 8687 023a
00000290: d67f 27bb 90ee 853a b236 c9ba 7e0b bf3a
000002a0: 1565 7dba 84ef c5bb 224c 953a 85f9 d8bb
000002b0: 4a8b dfba b408 d83b d6f2 db3a 5dd2 ae3b
000002c0: 2fd5 c23a d20f a53a 767e 90ba 3a63 cb3b
000002d0: bf5a e43a 8b84 8739 abc8 98ba 8386 66bb
000002e0: a23f 8cba 70ab ad39 c035 af3a b8ba c7ba
000002f0: 6d12 99ba 5074 c8ba bedc d03a e507 d5ba
00000300: f8db 4dba cbbb d4bb 8cfd 4fba dd1b 5b3a
00000310: 80c2 ce3b 0d83 c73b 8033 e236 57e1 6c3b
00000320: 4776 4eba 1ee3 4bbb 0045 9bb6 4f61 783a
00000330: 520a c4bb 6cd0 893a 80f7 4737 26b2 13bb
00000340: 0488 c6bb 61d0 a0bb 9ddb 42ba ae08 cabb
00000350: a91a ba3b 3e55 5cbb 9052 b8bb 6394 6e3a
00000360: b4b9 a7b9 369b 593b 3424 b43a 79f4 f5ba
00000370: c6d3 bebb fc8b 47ba cb7e cabb b0c9 53ba
00000380: 106f 3a3b 40fe 81bb b1db 47ba 19e8 13ba
00000390: 2a71 cabb baa2 183a 8b34 a0bb b895 483a
000003a0: a014 63b9 8921 b1bb e074 d539 1245 dcbb
000003b0: f390 2dba 1d27 cc3b ebd6 523a e91f a83b
000003c0: 1abd 9e3b 7c69 da39 fc97 90bb b048 e23b
000003d0: 0f6e 1eba b128 613b 5a48 30ba 40f0 65bb
000003e0: 1aa5 68ba e8c0 ae38 2b74 0a3a 045c 75ba
000003f0: 315d 94bb 6dc8 18bb 385d 303a 54d7 33ba
