stock_models/TSLA.pth (torch, 72386 bytes, 11 tensors)

linear_1.weight f4 [32, 1]
000000 d1 e4 08 bf 26 4a 2a be 9f 3c c6 bb f9 0f 49 bf
       -0.53474146 -0.16629848 -0.006049707 -0.7854
000010 0b 38 83 bb ff 1f 40 3f 66 61 9e be 3d 4d a1 3d
       -0.0040044836 0.7504882 -0.30933684 0.0787606
000020 79 84 84 3e 7f 40 21 bf e1 e9 be be a0 b5 ce 3c
       0.2588232 -0.6298904 -0.3728781 0.02523309
000030 ea 96 26 bc 47 ef 28 3f e4 62 6c bf 2e db c0 bd
       -0.010167817 0.6599011 -0.92338395 -0.09416805
000040 7b 17 1b 3d ff 72 0d bf ed a5 21 bd cc 31 42 bf
       0.03786419 -0.55253595 -0.03946488 -0.75857234
000050 35 c7 ad 3e 5f a3 60 bf bb 11 a0 bc 35 4e d4 bb
       0.33941045 -0.87749285 -0.019539705 -0.0064790496
000060 a0 09 28 bf 28 1d a5 bd c0 78 b0 3e 64 3e b0 3d
       -0.65639687 -0.08062202 0.34467125 0.0860565
000070 f6 80 bf 3d 7c 0f 9d 3e 7d 3b 36 3f 18 56 12 3f
       0.09350769 0.30675876 0.7118452 0.5716262

linear_1.bias f4 [32]
000000 27 b2 c3 3e bd 51 35 3e 91 4d 05 3f 8f 4b 41 3f
       0.38221857 0.17706962 0.5207148 0.7550592
000010 b3 18 e1 bc 55 ab 99 bf 9a c1 c3 3e a5 05 07 3e
       -0.027477598 -1.2005411 0.38233644 0.13185747
000020 1f 8b 94 3e d5 45 91 3f 83 3d cf 3e 4e 31 26 bf
       0.2901239 1.1349436 0.40476617 -0.64918983
000030 86 47 af 3e cc 8e 74 be 19 40 95 3e 64 82 03 be
       0.34234256 -0.23882598 0.29150465 -0.12842709
000040 75 4a 8c be 54 e8 95 be 15 e7 54 3e 78 f2 70 bf
       -0.27400556 -0.29278815 0.20791276 -0.9411998
000050 ce 9d 89 bf 3f 6b 98 3e 56 33 33 bd bf bf 21 bc
       -1.0751283 0.29769322 -0.04375013 -0.009872376
000060 3a 4d 58 bf 13 b0 4b 3f bd 6b 24 bf 8b d5 88 3e
       -0.8449284 0.7956554 -0.64226896 0.2672542
000070 80 e1 29 bf af c6 9f be f6 95 45 bf 7c c0 99 bf
       -0.6635971 -0.3120627 -0.7718195 -1.2011867

lstm.weight_ih_l0 f4 [128, 32]
000000 1f 4c 3f 3e a1 ed 18 3d 0f 9c 03 3e 09 1a e0 bd
       0.18681382 0.037335996 0.128525 -0.10942466
000010 8b e1 0c 3c e1 74 d4 3e 0e 63 08 3e eb 66 b8 bb
       0.0085986955 0.41495422 0.13319036 -0.005627503
000020 d9 eb 00 3e 65 5d d9 3d be 0b 95 3d 97 1f 2d bc
       0.12589969 0.10613517 0.0727763 -0.010566614
000030 9a 44 b1 3e 4f e8 95 3e 95 de 81 3e e2 80 1f 3d
       0.3462265 0.292788 0.2536513 0.03894127
000040 4d 0b b5 bc 74 93 6e 3e 07 f0 bf 3e af 09 20 be
       -0.022100115 0.23298436 0.37487814 -0.15628694
000050 62 f4 6e 3d c1 d0 be 3c 4e 1c 16 3d 5a 28 b0 3e
       0.05833853 0.023292901 0.036648087 0.34405786
000060 a1 3f 0b 3e eb a1 45 3e 0c 11 85 3e 16 fc 69 3d
       0.13598491 0.19300048 0.25989568 0.057125174
000070 2b 88 95 3d ac 85 85 3e 6b c3 dd 3e 7c 8f 25 3e
       0.073013626 0.26078546 0.43313155 0.16168016
000080 0f b2 03 3e 4a 83 ef 3d 75 1f b3 be 6a a7 c4 3d
       0.12860893 0.11694963 -0.34984937 0.09602244
000090 5a a6 b7 bd fc 6e 35 3e 1a c7 38 be 5c ae 29 be
       -0.08967276 0.17718118 -0.18044701 -0.16570419
0000a0 25 5e ce 3b 63 d7 61 be 34 c4 12 bd 36 04 09 3e
       0.006297844 -0.2205482 -0.035831645 0.13380513
0000b0 96 87 56 be ea 6c 3d 3e e7 86 8b 3e 93 4a fb bd
       -0.2095016 0.18498579 0.2725136 -0.12270083
0000c0 9e c9 86 be 05 c6 89 3e e6 93 61 be 74 2a 6b 3d
       -0.26325697 0.2690889 -0.22029075 0.057413533
0000d0 e1 98 ef 3e aa 5e 85 3c da ec 75 3d 20 3e 12 3e
       0.46796325 0.01628049 0.060040332 0.14281511
0000e0 cc 34 f7 3d 2c 61 ca be 4c 16 0b 3e b2 6e d0 bd
       0.12070617 -0.3952726 0.13582724 -0.101773635
0000f0 84 cf 08 3e 1a ba 99 3d 9d 69 7b 3d 60 6e 3b 3e
       0.13360411 0.07506199 0.061380018 0.18303823
000100 96 6c e9 bd ce fc 1e be 3f 73 4b be c4 db 63 be
       -0.11397664 -0.15526125 -0.19868182 -0.22251803
000110 e9 b5 80 be 46 a7 0c 3f 52 8f bf be 6e 90 80 bb
       -0.25138786 0.5494274 -0.37414032 -0.0039234674
000120 4e 87 09 be ee 0f e9 be 07 8e 23 be a0 61 26 3e
       -0.13430521 -0.45519966 -0.15972148 0.16248178
000130 5a 79 6d bb 09 34 9a 3e 34 9d 95 3e e5 26 ac 3e
       -0.0036235661 0.30117825 0.292215 0.33623424
000140 4d b9 1c 3e 37 c3 27 3f d4 fe 45 bd 46 9a c3 bd
       0.15305062 0.6553225 -0.048338726 -0.0955091
000150 4e fe 1e 3f 42 14 bb 3d 58 6a 0f be ca 3e fa 3d
       0.6210679 0.09134723 -0.1400541 0.12219007
000160 86 99 cb bd 58 02 7f be 92 1b 6e bb 6d db b4 bd
       -0.09941392 -0.24903238 -0.003633235 -0.08830915
000170 3f 88 89 bd 36 3c 91 3d fa 70 4f 3e 6c 96 03 3f
       -0.0671544 0.070915624 0.20257941 0.514014
000180 73 3c 63 be ea e2 e6 bd 4d 7c 4c be 68 28 31 be
       -0.22191028 -0.11273749 -0.19969292 -0.1730057
000190 c9 bf cb bd 54 5e 47 3e 84 94 8f be 7f 85 32 bd
       -0.099486895 0.19469577 -0.28042996 -0.043584343
0001a0 af ec f9 bc 07 c9 b8 be 3c c0 5d bd aa e0 87 bd
       -0.030508367 -0.36090872 -0.054138407 -0.06634648
0001b0 2c 54 18 be 28 4c e2 3e c2 1a 94 3e 26 61 41 bc
       -0.14875859 0.44198728 0.28926665 -0.011802947
0001c0 a7 8d 2b be 13 35 09 3f c0 2f f6 3d 47 7a 2a 3b
       -0.16753255 0.5359661 0.12020826 0.0026012824
0001d0 76 f4 57 3d a2 c5 83 3e 48 73 ef 3a 7d 1f 45 3d
       0.05272337 0.2573672 0.001826861 0.048125733
0001e0 d8 70 6d 3c a8 e6 2e be 78 ab 99 3e 6d 41 12 3c
       0.014492236 -0.17080176 0.30013633 0.0089267315
0001f0 9c 86 39 be ba 02 a9 3e 25 5c 7c 3e 67 6b 21 3e
       -0.18117756 0.33009893 0.24644525 0.15763627
000200 4b fb e5 bd 64 5b 92 3d 07 3a 8d be 0d 56 c4 bd
       -0.11229571 0.07146338 -0.27583334 -0.095867254
000210 ee b7 ba 3d 7e d1 b6 bd d3 53 10 be 80 df 9d be
       0.09117113 -0.08926676 -0.14094476 -0.3083458
000220 5d 64 dc bd a1 d3 9b bd 0e e8 9f 3d 73 e3 98 bd
       -0.1076133 -0.076087244 0.07807933 -0.074652575
000230 e3 90 0d be c9 41 ea bd 08 84 a6 3e e1 74 f4 bc
       -0.13824801 -0.11438329 0.32522607 -0.029840888
000240 07 4e 31 be be fa f0 3e b1 97 34 be cb 3c 97 bd
       -0.17314921 0.470663 -0.1763599 -0.07384642
000250 0c 93 96 3d f2 18 af 3e 72 c3 10 be c8 2a a3 3c
       0.07352266 0.3419872 -0.14137056 0.01991786
000260 12 1e 94 bd 83 05 08 bd 0e 50 fb b9 a1 18 c3 bd
       -0.07232298 -0.03320838 -0.00047934096 -0.09526182
000270 18 3a 54 3e ec 8f 30 be 1e df 73 3e 3e 6b b4 bd
       0.20725286 -0.17242402 0.23815581 -0.08809517
000280 8c 45 3b 3e 65 1b 43 3e a6 06 8d bd 08 5f 44 3e
       0.18288249 0.19053419 -0.06886034 0.19176877
000290 b0 ae c3 3e 7c bc 8a 3e e7 12 e0 bd 64 8e ca bd
       0.38219213 0.27096927 -0.10941105 -0.0989044
0002a0 69 60 5d bd da 96 04 3e bd a9 47 be 88 cf bf 3e
       -0.054047022 0.1294817 -0.19498344 0.3746302
0002b0 47 92 2c bd 6d 74 9f be 66 17 13 3f 0e 14 b4 3e
       -0.04213169 -0.31143513 0.5745758 0.3517155
0002c0 78 9b 2c bd 81 55 f4 3e f2 ad 06 be 5f 5a ba 3c
       -0.042140454 0.47721484 -0.13152292 0.02274817
0002d0 df 06 9e 3e ba f6 12 3f 5e 10 27 3e 89 9d 83 3d
       0.30864617 0.57407725 0.16314837 0.06426532
0002e0 5d 7e df 3d 21 bf 79 be 93 59 d7 3c 0d fd 93 be
       0.10912774 -0.24389316 0.02628783 -0.28904
0002f0 2f 4b aa 3e 79 ec b3 be d8 75 77 3d e5 ad 01 3f
       0.33260486 -0.35141352 0.06041512 0.50655967
000300 b2 da 3e be 06 2b 3f be 50 e8 20 3e 14 df 4f bd
       -0.18638113 -0.18668756 0.1571362 -0.050749853
000310 e1 79 b3 bc 0d 86 f0 3e c9 b9 95 be 85 c1 ab bc
       -0.021908702 0.46977273 -0.29243305 -0.0209663
000320 2e 2e 29 3e 3b 0e c7 bd a4 25 da be e1 37 58 3d
       0.16521522 -0.09719511 -0.42606843 0.052787665
000330 97 79 da bc 90 fb a4 3e d2 be 87 3e 1d 0c 0c 3b
       -0.026669307 0.32223177 0.26512772 0.0021369525
000340 8c 84 39 3e 07 52 88 3f 67 36 73 3d db bc 04 bd
       0.18116969 1.0650033 0.059378054 -0.03240667
000350 1a ef 53 3e 38 83 a3 3e 1c b1 96 3d 04 06 31 3e
       0.20696679 0.3193605 0.07358 0.17287451
000360 05 cf ed 3c 50 a5 ec bd 88 cb 55 3d 8e 91 53 3e
       0.029029379 -0.11554968 0.052196056 0.20660993
000370 a1 96 7b 3e b5 45 12 3e 3d 69 d7 3d 37 a4 bd 3e
       0.24569179 0.14284404 0.105181195 0.37039348
000380 c8 4f 37 be a9 15 b9 bb b0 25 c3 3c ec 68 dd bd
       -0.17901528 -0.005648334 0.023821682 -0.10811028
000390 fa a7 38 be 64 4a 95 3e db e4 c3 3c 44 4a ab 3d
       -0.18032828 0.29158318 0.023912838 0.083637744
0003a0 2d 4f 71 3e d5 ad 03 be e8 5a 83 be fb 7e f7 bc
       0.2356536 -0.1285928 -0.25655293 -0.030211916
0003b0 4f bd 82 bc d6 df 9c 3e f6 56 a6 3e e5 34 5b 3d
       -0.01595941 0.30639523 0.3248822 0.05351724
0003c0 b0 2b 7b 3e ca d6 26 3f d5 3d a0 3e 2a 43 72 3d
       0.24528384 0.6517149 0.31297174 0.059146084
0003d0 37 1b 27 bd f2 0f a9 3e 59 fc f5 3c 17 57 61 3e
       -0.04079744 0.33019978 0.030027555 0.22005878
0003e0 7e fa 46 3d 43 2a e5 bd 46 b9 46 3e e6 b6 d6 3d
       0.04857873 -0.111897014 0.19406614 0.10484104
0003f0 b6 46 1c be a3 a4 dc 3e 4b 61 bd 3e c9 f7 d1 3e
       -0.15261349 0.43094358 0.3698829 0.41009358

lstm.weight_hh_l0 f4 [128, 32]
000000 69 e3 8f 3c de d9 ae 3b 6a 65 da bc 4f 81 7c 3e
       0.017564492 0.0053360304 -0.026659686 0.24658702
000010 36 d8 8e bc 6c 38 96 bd 4b 0b 30 bd d8 99 50 3d
       -0.017437082 -0.0733498 -0.04297952 0.050927967
000020 20 40 6c be 85 17 83 be cc 4b 51 3e 62 09 97 be
       -0.23071337 -0.2560388 0.2043907 -0.29499346
000030 f7 99 4f be d6 07 d1 3c c6 67 69 3e 69 39 eb 3c
       -0.20273577 0.025516432 0.22793493 0.028713899
000040 51 6e 70 3c fb 6c c5 3c 25 67 3d bd ed 92 7b bd
       0.014674739 0.024099817 -0.046240944 -0.061419416
000050 6d 03 08 be 7d 91 8e 3e 2c 32 de 3d fb ae 59 be
       -0.13282557 0.27845374 0.10849413 -0.21258156
000060 a7 0a b3 3c 41 54 65 3d e7 25 2a 3e 61 a8 99 3d
       0.021855665 0.055988554 0.16616021 0.07502819
000070 30 ce b2 3e c3 c6 57 3e 68 a1 c5 bd d0 a1 e2 3d
       0.34922934 0.21071915 -0.096499264 0.110660195
000080 99 19 81 be 1f b9 ea be 37 d0 57 3e 08 08 27 3a
       -0.25214842 -0.4584436 0.21075521 0.0006371741
000090 2b 9e 9c 3e b2 c3 44 3e 93 35 88 bd 1c c6 56 3d
       0.30589423 0.19215277 -0.066508435 0.052435026
0000a0 9c 21 bc 3e ba a6 a2 3e 29 ea 84 be e0 16 42 3d
       0.36744392 0.31767827 -0.259599 0.047385097
0000b0 b4 0b 00 3e 36 63 40 be dc 19 bf bc 83 12 88 3e
       0.12504464 -0.18787846 -0.02332776 0.26576623
0000c0 5d 2e 9d 3d dc 44 61 be a4 22 2a 3d 85 44 90 3e
       0.07674859 -0.21998924 0.041536942 0.28177276
0000d0 3c 9f 24 3f 89 1c 13 be d6 02 47 3d 60 81 18 3e
       0.6430547 -0.14366354 0.04858669 0.14893103
0000e0 7c 98 64 be 40 f6 4a 3e 11 73 4b be e3 54 79 3d
       -0.22323793 0.198205 -0.19868113 0.06087197
0000f0 7d 5f ff bd cc 90 24 3e 42 b6 69 bd 31 fe 18 bf
       -0.12469385 0.1607086 -0.05705858 -0.59762865
000100 d9 5b 5e be 8a 9b 8d be db 61 0b 3d 73 cc b6 bd
       -0.21714725 -0.2765773 0.03402887 -0.08925714
000110 11 9c 95 3e 24 cf 42 be 49 ad 62 be 73 6d 96 3e
       0.29220632 -0.1902433 -0.22136416 0.29380378
000120 b5 35 c6 3d f2 ee 0d 3f 16 6c 9d 3e aa 82 09 3e
       0.096782126 0.55442727 0.30746526 0.1342875
000130 07 ae b9 3d 12 48 b8 3c 30 be 5d be 92 de 8f be
       0.09066396 0.022495303 -0.21654582 -0.28099495
000140 0b 7d 50 be c9 87 e9 3e db a7 d3 3e 90 b2 84 3e
       -0.203602 0.45611408 0.41339 0.25917482
000150 20 f0 c7 3e 3f d8 63 3e 07 ae 92 bd 87 d5 b8 3d
       0.39050388 0.2225046 -0.07162099 0.09025102
000160 73 a5 c2 3e a7 16 b9 be 5b 4d 75 be 8b 40 f8 bd
       0.38016853 -0.36150095 -0.2395529 -0.121216856
000170 1e 18 f6 bd 65 fb 82 3e a5 48 0d 3c ad 6d ba 3e
       -0.12016319 0.25582424 0.008623277 0.364118
000180 a9 84 7f bb cf 03 eb bd 7a 3e 80 be 98 76 fe 3d
       -0.0038988984 -0.11475336 -0.25047666 0.12424964
000190 09 4e ca 3d ba 06 55 be c9 63 ea 3c 60 14 68 bd
       0.09878165 -0.20803347 0.028612034 -0.056660056
0001a0 fe 36 b9 bd 21 ba 5a bd 75 c5 9e 3e ea 52 c2 3b
       -0.09043692 -0.053400163 0.31010023 0.0059302943
0001b0 32 f5 3f bd 50 67 3b bc 9a 68 92 3e 66 e0 15 bd
       -0.046864696 -0.011438206 0.2859543 -0.036590956
0001c0 55 f6 80 3c b8 f0 b4 3b f7 ff 29 3e 5c f2 31 bd
       0.01574246 0.00552186 0.16601549 -0.043444023
0001d0 c3 76 20 3e 91 2d 4f bd ec 89 18 3e 63 a3 9b 3d
       0.15670304 -0.050580565 0.14896363 0.07599523
0001e0 b8 57 98 3d 59 0d c6 bd bb 74 e0 bd 50 fd 42 3e
       0.07438606 -0.096705146 -0.109597646 0.19041944
0001f0 5b 85 07 3d 1f 5c d4 3d 4d dc e4 bd 69 1f 47 3e
       0.033086162 0.10369133 -0.111748315 0.19445576
000200 f5 86 05 be 16 89 c0 3d b0 cc cc 3e 2f 2c 83 3e
       -0.13039763 0.09401147 0.39999914 0.25619647
000210 6f 42 76 3e 06 bf 89 3e e5 0a 8c 3d f7 2d c1 3c
       0.2404878 0.26903552 0.068380155 0.023581488
000220 11 fa 02 be c2 96 25 3e d9 96 c6 be 53 b1 a7 be
       -0.12790705 0.16170791 -0.38786963 -0.32752475
000230 90 3f 9d bd 70 29 9a ba 54 9f 99 be 32 fd 8d 3e
       -0.07678139 -0.0011761617 -0.3000437 0.27732235
000240 0b fa 5f 3e 6a e5 b4 be da 3f 65 be 03 ec 9d 3e
       0.21872728 -0.3533128 -0.22387639 0.30844125
000250 27 f7 03 3f 5e fc 9c 3d c9 59 b5 3d 28 9e 19 3d
       0.51549 0.07665323 0.08855016 0.037504345
000260 3d 46 22 be 9c 68 04 be 38 68 dc bc 51 ef 0e bd
       -0.15847106 -0.1293053 -0.026905164 -0.0348962
000270 82 93 7e 3e 7d 7e c0 3e 9b 23 67 be 6a 30 9c be
       0.24860957 0.37596503 -0.22572176 -0.30505687
000280 9a bf 91 be 09 eb b3 be 4e f5 b6 3d 5f eb f7 bd
       -0.28466493 -0.35140255 0.08933507 -0.1210544
000290 33 5b 41 3f 2c 54 b5 3e 72 40 8a be ed 6a f1 3d
       0.75529784 0.3541578 -0.27002293 0.117879726
0002a0 d8 16 17 3f f9 66 b3 3e 30 bf 30 3f c0 d1 16 3e
       0.5901923 0.350395 0.6904173 0.14728451
0002b0 da bd 02 3e bf 9e 5c be 86 c2 02 bf e6 f0 b4 be
       0.12767735 -0.21544932 -0.5107807 -0.3534004
0002c0 6e 35 b5 be fc 44 c6 3c 6f 3e 45 3e 81 6a 14 3f
       -0.35392326 0.024202816 0.19262098 0.5797501
0002d0 26 d4 0e 3e 11 c9 2e bd 90 97 87 be b0 60 6d 3e
       0.13948116 -0.04267222 -0.2648282 0.23181415
0002e0 a7 82 35 3f be d1 50 be 4c 18 07 bf 29 39 6f bd
       0.70902485 -0.2039251 -0.5277145 -0.05840412
0002f0 ed b6 9a be fa 78 e9 3e 62 b0 0d be 3d 3a f3 3e
       -0.30217686 0.4560011 -0.13836816 0.4750537
000300 a9 af 27 be 57 ef 3b be c9 7c fc bc 47 ed d8 bb
       -0.16375603 -0.1835302 -0.030821221 -0.0066200825
000310 a0 5a 94 3e 90 42 cf be d5 d4 01 bf 6b 4e b1 3e
       0.2897539 -0.4048047 -0.5071538 0.3463014
000320 a3 d1 eb 3d cc f7 cb 3d e0 0c 8f 3e df c5 3d 3e
       0.115145944 0.09959373 0.2793951 0.18532513
000330 08 a4 93 3d 8c af 90 be 33 c0 6d bd 9c 62 bb 3c
       0.07209021 -0.28258932 -0.058044624 0.022874169
000340 2f 5b 87 bd 81 7f a2 3e b2 e1 c1 3e e2 1f b5 3e
       -0.06609189 0.31737903 0.37867504 0.35375887
000350 89 b8 32 3e 50 24 b0 3c bc 71 79 be 4a 6b 09 3e
       0.17453207 0.02150169 -0.24359792 0.13419834
000360 6d 55 bb be 9c 4e eb be 3d 1c 95 be a8 a5 89 3d
       -0.36588612 -0.45958412 -0.29123107 0.067210495
000370 8b b0 36 bd 96 a2 b4 be d5 8f 6f 3e 9a 8b fa 3c
       -0.04460196 -0.35280293 0.23394711 0.030584145
000380 e1 ca 03 be bf 8b a5 bd 5a 22 3c 3e 2b 0d c9 3e
       -0.12870361 -0.08083295 0.18372479 0.3926786
000390 bf 08 ac bd 45 dc 21 be a1 f6 2e 3e d9 aa f5 bd
       -0.08400106 -0.15806682 0.17086269 -0.11995477
0003a0 c3 44 89 bd 8b 18 00 3f 0e 67 44 be fa 2e 17 be
       -0.067025684 0.5003745 -0.19179937 -0.14764014
0003b0 f7 57 50 3d 9e 59 a7 bd 11 47 98 be 3f 42 cf 3d
       0.05086514 -0.0817139 -0.2974172 0.10120057
0003c0 bb ca 86 bd a0 fa 9e be 02 7b 71 be a1 85 fe 3e
       -0.065816365 -0.31050587 -0.2358208 0.49711326
0003d0 88 49 f8 bd 7e 37 f7 be f5 35 77 be f8 69 87 be
       -0.121234 -0.48284525 -0.24141677 -0.26448035
0003e0 ab ee d4 3c 01 e6 a2 be 45 e5 4a bd 9f 57 cc 3e
       0.025992712 -0.31816104 -0.049535055 0.399106
0003f0 e9 35 c3 3e cb 01 02 bf 5c 2a b9 3e 92 48 af be
       0.38127068 -0.50783986 0.3616513 -0.34235054

lstm.bias_ih_l0 f4 [128]
000000 40 6f 15 be 06 f8 c8 be 20 57 d0 be a6 a4 20 be
       -0.1459322 -0.39251727 -0.4069147 -0.15687808
000010 c5 de b0 be 22 53 a2 be 27 50 ca bd de c4 b5 bc
       -0.3454496 -0.3170405 -0.09878569 -0.0221886
000020 41 8a 55 be 77 ec 1e be e9 ea 17 be 62 a0 8a bd
       -0.20853521 -0.15519892 -0.14835705 -0.06768872
000030 7b 6e d5 be 66 40 81 bd f8 64 14 be 14 1a 00 bf
       -0.41685852 -0.06311111 -0.14491642 -0.5003979
000040 7d fa 87 be 01 8e a1 be 11 da bf be 3b fb 6a be
       -0.26558295 -0.31553653 -0.3747106 -0.229474
000050 29 c0 84 bd 86 f4 05 be ff 44 bf be f5 f1 fd bd
       -0.06481964 -0.1308156 -0.37357327 -0.12399665
000060 63 a6 4f be ae 7d 8d be e0 2b a5 be a8 87 2e be
       -0.20278315 -0.27634948 -0.32260036 -0.17043936
000070 da 5f 65 be d8 f3 0c bf 45 02 03 bf 34 8d 83 be
       -0.22399846 -0.55059576 -0.5117534 -0.25693667
000080 02 44 e9 be 46 92 4a bf fa 98 5b bf 01 6e 30 bf
       -0.45559698 -0.79129446 -0.857803 -0.6891785
000090 d3 b1 1b bf fb f4 f2 3d 6f 04 92 bf 1c f7 09 bf
       -0.60818213 0.118631326 -1.1407603 -0.53892684
0000a0 84 dd b2 be 21 52 9d be 44 34 7c be 77 01 9e bf
       -0.34934628 -0.30726722 -0.24629313 -1.2344197
0000b0 6f c1 0c bf 2a 43 88 bf e3 67 d4 be 1e 19 ae be
       -0.54982656 -1.0645497 -0.4148551 -0.34003538
0000c0 5b 4e 4b bf 2e ce 6c bf 83 61 af be 7e 0f b2 be
       -0.79416436 -0.92502105 -0.34254083 -0.34777445
0000d0 1c a9 08 bf 7a 8b 94 be 04 5d 18 bf 32 10 5b bf
       -0.5338304 -0.29012662 -0.5951693 -0.8557159
0000e0 a3 c0 12 bf 84 c9 76 bf 09 6c 33 bd c0 69 85 bf
       -0.5732519 -0.9640124 -0.043804202 -1.0422897
0000f0 00 fb 30 bf b1 48 51 bf aa f6 43 bf 37 13 20 bf
       -0.69132996 -0.81751543 -0.76548254 -0.6252932
000100 c7 d9 c3 3d d1 8e 27 bd 78 f6 fc 3d f9 c3 46 bd
       0.09563022 -0.040907685 0.12351698 -0.048526738
000110 f6 a5 2c be 4d 12 e0 3d d6 26 2e 3e 62 fd d1 3d
       -0.16860184 0.109409906 0.17007002 0.10253407
000120 8b 56 c1 3d 31 bb 4a be a1 22 84 be 02 2b 53 be
       0.09440335 -0.1979797 -0.2580767 -0.20621875
000130 c5 77 f1 bc 1e 04 51 bc 5b 0f cd 3d 98 eb 46 be
       -0.029476056 -0.012757329 0.100126944 -0.1942581
000140 a4 ce 4b 3e 23 fb a4 bd 5d 7f 21 be 67 77 78 bd
       0.19903046 -0.08055713 -0.15771241 -0.060660746
000150 44 29 ba bd 2c ff 00 be 53 ba 07 3e 55 42 24 bd
       -0.09089902 -0.1259734 0.13254671 -0.04010232
000160 b3 f7 86 bd 8f be 04 3e 5b 5c 6b bd 44 49 c7 3d
       -0.065902136 0.12963317 -0.057461124 0.09730771
000170 71 ab 1f 3e b5 ed 9d be fb 81 3c bb d3 78 94 bd
       0.15592743 -0.3084542 -0.0028763998 -0.07249608
000180 3e 80 ae be 2e 67 b3 be d7 d2 37 be 29 76 bb be
       -0.34082216 -0.35039657 -0.17951523 -0.36613587
000190 4f c3 9a be 02 60 1e bf 8e d4 8a be 9f 4b b6 be
       -0.30227134 -0.61865246 -0.2711529 -0.3560457
0001a0 f3 e0 23 be 9b b9 f7 be 2f 57 a8 bd 27 8f c4 be
       -0.1600378 -0.48383793 -0.08219754 -0.38390467
0001b0 5d 1a e1 bd e6 8f 88 be f2 9e 04 bf 62 19 62 be
       -0.109913565 -0.26672286 -0.5180503 -0.22079995
0001c0 dc 8c ef be af f7 e2 be fa 7c 2e be f8 34 08 bf
       -0.46787155 -0.44329593 -0.17039862 -0.53205824
0001d0 a0 33 c2 be d3 2a dc bd f1 07 0e be 35 7e 63 be
       -0.37930012 -0.107503556 -0.13870217 -0.22216113
0001e0 63 ee cf be 08 80 ad bd 49 8f d2 be 0a 8d d2 be
       -0.40611562 -0.08471686 -0.41124943 -0.4112323
0001f0 1d bb a0 be ea f5 80 be f6 7c 85 be 5a b4 40 be
       -0.31392756 -0.25187618 -0.260719 -0.18818799

lstm.bias_hh_l0 f4 [128]
000000 13 f4 9b bd 61 70 5d be 0d 5d 0c bf 22 35 46 be
       -0.07614913 -0.216249 -0.54829484 -0.19356206
000010 92 3f 89 bd 57 fa 49 be 3d 72 84 be ca cf d0 bd
       -0.06701578 -0.19724403 -0.25868407 -0.101958826
000020 4d 2c 3e be 1b 84 53 be 60 6b d4 be 6c 31 98 bd
       -0.18571587 -0.20655863 -0.4148817 -0.074313015
000030 80 fd b6 be 8e 01 b9 bd 36 22 c3 bd 06 5f 98 be
       -0.3574028 -0.090335 -0.095280096 -0.29759997
000040 72 0c 31 be 11 c1 9b be 80 29 3d be 5a cd 74 be
       -0.17289904 -0.30420735 -0.18472862 -0.2390646
000050 b4 82 8e bc e1 d3 a9 be 45 59 d6 be d4 42 7a be
       -0.017396308 -0.33169463 -0.41864982 -0.24439555
000060 44 52 83 be 92 cb cc be d3 2d 15 bf 5a 95 7a be
       -0.256487 -0.39999062 -0.5827305 -0.24471036
000070 62 47 06 be 5e 0a 15 bf a8 66 f2 be 07 26 b1 be
       -0.13113168 -0.58218944 -0.47343946 -0.34599325
000080 92 4f f9 be 8c 71 6b bf 76 04 92 bf ff 56 32 bf
       -0.4869352 -0.91970134 -1.1407611 -0.69663996
000090 ee 13 f9 be 0e a7 13 3e 80 fc ad bf b1 0c 24 bf
       -0.48648018 0.14419195 -1.3592682 -0.64081866
0000a0 46 4e dd be c8 1b f2 bd 4f c9 b8 be 1f cb 94 bf
       -0.4322378 -0.11821705 -0.36091086 -1.1624488
0000b0 6f a2 64 bf ee 13 38 bf 03 4c c8 be 00 ba be be
       -0.89310354 -0.7190541 -0.39120492 -0.37251282
0000c0 d6 62 27 bf 50 1c 7e bf 01 d2 9d be c0 6b 9d be
       -0.65385187 -0.9926195 -0.30824283 -0.3074627
0000d0 7a e9 f2 be a4 48 b2 be b7 25 d1 be 08 74 13 bf
       -0.47443753 -0.34821045 -0.40849087 -0.57598925
0000e0 0d f4 09 bf fa 39 76 bf 08 51 07 be 1b 84 71 bf
       -0.53888017 -0.96182215 -0.13214505 -0.943422
0000f0 b0 3c 4d bf 3f 07 30 bf fe d4 43 bf 27 c4 21 bf
       -0.80170727 -0.68761057 -0.76496875 -0.6318993
000100 99 e6 58 bd 48 26 9d bd 0a 90 82 bd ee 36 e6 bd
       -0.05295429 -0.07673317 -0.063751295 -0.11240946
000110 1c 87 43 be 4c 42 f7 3d 22 5f 58 bd 0b 40 ce bc
       -0.19094509 0.12073192 -0.0528251 -0.025177022
000120 9a e3 1c be 1c 1d 5a be 24 7c 05 3d d6 b1 4d 3c
       -0.15321198 -0.21300167 0.032589093 0.012554606
000130 6f ac a0 3c 71 0e 31 3e 2c b8 d2 3c 68 46 85 be
       0.019613473 0.17290665 0.025722586 -0.26030278
000140 58 52 73 bd d1 e5 ec bd a5 e0 07 be d1 44 f9 bd
       -0.0594047 -0.115672715 -0.13269289 -0.12171329
000150 98 c2 80 3c 72 b9 c9 bd 37 03 09 3e fb 89 3b be
       0.01571779 -0.09849824 0.13380133 -0.18314354
000160 bb f5 eb bd d5 41 91 bd 87 5e 1f 3d a5 0e a3 bc
       -0.11521479 -0.070926346 0.038908508 -0.019904444
000170 79 ce 36 be 41 02 68 be 95 36 b0 3d b6 99 19 be
       -0.178522 -0.2265711 0.08604161 -0.15000042
000180 d6 ca 2c be 6a 71 ad be 95 a0 1a be f2 c4 4b be
       -0.16874251 -0.3387559 -0.1510032 -0.19899347
000190 89 17 1f be 44 df 17 bf 72 64 01 bf 4f dd ea be
       -0.15536322 -0.5932505 -0.5054389 -0.4587197
0001a0 63 85 45 be 48 72 d8 be 24 59 bc be 55 c5 06 bf
       -0.19289164 -0.4227469 -0.3678676 -0.52644855
0001b0 7e f7 a7 be 5d 30 22 be d7 2d c2 be d0 bd e4 be
       -0.3280601 -0.15838762 -0.37925598 -0.44676065
0001c0 17 61 56 be f5 f0 67 be 1e e4 17 be b3 fc ba be
       -0.20935474 -0.22650512 -0.14833114 -0.3652092
0001d0 bc eb c1 be cf b6 d3 be 92 62 ad bd c1 0c 72 be
       -0.37875164 -0.4135041 -0.084660664 -0.23637678
0001e0 99 a8 5a be 07 53 bc be c3 c0 fb be 79 0a 7b be
       -0.21353377 -0.36782095 -0.49170503 -0.24515714
0001f0 2f 77 b1 be ed c2 9b be 7f 60 b4 be a4 a0 6b be
       -0.34661242 -0.30422154 -0.3522987 -0.23010498

lstm.weight_ih_l1 f4 [128, 32]
000000 1a 09 f6 3d 97 cc e3 bd 24 4e 25 3e d8 68 95 bc
       0.12013455 -0.11123007 0.1614309 -0.01823847
000010 78 e1 ce 3c 58 7e cc bc 91 69 63 3e 2c f1 8a 3e
       0.025253996 -0.02496259 0.22208239 0.27137125
000020 4d 76 46 be 15 5d 95 be 89 1a b6 be dc 9c b0 be
       -0.19381066 -0.29172578 -0.3556712 -0.34494674
000030 bc 1d ce bd 00 ae 84 3e 8c 65 ad 3e ba bb ae bd
       -0.10064265 0.25914 0.33866537 -0.085319
000040 d1 c3 7b 3e f1 fc 82 bd 61 a1 95 3e b8 29 db bc
       0.24586417 -0.06395901 0.29224685 -0.026753291
000050 4d 10 53 be ad cb c6 3d 91 31 ce 3d 67 74 31 be
       -0.20611687 0.09706817 0.10068048 -0.1732956
000060 13 d7 f3 bc b4 9b 73 3d a7 3b 22 3e 79 89 db 3d
       -0.029765641 0.059474662 0.15843068 0.1071958
000070 04 b1 1c be 91 d5 76 3d 6a f1 b4 be 28 ad 84 3f
       -0.15301901 0.060262267 -0.35340434 1.0365343
000080 78 11 9b 3c 26 3a fe bd c1 f0 3b 3e 6e 7c f6 3c
       0.018929228 -0.12413435 0.18353559 0.03008863
000090 a6 9b 8c 3e 17 b9 d7 bd 05 92 51 bc 94 52 2b bd
       0.274625 -0.1053335 -0.012791161 -0.0418268
0000a0 d0 a6 1a 3d 76 32 05 3e 98 14 1a be db ee 48 bd
       0.03775674 0.1300753 -0.15046918 -0.049055915
0000b0 ac d4 38 be e7 be 71 3d 28 70 1e 3e 05 73 a9 be
       -0.18049878 0.05901995 0.15472472 -0.33095565
0000c0 7c 5b 09 3d c2 d6 d6 bd bc 97 87 3d df 45 d2 3d
       0.033534512 -0.104901806 0.06620738 0.10267233
0000d0 12 01 2a 3e 87 1d c3 bc 39 ae b7 3d 72 01 22 bd
       0.16601971 -0.02381779 0.08968777 -0.03955216
0000e0 17 63 07 3e 20 6b b3 bc 27 39 31 3e 8a 39 29 be
       0.13221394 -0.021901667 0.17306958 -0.16525856
0000f0 11 e1 21 be bf 14 f1 3e 67 24 b0 be 2b 13 ec 3d
       -0.15808512 0.4708614 -0.34402773 0.115270935
000100 eb 2e 28 3e d1 2f 54 3e 5d 45 dd 3e 42 f3 4d 3e
       0.16424148 0.20721366 0.43216982 0.20112327
000110 ff 46 4a be 5e 70 ed bd d0 49 0b 3d 19 95 11 be
       -0.19753645 -0.11593698 0.03400594 -0.14217032
000120 78 20 c4 bd b4 9d 0a be 6e 22 f1 be 38 24 93 be
       -0.095765054 -0.13536721 -0.4709658 -0.2873857
000130 7b 94 9d bd ee c6 e8 bd 47 22 b5 3d 4e b3 e0 3d
       -0.07694336 -0.11366068 0.088444285 0.109717
000140 40 50 28 3e f9 67 a5 be 27 54 aa 3e 81 c4 cf bd
       0.16436863 -0.32305887 0.33267328 -0.10144902
000150 82 52 44 3d f1 12 02 be d4 9c 9b 3e 99 2c 97 be
       0.047930248 -0.12702538 0.30393088 -0.29526213
000160 81 b9 7a 3d 23 dd 6e 3e dd b8 8b 3d 2a b3 8b 3e
       0.061212067 0.23326544 0.06822369 0.2728513
000170 0e aa a0 be 02 b4 cd bd 1a 96 5c 3c 8e dc 9a be
       -0.3137974 -0.100440994 0.013463521 -0.30246395
000180 9b 04 2e 3d 9d 4f 1d be e2 01 1e 3e c0 50 b6 3c
       0.04248486 -0.15362401 0.15430406 0.022255301
000190 63 9b c9 3d 92 48 9c be 59 26 8b be 63 c1 a3 be
       0.09844091 -0.30524117 -0.27177694 -0.3198348
0001a0 dd 90 70 3d c9 92 c1 3e 3c 82 28 be a3 96 27 be
       0.058731902 0.378073 -0.1645593 -0.16366057
0001b0 03 ce 16 be 5d 73 9d bd c4 3d 81 bc fe 18 d6 3d
       -0.14727025 -0.076880194 -0.015776522 0.10453986
0001c0 b0 a1 ba 3d 47 21 56 be 0a 15 26 3d 15 64 70 3e
       0.09112871 -0.20911132 0.04054741 0.23475678
0001d0 d6 26 14 3e 8d 18 4e be e3 58 1a be 05 f4 07 be
       0.1446794 -0.20126553 -0.1507297 -0.1327668
0001e0 d8 13 e8 be d0 7c 2e 3e 44 6b a0 3e 00 46 e5 bd
       -0.4532764 0.170398 0.31331837 -0.11194992
0001f0 fa bf 66 bc 53 ef f0 bd ee f0 16 3e 97 7d bd be
       -0.014083857 -0.117643975 0.14740345 -0.3700988
000200 07 9c 77 3e 08 fa 58 3e ee d0 98 3e a4 d1 dc 3d
       0.24180613 0.2118913 0.298469 0.10782173
000210 02 6b 84 be 7f 43 40 3d 87 54 bd 3e 02 06 12 be
       -0.2586289 0.04693937 0.36978552 -0.14260104
000220 a5 3e a3 bd 54 f9 a2 bc 8d 96 06 be fc d4 ca be
       -0.07970933 -0.01989428 -0.13143368 -0.3961562
000230 72 82 68 bb 6a 7b cf 3d 69 c0 9d 3e 22 79 96 3e
       -0.0035478142 0.10130961 0.3081086 0.29389292
000240 cb 18 98 3e bb 9b 0d be 5a 78 d5 bc 80 36 9b be
       0.29706416 -0.13828938 -0.026058365 -0.30315018
000250 e6 b3 83 be 69 e1 8e 3e c6 8f 84 3e 93 5f d4 be
       -0.2572319 0.2790635 0.2589094 -0.41479167
000260 fb 4f bb bc bd 69 e2 3e 2e a7 64 3e 3b 1a 1f 3e
       -0.022865286 0.44221297 0.22329399 0.1553735
000270 12 58 bf 3d 68 12 bc 3e 49 56 8b be bc d2 f2 be
       0.0934297 0.36732793 -0.27214268 -0.47426403
000280 55 66 35 be 00 93 57 bc f4 16 88 be e6 09 de bd
       -0.17714818 -0.013157606 -0.26580012 -0.10841732
000290 56 46 12 be dd 9f 6d be 99 ac e4 bd 80 81 cf be
       -0.14284644 -0.23205514 -0.11165733 -0.40528488
0002a0 fd 96 4b 3e 6f fa f0 3e 9c 4c 06 be 33 13 a4 3d
       0.19881816 0.47066066 -0.13115162 0.080114745
0002b0 3b df 06 3e 1c 6d 70 3e 51 89 89 3d 2e 79 70 be
       0.13171093 0.23479122 0.06715644 -0.23483726
0002c0 c6 b7 46 be b2 52 9c bd 41 ba 63 bd c4 7c e8 3c
       -0.19406042 -0.076329604 -0.055597547 0.028379805
0002d0 21 81 c1 bd 52 b5 2c 3e 96 29 00 be eb a9 3b be
       -0.094484575 0.16866043 -0.12515864 -0.18326537
0002e0 02 bd 35 be b9 05 c8 bd e5 30 b6 3e 0d b6 31 3d
       -0.17747882 -0.097667165 0.3558418 0.043386508
0002f0 b1 04 65 be ef 52 f7 bb 64 8d 9e bc 40 bb 92 be
       -0.22365071 -0.0075477283 -0.01935453 -0.28658485
000300 9f 45 29 3d 2b 5e c0 be 0b ce a7 be c3 02 70 be
       0.04132616 -0.37571844 -0.32774386 -0.23438554
000310 c8 d9 11 3e 02 29 d5 bd 83 83 b7 be c8 10 a3 3c
       0.14243233 -0.10408212 -0.35842523 0.019905463
000320 38 8a 10 be 59 6e 5a 3d 1e 3a 8a 3d 37 9c 54 3e
       -0.14115226 0.053327892 0.06749366 0.20762716
000330 7f 6f 65 3e 73 72 c9 3d f8 a4 84 be c9 1d 1a be
       0.22405814 0.098362826 -0.2590711 -0.15050425
000340 91 3c e4 be 15 4a 0f be e2 fa ba 3c d8 e3 b7 3d
       -0.44577459 -0.13993104 0.022824708 0.089790046
000350 bf fc 9f 3e 59 0d 3e be 39 fe 55 3c 8b 01 28 3e
       0.31247517 -0.18559779 0.0130611 0.16406839
000360 00 22 84 3e 0e bd b2 be d5 f3 7d 3d 6b 4f f1 bd
       0.2580719 -0.34909862 0.062000114 -0.11782726
000370 b8 8f 9c be bb 10 71 be bd c4 ca 3d e1 7d 30 bf
       -0.305784 -0.23541538 0.09900806 -0.68942076
000380 f7 6b be bd be 86 cf bd cb a3 0d bc 77 5e 30 be
       -0.092979364 -0.10133122 -0.008645008 -0.17223535
000390 3e 2f b1 3e ee 63 48 bd 44 a4 7e 3e a0 ce 21 3e
       0.34606355 -0.048923425 0.2486735 0.15801477
0003a0 25 55 67 3e a1 40 15 3e e9 30 0d 3e b4 2b 50 be
       0.22591074 0.14575435 0.13788189 -0.20329171
0003b0 bc a3 5e bd ad 5f 5a 3e f5 1d f4 3d b6 d6 a5 be
       -0.054355368 0.2132556 0.11919776 -0.32390374
0003c0 ca 0a 63 3d 68 9a 66 3d 40 ff 0c 3e b9 57 97 bd
       0.05543021 0.056299597 0.13769245 -0.07389779
0003d0 5b 5b 86 3e c9 84 db bd 3e ad 95 3d 27 9f 85 3e
       0.26241574 -0.10718686 0.07308434 0.26097986
0003e0 25 1d e2 bd 29 ad 4c be 55 5d 93 be ef 45 34 be
       -0.11040715 -0.1998793 -0.28782144 -0.17604803
0003f0 34 b6 0d 3e cc f0 e3 3c 2e 61 44 3d 37 b4 61 3f
       0.13839036 0.027824782 0.04794424 0.8816561

lstm.weight_hh_l1 f4 [128, 32]
000000 fb 2c 9f 3c ec 0b 7f 3e c6 82 61 3d 68 92 ac be
       0.019430628 0.24906892 0.055056356 -0.3370545
000010 34 ac 02 3e 71 6f 8f bd 7c c3 b5 be 04 44 ce be
       0.12761003 -0.07003678 -0.35500705 -0.40286267
000020 1c b2 81 3c 62 b1 fd 3c 81 be 14 be d8 2a cd bc
       0.015832 0.030968372 -0.14525796 -0.025044844
000030 1d a6 6e be 06 7f b8 3d 49 d3 d0 be b4 9a 64 be
       -0.23305555 0.09008603 -0.40786198 -0.2232464
000040 b4 5d 64 3e 49 d7 07 bd 8c 75 22 bd e5 9d 39 3d
       0.2230137 -0.033164296 -0.039662883 0.045316596
000050 42 9f 77 be b5 7f 74 3e 93 c7 cb be af a1 12 be
       -0.24181846 0.23876841 -0.398007 -0.1431949
000060 f0 19 ff 3d 91 76 8e be c6 b8 33 3d 26 7f 26 3e
       0.12456119 -0.27824834 0.043877386 0.16259441
000070 dc 85 5b be 32 3c 36 be 82 33 62 3e b0 a7 aa 3d
       -0.21437782 -0.177964 0.22089961 0.08332765
000080 71 b8 1d 3e d7 10 fb 3e 00 1e 8c be 10 5d 47 bd
       0.1540239 0.49036285 -0.27366638 -0.048672736
000090 b1 4c 06 3d a2 0d 02 3e f1 03 2e be 7a 4f 6f be
       0.032787982 0.12700513 -0.16993691 -0.23370162
0000a0 5b ce ab bd c7 6b 83 bd cf 2b 58 be 04 f0 19 3e
       -0.083889686 -0.06417041 -0.21110462 0.15032965
0000b0 4b 8d a8 bd 57 d9 31 be 3b 67 9a bd 36 be be be
       -0.082300745 -0.17368065 -0.07539221 -0.37254494
0000c0 3f 12 a5 3d 77 4c 87 be 55 7f 30 3d 03 0d 3a be
       0.08060121 -0.26425526 0.043090183 -0.18169026
0000d0 f1 d6 25 be 73 0d 87 3c 72 45 56 be cc 48 49 3c
       -0.16195275 0.016485905 -0.20924929 0.0122854225
0000e0 b3 d1 e8 3c fe 14 c9 3d 7a f2 81 3e 7a 3e 3d 3d
       0.028420305 0.09818457 0.25380307 0.04620216
0000f0 7b b4 ba bd 76 d4 3d 3e 81 c4 e6 bd 33 38 b2 3e
       -0.09116455 0.18538079 -0.11267949 0.34808502
000100 ae f5 6a bc 69 35 3c 3e 37 30 0f 3e de da 9a 3e
       -0.014340801 0.1837975 0.13983236 0.30245107
000110 ce 22 ff 3e df 9d 8f be 0e 85 2a 3e 5d e1 c6 bd
       0.4983124 -0.28050134 0.16652319 -0.097109534
000120 c1 4f 15 be 3e 43 86 3e f9 4c 9b 3e 05 89 d6 be
       -0.14581205 0.26223177 0.30332163 -0.41901413
000130 6e 58 ea be 7b 5a 69 be 00 16 63 3e 83 b8 33 3e
       -0.45770591 -0.22788422 0.22176361 0.17550854
000140 13 27 27 bd c5 02 29 3e c9 cb 85 3e 5f 0e b5 3e
       -0.04080875 0.16504963 0.26132038 0.35362527
000150 97 a3 ac 3d 94 62 8d be 07 f5 da 3d 97 17 2e 3e
       0.0842964 -0.27614272 0.106912665 0.17001186
000160 b9 64 85 be 05 3a 1b bd 8d 8e 5b be 0d bb f0 3d
       -0.26053408 -0.03789713 -0.21441098 0.11754427
000170 4c 0f 4e be cf e9 7c 3e 8a 17 71 3e 6f bc d6 bd
       -0.20123023 0.24698566 0.23544136 -0.104851596
000180 fc c6 3a 3b 03 d4 48 bb 0a d1 27 3e 59 c9 9c 3c
       0.0028499952 -0.0030643947 0.16388336 0.019138979
000190 00 f9 9a 3e b3 8d ad be ed c4 ed 3e 36 a1 3d 3e
       0.30268097 -0.3389717 0.46439305 0.18518528
0001a0 3d 21 44 be bc ae f0 3d 3c 50 06 3e a2 3c d0 be
       -0.19153304 0.11752078 0.13116544 -0.4067126
0001b0 41 48 c3 3d 3f f4 e6 be e5 36 26 3e 7f c1 f5 3d
       0.09535266 -0.4510822 0.16231878 0.11999797
0001c0 8d 0a 2a be 94 62 01 3c f6 af b4 3e ab 3b 30 3e
       -0.16605587 0.007897038 0.35290498 0.17210262
0001d0 02 d7 a9 3e ac fe 0e be 9e 9f 49 3e 41 d1 02 bc
       0.3317185 -0.13964337 0.19689795 -0.00798446
0001e0 b6 39 b7 bd 96 a2 fe 3e 84 53 68 bd 84 3e 22 bf
       -0.08946554 0.49733418 -0.05672027 -0.6337664
0001f0 d1 0f ae be 8e 06 94 3e ab b4 68 3e cc c5 bd bd
       -0.33996442 0.2891125 0.2272517 -0.092662424
000200 56 20 3e 3c 48 30 ec 3d 97 70 63 3d 63 a0 97 be
       0.011604389 0.115326464 0.055527296 -0.29614553
000210 e0 db d3 3e c8 94 04 3d c2 fe fc bd 53 ff de be
       0.4137869 0.03236845 -0.12353279 -0.43554172
000220 66 76 0b be b5 ee da 3d 71 ff 11 be 3b c5 28 be
       -0.13619384 0.10690061 -0.142576 -0.16481487
000230 95 bd 8e be 42 f4 22 bc 0a 29 c8 be 08 ff 11 3e
       -0.27879015 -0.009945931 -0.3909381 0.14257443
000240 ee 8d b0 bc 11 ea 4a be 90 7a 1b 3e 28 1f 58 3e
       -0.021552052 -0.19815852 0.15183473 0.21105635
000250 84 88 8a 3d db 41 9f bd 8d c6 11 bd a4 42 68 3e
       0.067643195 -0.07776233 -0.035589743 0.22681671
000260 11 94 00 bd 2d d4 16 be 3d 01 96 3c 6d 85 a6 be
       -0.031391207 -0.14729376 0.018311137 -0.3252367
000270 5b f1 a5 3c 6b c2 71 bd e0 7a 48 3e 0d df 94 3e
       0.020256689 -0.059023302 0.19578123 0.29076424
000280 ac 50 3a 3e 25 76 b9 3e a4 1c 04 3e 60 bf fe 3e
       0.18194836 0.3622295 0.1290155 0.49755383
000290 a4 11 e5 3e 24 90 c2 bd 46 b5 2e 3e fe e8 66 be
       0.4474002 -0.09500149 0.17061338 -0.22549817
0002a0 34 5e 42 bd cb b4 80 3e e4 8b 44 3e 1c 7a 3a be
       -0.04745312 0.25137934 0.19193989 -0.18210644
0002b0 fb f7 90 be ac d9 07 3c d2 2e 18 3e dd c7 8c 3d
       -0.28314194 0.008291643 0.1486161 0.068740584
0002c0 ec 94 7c 3e 6d 21 a0 3e e5 8c bb 3d 95 bc ad 3e
       0.24666184 0.31275502 0.09157733 0.3393294
0002d0 a0 bf 97 3e f8 61 41 be 41 bc 85 3d 91 67 71 3d
       0.29638386 -0.18885028 0.06530047 0.05893666
0002e0 1a 9a 95 3d 96 f2 a7 3e a0 10 2c be 83 a1 c2 be
       0.07304783 0.32802266 -0.16803217 -0.3801385
0002f0 99 52 49 be 3a 3b 78 3d da 2f 50 3e bb 0a 17 be
       -0.19660415 0.060603358 0.20330754 -0.14750187
000300 79 49 48 3e 1b 54 05 be 0b 6d c0 bd 09 d5 7c 3e
       0.19559278 -0.13020365 -0.09395798 0.24690641
000310 ae 84 2f bd a2 63 14 be d2 5e ac 3e a2 75 72 bd
       -0.042851143 -0.14491132 0.33666092 -0.059194215
000320 45 03 9a be 38 e7 2c 3e 7d 16 c2 3d 0a 4e 04 be
       -0.3008062 0.16885078 0.094769455 -0.12920395
000330 68 0a 83 be 59 41 53 be b2 31 e2 3d 4e 5c 24 be
       -0.25593877 -0.20630397 0.11044635 -0.16050836
000340 d0 4f a9 be 53 fc b0 bb de fd f7 3d 71 7f 58 3e
       -0.33068705 -0.005401173 0.12108968 0.21142365
000350 57 c8 f2 3d 3e 73 b8 bd 67 07 90 3e b7 54 bd 3e
       0.11854618 -0.09006356 0.28130648 0.36978695
000360 59 5a 75 bc 6b 21 eb bd 1d ed f7 bc da 51 b7 be
       -0.014975154 -0.11480983 -0.030264432 -0.35804635
000370 af d4 5d be 7d 98 2c 3d fe 70 f8 3d c3 b2 ba be
       -0.21663164 0.04213761 0.121309265 -0.3646451
000380 c9 43 8e 3e 34 5f 51 3e 28 07 90 be 07 f3 73 be
       0.2778609 0.20446473 -0.2813046 -0.23823176
000390 f6 c3 c5 be ca 64 e0 3e a2 b2 df be 1f e6 15 be
       -0.3862607 0.43826896 -0.43690974 -0.14638565
0003a0 38 06 c5 bc c4 d3 85 be 3a 20 9b be 8d fe 23 3e
       -0.024050817 -0.26138127 -0.30298024 0.16015072
0003b0 6d 13 26 3e 3f 07 90 bd 46 52 8e be 96 ab c8 be
       0.16218348 -0.07032632 -0.27797145 -0.3919341
0003c0 28 70 f0 3d f3 09 ce be 6c 40 d9 bc d4 e4 a4 bd
       0.11740142 -0.40241966 -0.026519977 -0.08051458
0003d0 76 47 7e be cf 60 9d 3e af 50 28 be 26 e7 a8 be
       -0.24831948 0.30737922 -0.16437028 -0.32988852
0003e0 6f a3 c6 3b 45 45 1f bc 19 9b 86 3e 03 da 7d 3d
       0.0060619633 -0.009721105 0.26290205 0.06197549
0003f0 9f 7e 62 3e 59 c1 4e be db 0d 16 be 25 73 9f 3e
       0.22118615 -0.20190944 -0.14653723 0.31142536

lstm.bias_ih_l1 f4 [128]
000000 10 27 1c be 38 f0 3f bf 91 69 98 be 5a 22 cb be
       -0.15249276 -0.7497592 -0.2976804 -0.39674646
000010 82 18 9e be 40 86 79 be ae 37 74 be f4 7e 9f be
       -0.30878073 -0.24367619 -0.23849365 -0.31151545
000020 d9 75 7f bd 9b 4a ae be b8 1a 6b be d5 6b b3 be
       -0.062368248 -0.34041294 -0.22959411 -0.35043207
000030 13 c9 99 be b1 b3 12 be 81 aa ad be 66 86 cc be
       -0.3003622 -0.1432636 -0.33919147 -0.39946288
000040 19 33 12 be c3 cb ea be 31 f5 09 be 30 8b 86 be
       -0.14277305 -0.45858583 -0.1347244 -0.26278067
000050 50 2f 67 be 97 c5 ac be 37 eb 4a be 87 63 03 be
       -0.22576642 -0.337445 -0.1981629 -0.12830935
000060 4d 88 2f be 4d d5 85 be b0 c8 47 be 5b 09 f4 be
       -0.17141838 -0.26139298 -0.1951015 -0.47663388
000070 68 67 aa be 56 17 8e be 0e 70 79 be 69 a4 04 3d
       -0.33282018 -0.2775218 -0.24359152 0.032383356
000080 b4 d4 f7 bd e3 93 2e bf 2e e8 38 bf 57 85 05 bf
       -0.12101117 -0.6819441 -0.7222928 -0.52156585
000090 5b 02 1d bf a9 84 f1 be 33 90 3e bf 98 04 95 be
       -0.6133172 -0.47171524 -0.7443878 -0.29105067
0000a0 03 6f 9c be 6d 97 9b be 4c ec 10 bf 6a 64 e9 be
       -0.30553445 -0.30388966 -0.5661056 -0.45584422
0000b0 d3 5c f5 be e0 a6 7a be d8 5b 26 bf e6 08 29 bf
       -0.47922382 -0.2447772 -0.6498389 -0.660292
0000c0 e0 93 61 be 6a 3a 2b bf ff 1e 9f bd ff e5 35 bf
       -0.22029066 -0.6688601 -0.07769584 -0.7105407
0000d0 6a 74 28 bf 3e c8 08 bf 3b 72 2e bf b7 5c 03 bf
       -0.65802634 -0.53430545 -0.6814305 -0.51313347
0000e0 f4 cb 92 be c9 59 90 be 7f b0 f2 be d3 1c 09 bf
       -0.2867123 -0.281935 -0.4740028 -0.5355961
0000f0 a1 74 0f bf db ed dd be 25 b8 a0 bd cb 37 90 be
       -0.56037337 -0.43345532 -0.07847623 -0.28167567
000100 9a 5f 3c be c3 ca 99 3c db 91 b4 bc d9 db 36 3d
       -0.18395844 0.018773442 -0.022042206 0.044643257
000110 74 69 fd 3c 4d fe e8 bc ff c5 86 bd 34 97 64 bd
       0.030934073 -0.028441573 -0.065807335 -0.05580826
000120 2e ba ec bd 1f 00 8b 3d 43 3a 44 3e 3c ac ce bd
       -0.115589485 0.067871325 0.1916285 -0.10091445
000130 c7 d1 05 be 3a a3 3e bd 16 39 79 3d 08 96 ef bc
       -0.13068305 -0.046542384 0.060845457 -0.029246345
000140 41 1d bb bd 6b 35 82 3d fc 84 1f 3d ba 8b 9f 3a
       -0.09136439 0.06357845 0.038945183 0.0012172379
000150 36 c5 9b 3d 93 2b 13 be 9b ff 61 bc 20 c5 cc 3d
       0.076059744 -0.14372091 -0.013793851 0.09998536
000160 d0 00 a5 bd 8a 95 60 3d 94 19 a7 bd fb 77 1e bd
       -0.080567956 0.05483011 -0.081591755 -0.03868864
000170 e0 7b 65 be f2 bf 78 3e 75 b0 6d 3e 39 f2 61 bd
       -0.22410536 0.24291971 0.23211844 -0.055162642
000180 dc f4 58 be 6b 19 d2 be 71 1d f1 be 94 45 cc be
       -0.21187156 -0.41035017 -0.47092775 -0.39896834
000190 ef e0 cf be a0 2e fc be e0 bd be bd fe 92 75 be
       -0.40601298 -0.49254322 -0.093135595 -0.23981854
0001a0 d0 f2 33 be 30 43 dd be 52 f2 a8 be ca a3 92 be
       -0.17573094 -0.43215322 -0.32997376 -0.28640586
0001b0 ff 96 f0 be 3a 4b 66 3d 4d 93 9c be 94 51 d4 be
       -0.469902 0.056224085 -0.30581132 -0.4146849
0001c0 fa cd 8f be e5 ec 82 be ca 6b 80 3c 1d 9d ba be
       -0.28086835 -0.2557136 0.015676398 -0.36447993
0001d0 42 66 e6 be 8f 28 f3 bd e5 7b 80 be 5a 88 86 be
       -0.44999892 -0.1187297 -0.25094524 -0.26275903
0001e0 59 62 c9 be ba 56 83 be c5 28 4b be 9a f2 50 be
       -0.39332846 -0.25652105 -0.19839771 -0.20405045
0001f0 3e af 9b be 2c ff 04 be b8 66 4d be 87 11 17 bf
       -0.30407137 -0.12987965 -0.20058715 -0.5901112

lstm.bias_hh_l1 f4 [128]
000000 d0 00 2e bc 48 4c f7 be 23 b8 9a be 9c ae 8b be
       -0.010620311 -0.48300385 -0.3021861 -0.27281654
000010 5f 8b 33 be 6d 16 d9 bd fe 50 04 be 60 3c 86 be
       -0.17533635 -0.105999805 -0.12921521 -0.26217937
000020 56 40 79 be 42 1a 4d be e8 56 78 be 07 47 c2 be
       -0.24340948 -0.20029548 -0.24251902 -0.37944815
000030 91 2c 6f be 90 c0 86 be 89 45 87 be f2 ef c3 bd
       -0.23356844 -0.2631879 -0.2642024 -0.0956725
000040 e3 4b 65 3c 01 40 aa be c2 5d 87 be 85 31 fe be
       0.013995144 -0.33251956 -0.2643872 -0.49647155
000050 5b c8 d5 be 6a 7f 42 be c7 30 2d be 99 bd c6 bd
       -0.41754422 -0.18993917 -0.16913138 -0.09704132
000060 f5 b5 af bd ea c6 b9 be 61 18 8c be 7b 8c 4e be
       -0.085796274 -0.36284572 -0.2736235 -0.20170777
000070 b3 be 17 be 74 9b a3 be 86 3e 30 bd 34 b5 da bb
       -0.1481884 -0.3195454 -0.043028377 -0.006674433
000080 40 9c 1b be 6b b3 25 bf 6e 9b 1d bf e8 f8 02 bf
       -0.15196323 -0.64726895 -0.6156529 -0.5116105
000090 25 7b 01 bf 8d d3 00 bf 63 f2 48 bf e1 be 85 bd
       -0.5057853 -0.503228 -0.7849485 -0.06530548
0000a0 99 1b 27 be 77 aa 6f be a2 22 04 bf 50 1f e4 be
       -0.16319121 -0.23404871 -0.51615345 -0.4455514
0000b0 0b 08 08 bf a2 81 2a be de ba 37 bf 5b 58 d7 be
       -0.5313727 -0.16651013 -0.7176951 -0.42059597
0000c0 c0 23 d6 be d0 81 26 bf 2f cd a9 be 71 37 e2 be
       -0.4182415 -0.6504183 -0.33164355 -0.44182923
0000d0 0c 7b 32 bf 33 86 c3 be b1 71 cc be d9 8c 61 be
       -0.69719005 -0.38188323 -0.3993049 -0.22026385
0000e0 c8 7e 67 be 6d ee 0a bf c5 90 22 bf f9 15 0d bf
       -0.22606957 -0.5427006 -0.6350215 -0.5511165
0000f0 b3 e8 93 be 37 19 a5 be 0b a5 4b be 2f a0 66 be
       -0.28888473 -0.322458 -0.19887178 -0.22522043
000100 5f 9c 5a 3d e9 c4 d2 3c 2a 8e 0c 3e f2 6a a6 3c
       0.053371783 0.02572866 0.13726106 0.020314667
000110 fa 33 16 3d 80 78 88 bd fd 61 85 3d de 71 d1 bd
       0.036670662 -0.066636086 0.065128304 -0.102267966
000120 c6 a2 5a bd 3f 41 a1 3d e5 d6 c0 bd 23 e5 2d 3d
       -0.05337789 0.07873773 -0.09415988 0.04245485
000130 ef b9 67 bd e0 74 e5 bd 93 7d d4 3d 7d 28 05 3e
       -0.056573804 -0.11203933 0.10375514 0.13003726
000140 c1 6f 8b bd 82 82 80 3d 8c 93 ec 3d 1b b1 b3 3d
       -0.06808425 0.062748924 0.1155158 0.087740146
000150 47 cc 73 3d bc e4 ef 3a 14 2c 1a 3e 1f 51 08 3d
       0.059520986 0.0018302421 0.15055877 0.033280488
000160 78 a9 b8 bd 69 8f 97 3d bc 23 a4 bd b0 fa 00 bd
       -0.090166986 0.074004 -0.08014628 -0.031489074
000170 98 d1 5d 3d da 03 6c bd 9a 49 b8 bd 44 de 02 be
       0.054154962 -0.05762086 -0.089984134 -0.127801
000180 bc 6e 35 be 5c 30 fc be d0 29 6a be 90 b4 99 be
       -0.17718023 -0.49255645 -0.22867513 -0.3002057
000190 a5 80 f8 be 47 5d e9 be 63 ab 39 be e4 a0 9b be
       -0.48535648 -0.45578977 -0.18131785 -0.30396187
0001a0 26 a0 52 bd da 82 b4 be f7 6f 49 be 92 ad 9c be
       -0.05142226 -0.35256082 -0.19671617 -0.30601174
0001b0 39 99 02 bf 8d 00 75 be 2d 4a 7f be a6 27 85 be
       -0.5101505 -0.23925991 -0.2493064 -0.26006812
0001c0 06 0f f1 bd cb 3c d1 bd ad 66 bd bb f4 42 87 be
       -0.117704436 -0.102166735 -0.005780062 -0.2641827
0001d0 c3 98 68 be 51 2b 71 be a5 ff 7c be 46 e3 02 bf
       -0.22714524 -0.2355168 -0.24706896 -0.5112804
0001e0 58 9a 76 be 55 e2 ea be 04 59 88 be ed 99 03 bf
       -0.24082315 -0.45875803 -0.26630414 -0.5140675
0001f0 65 55 a3 bd 92 bc 4d bd 04 3b 3b be 43 b2 09 bf
       -0.07975272 -0.050228663 -0.18284231 -0.5378763

linear_2.weight f4 [1, 64]
000000 63 37 71 3e 24 61 d5 3e 5e db bd 3e 02 f4 aa 3e
       0.23556285 0.41675675 0.37081426 0.33389288
000010 a0 2c 76 be 45 99 ca 3d c3 bd 55 3e 49 29 a6 be
       -0.2404046 0.09892515 0.2087317 -0.32453373
000020 07 8a 38 be 9c d7 92 be ad 2a e3 be 6f 09 e0 be
       -0.18021403 -0.28680122 -0.44368497 -0.43757197
000030 d0 7d 8e be ab 01 85 3e 0e b4 8e 3e 08 90 5c 3d
       -0.27830362 0.25977835 0.27871746 0.053848296
000040 30 af bd 3e b8 5b 98 be 2b ca 52 be d9 37 9c be
       0.3704772 -0.29757476 -0.20584933 -0.30511358
000050 46 58 82 be 35 cc 0c 3e cb f4 03 3e fe 25 63 be
       -0.25457972 0.13749774 0.1288635 -0.22182462
000060 e1 a0 29 be 4a 7a 7d 3e 74 fd 94 3e 4e 8a 76 3e
       -0.16565277 0.24753681 0.2909962 0.24076197
000070 c8 ad 73 3e 14 1b 3e 3e 9f c5 82 be 76 94 8d be
       0.23796761 0.18565017 -0.25541398 -0.2765233
000080 b2 f8 43 be a7 cc 85 3e a7 97 86 3e ff 7c 82 3e
       -0.19137838 0.261327 0.26287577 0.2548599
000090 cb 00 92 3e a3 a6 80 be b1 4b 80 3e de 07 75 be
       0.2851623 -0.25127134 0.25057748 -0.23928782
0000a0 88 b7 1c be fc 69 8d 3e e2 80 6f 3e 66 2b 8c be
       -0.15304387 0.27619922 0.23389009 -0.2737686
0000b0 4e f4 6e be 39 df 27 be 2d cc 47 3e d3 2d 92 3e
       -0.23335382 -0.16393746 0.1951148 0.28550586
0000c0 ba 1b 43 be 4d 53 a5 3e ae 31 88 3e 0d 8c 60 3e
       -0.19053546 0.32290116 0.26600403 0.21928425
0000d0 ec 6c 37 3e ec 2c 9b be 82 c1 69 3e 15 11 42 3e
       0.17912644 -0.3030771 0.22827724 0.18951829
0000e0 29 04 69 be 8d fc a1 3e 9a 51 87 be 11 85 7f be
       -0.22755493 0.31637993 -0.26429445 -0.24953105
0000f0 48 d5 8a be a3 03 67 3e c2 b7 87 3e f1 b5 7d be
       -0.27115846 0.22559981 0.26507384 -0.24776436
