stock_models/TSLA.pth (torch, 271554 bytes, 11 tensors)

linear_1.weight f4 [64, 4]
00000000: 19a2 88be 4d45 abbe cf08 85be a413 ff3e
00000010: 3af5 393e ae7d 2fbe ba61 9ebe 1c83 9bbe
00000020: 37d7 ee3e 6fd6 27be 8819 9abc cfc3 b6be
00000030: 9467 bcbe b309 8dbe 5e4e 39be 684d 83bd
00000040: 70d8 ad3e 2f20 2e3b 2084 1b3e ad4e f23d
00000050: 3ff4 e03e dce8 da3e ac3f 343e 6260 19be
00000060: 666c 293d 6d1d c6bd faff 33bd a365 12bd
00000070: affa 853d b24f 8d3e e2b3 9b3e cbfc af3d
00000080: 9eae 89bd 5a59 d73d 06f9 d6be 47d7 dc3d
00000090: f4c9 41be 45b6 dabd 3f78 9cbe b1c3 733e
000000a0: 4b65 d1be 7a0c 943d be2c 163e c41c 94be
000000b0: 8630 08be 2a19 c4be ef64 353c 871f 8fbe
000000c0: a8f5 443e 1431 96bd ddf4 ad3e cbf1 aabd
000000d0: 4f63 34be f36c 463e bf86 553e c127 563e
000000e0: ac34 e73e 2d92 4c3e 0f57 003f 96ef 0cbe
000000f0: fe69 833e 5a21 0cbe 945c 9b3e d653 163e
00000100: 1572 c8be 0041 0ebd d906 fbbd 6640 a9bd
00000110: 2932 473e 00bf 95be 2df2 59be a187 c23e
00000120: 9980 60be 2cd7 a93d cb09 d0be c922 e8bd
00000130: 257f c2be d44c c53e 2632 7c3d f363 9a3a
00000140: 7b84 1c3e a282 4d3e bbd1 7f3d 661c 793e
00000150: c393 8bbe 8e90 d8bc d2f6 d0be 9f60 a1be
00000160: 793b a7be 2391 933d 49a6 81bb dc33 5d3e
00000170: d506 953e 6fcf bf3e 5220 aa3e 0aea 9d3e
00000180: 15ec 733e 94e5 a53d 2bce 633e e038 1ebc
00000190: b321 85be b5f7 893e e451 143d 25c4 3ebd
000001a0: 5233 503d 4b80 9b3e f06b b03e ce8c a7be
000001b0: 2da4 ca3e 092c f23d cc7a 8f3e e5f5 07be
000001c0: 0d3c efb9 14b8 07b9 c74c f4b9 c9c0 f5b9
000001d0: 17d3 2d3e fea7 99bd 90aa bdbe 2abb 983e
000001e0: 9170 0a3e e5bf e93e b7dc ae3e f134 90be
000001f0: f7ec b2be 135f dc3e 9a9c c5be 8382 b9be
00000200: b5e8 7fbe f7c9 823e a20b d33e 1bc3 9bbe
00000210: 92f7 1bbe e2bd 23bd ec29 943e d309 ae3e
00000220: 4c71 a03e c829 0c3e 6fb6 0a3e ed4c 40be
00000230: 73f5 273e e47b 4f3c 57c7 113e b827 843e
00000240: 9e6a 8cbe 61e8 7b3e e868 a6be 8b36 b5be
00000250: 74cd 163e 7eb0 7cbe 8f69 e93e 6dcb 1abb
00000260: 9b76 a33e 3624 27be 4c95 8cbe f87a 78be
00000270: 7af6 e03e 788b 85be 1a40 7dbd 856f e2be
00000280: a58c 6d3e 5466 64be 3939 213e eba8 73be
00000290: 6946 b8bd 4036 ca3d 7975 70be 84fc 833e
000002a0: 01d6 11be f78d 83bd 0bde 8a3e 7ff8 2fbe
000002b0: 3cc2 1ebd c83b a7bd 1d96 003e a3b6 ecbd
000002c0: fe41 83be 4b1f 92bc d274 5c3e c746 b13e
000002d0: 2b3b 58be 790f 073d 8731 c73e 4c01 5abd
000002e0: 8fda 1ebe 77e1 d23d 9be0 9fbe 3045 f73d
000002f0: fb65 9ebe 9097 9bbe 0210 8a3e f70d 603e
00000300: 8818 27be 8340 9a3e f64f c33e 6c9b 133e
00000310: cd55 29be ee30 883c fc58 9d3e 1553 32be
00000320: beb1 0239 2c29 0639 9027 9936 b528 d4b9
00000330: d04d 93be 9533 94be afdb 1cbe 5f41 a73e
00000340: 83ff 9abe a60d 76ba 06d5 523e 45aa 90be
00000350: 5c74 153e ab20 1abe 3906 4f3e 34ce 82be
00000360: 9d06 563e 6569 513d d505 893e d190 9b3d
00000370: 3c24 21be d9e7 b1bd 3871 bcbe 0dcb 8bbe
00000380: 4f24 ccbe bd87 0e3d 526f 9a3e 7bc6 803e
00000390: 16b7 003e c348 833e 3f75 913e d49b 583c
000003a0: df11 33be 4f89 c5be e490 26be 3d7a 533d
000003b0: 2676 b3be ca68 0bbe 1944 93be 224f 673d
000003c0: 538a 623d f723 c8bd 66b3 c7be 7eb9 a5be
000003d0: a5f4 17bd d5db ea3e db85 c7be 14c6 ae3e
000003e0: f3e0 7e3e 959b cbbe a0f1 ae3d ea23 b93d
000003f0: 7e5d 33be b705 b7be 371f 41be 985b 9ebe
-0.2668617 -0.3345131 -0.25983283 0.49819672 0.18159953 -0.17137787 -0.30933934 -0.30373466
0.4664857 -0.16390394 -0.018811002 -0.35696265 -0.36797774 -0.27546462 -0.18096301 -0.064112484
0.3395419 0.0026569476 0.1518712 0.118314125 0.43936345 0.42755783 0.17602414 -0.14978173
0.041363142 -0.09673581 -0.04394529 -0.03574146 0.06541955 0.27599865 0.30410677 0.08593138
-0.06722759 0.10515089 -0.41986865 0.107832484 -0.18924695 -0.106792964 -0.3056049 0.23805119
-0.40897593 0.07228942 0.14665505 -0.28928196 -0.1329976 -0.3830045 0.011071428 -0.2795374
0.19234335 -0.0733358 0.33975878 -0.083468996 -0.17616008 0.19377498 0.20852183 0.20913602
0.45157373 0.19977637 0.5013284 -0.1376327 0.25666803 -0.13684598 0.3034407 0.14680418
-0.39149538 -0.034729958 -0.122571655 -0.08264236 0.19452728 -0.29247284 -0.21283789 0.37994102
-0.21924056 0.08292994 -0.4063247 -0.1133476 -0.3798763 0.38535178 0.061571263 0.0011779055
0.15284912 0.20069364 0.062455874 0.2432724 -0.2726117 -0.026436117 -0.4081331 -0.3151903
-0.32662562 0.07205417 -0.0039565903 0.21601814 0.29106775 0.37462947 0.33227783 0.3084262
0.23820527 0.08100429 0.22246616 -0.009657115 -0.26002273 0.26946798 0.03621091 -0.046573777
0.050830193 0.30371317 0.3445735 -0.32724613 0.3957838 0.11824805 0.28023374 -0.13277395
-0.00045630374 -0.00012943178 -0.0004659651 -0.00046873678 0.16975056 -0.07502745 -0.3704419 0.29830295
0.13519503 0.45654216 0.34152767 -0.2816539 -0.34946415 0.43041286 -0.3859604 -0.36232385
-0.24991114 0.25544712 0.41219813 -0.3042229 -0.1523116 -0.03997601 0.28938234 0.3399187
0.3133644 0.13687813 0.13546155 -0.18779345 0.16402225 0.012663815 0.14236198 0.25811553
-0.27425092 0.24600364 -0.32501912 -0.35393175 0.14726812 -0.24676701 0.45588347 -0.0023619786
0.31926426 -0.16322407 -0.27457654 -0.24265659 0.43938047 -0.2608297 -0.06182871 -0.44225708
0.23198183 -0.2230466 0.15744485 -0.23794906 -0.08997805 0.098736286 -0.23482312 0.25778592
-0.14241792 -0.06423562 0.2712253 -0.17184637 -0.038759455 -0.08165699 0.12557264 -0.11558273
-0.25636286 -0.017837187 0.21528938 0.3462431 -0.21116321 0.03297374 0.38904974 -0.053223893
-0.15513061 0.1029691 -0.31226048 0.12073743 -0.3093718 -0.3038907 0.26965338 0.21880327
-0.16317952 0.30127344 0.38146943 0.14414757 -0.16536637 0.016624894 0.30731952 -0.17414506
0.0001246398 0.00012794574 4.564361e-06 -0.0004046612 -0.28770304 -0.28945604 -0.15318178 0.32667062
-0.30273065 -0.0009386189 0.20589074 -0.28254905 0.14595169 -0.15051524 0.20217218 -0.25547945
0.2090096 0.051125903 0.26762262 0.07595981 -0.15736479 -0.086867996 -0.3680513 -0.27303353
-0.3987145 0.03479742 0.30163056 0.2515143 0.12569842 0.2564145 0.28409764 0.013220746
-0.17487286 -0.3858132 -0.16266209 0.051630247 -0.35051078 -0.13614193 -0.28762892 0.05647195
0.055307698 -0.09772485 -0.39004058 -0.32368082 -0.037098546 0.45870844 -0.3896931 0.34135497
0.24890499 -0.39767137 0.0854218 0.09040053 -0.17516133 -0.35746548 -0.18859564 -0.30929255

linear_1.bias f4 [64]
00000000: 6489 013d 91f7 0f3e f620 463d 6470 003d
00000010: 6c2c f93e ce3e 9c3e 05af 14be b0eb 4abe
00000020: 2f17 113e da33 973e c80b c73d fdb0 2bbe
00000030: a1b8 55bc acf4 923e 53be 4ebd 8eb6 b7be
00000040: 0f49 a73e 2824 183e 33fc ebbe 069f afbd
00000050: 4167 093b 2243 2cbe 0ccc 9e3d 0357 d4be
00000060: 9d9a 9d3e 6c87 a13e 1083 77be 29da c8be
00000070: 27c1 11bb 61c8 2bbe e2e8 b7bd 8133 4fbe
00000080: ad53 ac3b 510a 2cbe 61a5 cbbe 73fd 85be
00000090: c290 d53e 9b40 bbbe 8dcb 093d a919 18bd
000000a0: 2b17 9f3e e275 6c3e affa 993d b052 edbd
000000b0: 9a48 08be 466d 16be e076 d53d 58bb ddbe
000000c0: 93f5 f4be 13e1 a33c 85a5 1ebb 9f8b 873e
000000d0: 195c a9bd 27db 35bd f8b1 87be 2fd5 8bbe
000000e0: 12ca 6fbe 27ab 103e a29a 83be 26c3 9a3e
000000f0: c7b0 d93d a7d1 a2be 78cf 493e 8a83 583e
0.031625167 0.14059283 0.048371278 0.031357184 0.48666704 0.30516666 -0.1451989 -0.1981647
0.14169 0.29531747 0.09719044 -0.16766734 -0.013044507 0.28702295 -0.050474476 -0.35881466
0.32672927 0.14857543 -0.4609085 -0.08575253 0.0020966085 -0.16822484 0.077537626 -0.41472635
0.30782023 0.3154863 -0.2417109 -0.39228943 -0.0022240372 -0.16775657 -0.08979966 -0.20234491
0.0052589984 -0.1680081 -0.39774612 -0.2616993 0.41712004 -0.36572728 0.033641387 -0.037133846
0.31072363 0.23091844 0.07518517 -0.11588037 -0.13308945 -0.14690122 0.10423064 -0.43306994
-0.47843608 0.020004785 -0.0024207544 0.2647371 -0.08269519 -0.044398453 -0.26502967 -0.27311084
-0.23416927 0.1412779 -0.25703913 0.3022701 0.10629421 -0.31800577 0.1970805 0.21143928

lstm.weight_ih_l0 f4 [256, 64]
00000000: 6dd5 183c bdaf b5bb 7fc7 e93c e76f 80bb
00000010: 9f22 bf3b 552c 7a3b e3d6 56bb 51fd c23c
00000020: a362 c7bb b16a 01bc 39dc 023b 612f 6b3b
00000030: e543 ba3c e6ee 553c 001d e73c e24c 153d
00000040: 0079 3bbc 7558 4f3d 7e22 293b e14c dbbb
00000050: 2fc8 fcbb a3e2 eabb bb5f afbb 8c1c 8abc
00000060: fd6e 313c 45b5 febb c4cd c4b9 ab41 c33c
00000070: 5d7e d2b3 84fc 14bc edea acbb d368 97bb
00000080: eec7 c5bc 78e5 843c 569b 673c af50 153c
00000090: 58aa 24bc e3f1 d93c 6421 f93a 39dc 733c
000000a0: e11b 9a3c ffea ffbb d9e9 ab3b 8ecd 3dbb
000000b0: 94fc 393b 40af b53b 1c21 03bc 36d1 0cbb
000000c0: 0764 1e3c 7fdd 11bb 2624 d02f de80 9cb9
000000d0: 1838 b3ba 78a0 4e3c 98ad d33c 48b8 03bb
000000e0: 0c2f b83b e943 7f3c 6480 783c 3aaa b4bc
000000f0: e698 01bc 5d6c 81bb d0b6 1d3d 9cec c8bc
00000100: e0d7 b03b 0c7a dcbb a64b 5d3c 484c d7bb
00000110: 70ca 163d 747b bb3c 8645 78bb ac43 743c
00000120: e736 7dbb 7ed4 5abb a45e 80bc 23c2 b3bb
00000130: 3f21 da3c c719 2f3c c256 f93c d17f fe3c
00000140: 2ede 38bc da8a 953c 4eb8 6d3a e010 02bc
00000150: 29a7 813c cd94 d83b 0b0e c9bb bf6f 063d
00000160: c22a e43c 760e 8abc d8b0 2f3b 36a1 cc3c
00000170: 9191 87b2 3cf3 85bb 36a2 be3b 8e3f 4a3b
00000180: 464d 58bc f418 513c 177a 1a3c cb0a 8c3c
00000190: b0bc 3abd f10c bb3c 3746 40bb 3f55 043b
000001a0: f988 ab3b 92c8 c6bb 52b5 3db8 6cff 53bb
000001b0: ad97 1f3c 712f 813b 82a9 82bb 8384 1dbb
000001c0: 39ab 063c 3d05 0dbb e579 3030 797b 233b
000001d0: 576c 02bb 6e54 b93b 52a1 953c 8080 04bb
000001e0: 787b 963b 4575 123c ed2c b13a 7cbc d8bc
000001f0: c4e4 65bb 63d8 03bc 0d97 813c 6c80 4dbc
00000200: 4f3e 5b3c 0c82 893b 4c0f f23c 6650 e1bb
00000210: 12c1 ce3c 66c6 453d b47e 07bb 387b d7b8
00000220: ec63 223a 3275 d2b8 144b 163c fa7f c2b9
00000230: c20b 9d3c 1d82 bf3c e9e4 db3c f951 6f3d
00000240: c539 7d3c ee70 b13c 7068 8e3b bae8 f4ba
00000250: a0de 713c f963 693b 436d 71bb 2cc0 493c
00000260: 858f 883d 0b90 54bb de27 a43a 5d81 423d
00000270: 5e5c edb1 8644 10bb d421 4f3c bf48 2bbc
00000280: 5cf3 6fbc c0b5 fc3c a7de 823c c854 1dbb
00000290: 3942 88bc 4e7e 0b3d fa9e 81b9 778c 6b3b
000002a0: 58c3 ef3b 79b0 30bc d8da 823b fb1d e0ba
000002b0: 5a48 d53b aca2 ac39 3801 aabb 5c21 a8ba
000002c0: 6ed6 363c 6156 e9ba dac8 8a2f 8c00 64bb
000002d0: 8479 8b39 8d42 453c 6b55 573d 5f6a 013b
000002e0: 1cf1 7c3a f4b7 84bc d8a7 0e3c 56a2 373b
000002f0: a897 3abb 9a4d 85bb abbf d13c c6bc 55bc
00000300: 7dac 32bd 90eb f3bc 3ef7 7c3d 6f2d 14bd
00000310: f3cc 43bc b46d 82bd aded 5dbb 16fe bdbc
00000320: 6d32 9a3c 7603 2e3c a3e2 f3bc ad69 1e3b
00000330: a9f4 0bbc 7b40 1b3c 4b60 943d 8513 1d3d
00000340: fcd9 0dbb 8006 f6bc c81d f23b b9d8 acbb
00000350: c8be ac3d b0af 153c 104f 66bb f96e b73d
00000360: ab95 813d da68 c23c bcd4 ae3a 9ae6 bb3d
00000370: 0302 3cb3 ecb3 91bb e9f8 453d 1a8f a4bb
00000380: b681 b5bc 9b52 a6bd ad10 353c 3c65 d93b
00000390: fbca 5c3d e2bd aebd 5f45 5abc 6548 18bd
000003a0: 40fd 173d d067 2fbd dc7d ffbb 984a f5ba
000003b0: 96f5 c73c 3071 68bc bd2f 1ebc d119 f0bc
000003c0: 9316 8bbc 3782 f0b9 a029 b3ae 543d 4cbd
000003d0: 7d6f 5b3b 4e75 1d3b 375f 7e3d 2459 9f3c
000003e0: 155f 953b 5804 193d d4d3 f6bb a50d 10bd
000003f0: 9a52 d93c a105 dfba 366d cc3d 6097 c63c
0.009328228 -0.0055446313 0.02853751 -0.00391959 0.0058329846 0.0038173397 -0.003278189 0.023802431
-0.0060847565 -0.007898972 0.0019967689 0.0035886394 0.022737453 0.013057446 0.02821207 0.036450274
-0.011442423 0.05062147 0.0025807912 -0.0066925143 -0.0077142934 -0.0071681305 -0.005351988 -0.016859315
0.010829684 -0.007773074 -0.0003753734 0.023835024 -9.8018724e-08 -0.009093408 -0.005277029 -0.0046206503
-0.024143185 0.0162227 0.014136156 0.009113475 -0.010050379 0.026604598 0.0019007144 0.014884048
0.018812122 -0.007809996 0.0052463827 -0.0028961631 0.0028379308 0.005544573 -0.008003499 -0.0021487004
0.009667403 -0.0022257266 3.7860665e-10 -0.00029850652 -0.0013673333 0.012611501 0.025839612 -0.0020098854
0.005620843 0.015580156 0.015167329 -0.022053827 -0.007909989 -0.0039496855 0.03850442 -0.024526887
0.005396828 -0.0067284163 0.0135068055 -0.0065703727 0.036814153 0.022886015 -0.0037883236 0.014908712
-0.003863746 -0.0033390815 -0.015670128 -0.0054857894 0.026627181 0.010687298 0.030436877 0.031066807
-0.0112834405 0.018254686 0.0009068296 -0.007938594 0.015826778 0.0066095353 -0.0061357073 0.032821413
0.02785242 -0.016852599 0.0026808288 0.024979215 -1.5782264e-08 -0.0040878337 0.005817677 0.0030860635
-0.013202017 0.012762297 0.009428523 0.01709499 -0.045590103 0.02283332 -0.0029338726 0.0020192412
0.0052348343 -0.0060663903 -4.522998e-05 -0.0032348288 0.009740752 0.003942423 -0.003987492 -0.0024035282
0.008219534 -0.0021518015 6.420165e-10 0.0024945422 -0.0019901001 0.0056558168 0.0182654 -0.0020218194
0.0045923553 0.008939092 0.0013517417 -0.026457064 -0.0035078982 -0.008047196 0.015819097 -0.012542825
0.013381555 0.004196411 0.02954831 -0.0068760393 0.025238547 0.04828491 -0.0020674886 -0.0001027495
0.0006194699 -0.0001003541 0.009173173 -0.00037097913 0.019170646 0.023377473 0.026842551 0.058427785
0.015455668 0.021660294 0.004345946 -0.001868508 0.014762551 0.0035612567 -0.0036838807 0.012313884
0.06667999 -0.003243449 0.0012524088 0.04748665 -6.9081088e-09 -0.00220135 0.012642343 -0.010454356
-0.014645424 0.030848384 0.01597531 -0.0024006832 -0.01663314 0.034056 -0.00024723244 0.0035941878
0.007316988 -0.010784262 0.0039933734 -0.0017098779 0.006508869 0.00032927596 -0.0051881336 -0.0012827325
0.011159522 -0.0017802232 2.5244767e-10 -0.0034790365 0.00026602682 0.012039793 0.052571695 0.001974724
0.0009648965 -0.016200997 0.008707009 0.0028020344 -0.0028471742 -0.0040680887 0.02560409 -0.013045495
-0.04362153 -0.02977541 0.061759226 -0.03617614 -0.011950719 -0.063685805 -0.003386359 -0.023192447
0.018822873 0.010620942 -0.029771155 0.0024171874 -0.008542218 0.009475823 0.07244929 0.038348693
-0.0021644821 -0.030032396 0.007388804 -0.005274859 0.08434826 0.009136125 -0.003514234 0.08956713
0.06327375 0.023731638 0.0013338546 0.09174843 -4.377399e-08 -0.004446497 0.048333082 -0.005021942
-0.022156578 -0.081212245 0.011051339 0.0066343825 0.053904515 -0.08532311 -0.013322203 -0.037178416
0.037106752 -0.042823613 -0.007796986 -0.0018714247 0.024409097 -0.014187142 -0.009654936 -0.029309185
-0.016978538 -0.00045873385 -8.147372e-11 -0.049863175 0.00334832 0.0024026218 0.062102523 0.019451685
0.004558454 0.03735766 -0.007532576 -0.035169262 0.026528645 -0.0017015227 0.09981768 0.024242103

lstm.weight_hh_l0 f4 [256, 64]
00000000: 02de 11bc 8ab4 0ebc 4641 373c 11cb 923c
00000010: 1e07 c23b 0662 f63b 9c14 2a3c b0e9 68bc
00000020: 0a34 2b3c 5698 c13b d6c8 07bc 09c3 653c
00000030: a7d3 99bc 12ad 033c 5f3a 1e3c 4d81 e83b
00000040: 90e2 eabb a5c0 e93b 9c65 323c 7fb1 d33b
00000050: 1710 04bc 5b07 e2bb 6b6f 6abc eb86 03bc
00000060: 1432 a83c 719e fa3b c2a6 a63c e669 15bc
00000070: 20c6 2ebc 0153 313c 0e09 353c 28e3 1f3c
00000080: 5ba4 c3bb 36b4 153c fe89 943c ed4a 11bc
00000090: 4d2f 1c3c 1f33 a1bb ca7a df3b 259c 0ebc
000000a0: f928 0fbc 5edd 59bc 767d 2d3c 4539 a23c
000000b0: 31e2 ffbb 9791 653c f387 4ebc 2f88 123c
000000c0: 86e0 083c 3737 b83c 3b6e 2bbc e23d 033c
000000d0: e35b 06bc 08fd 1d3c 4ce4 f83b a3b5 ba3b
000000e0: e423 0abc 7368 973c 8f6b 163c a632 7c3c
000000f0: 2231 023c 358a 783c 1917 3d3c a687 4a3b
00000100: db63 43bc cfca 1ebc 6bca 343c 0a9d 643c
00000110: 0d94 153c 71e4 373c 249c 593c d959 60bc
00000120: 553d 5b3c 7b97 263c 10e3 22bc 93e8 2b3c
00000130: ac14 a4bc cfcb f03b 435e 3b3c 813c 243c
00000140: bd9e 12bc ca74 3e3c 04c0 1b3c 5104 613c
00000150: 9d96 05bc 60d3 2fbc efaa ebbb 4113 4bbc
00000160: 4086 673c 5015 223c 912e 613c 52c2 46bc
00000170: 1607 1dbc b41d 4e3c 021d 363c 2285 1e3c
00000180: ddce 5bbc 8259 283c c9e4 323c b107 49bc
00000190: 0db5 3f3c f6e5 42bc 422e 303c a617 04bc
000001a0: dbf6 34bc 8d76 72bc 6012 263c ad7d 403c
000001b0: fd83 1cbc a117 513c 9cfd 54bc acf9 4e3c
000001c0: 5da7 3d3c bd04 6e3c 85bc 33bc d26a 573c
000001d0: 0e17 1abc 09d8 3e3c 4416 363c 51bf ba3b
000001e0: d2ec 5abc 497d 603c fccf 2c3c ea2a fd3c
000001f0: 3138 113c 8121 6c3c aa36 3d3c a951 093c
00000200: 64d5 e6bb 95ff a8bb 3e28 e53b a601 4c3c
00000210: 6c91 ba3b 2662 a23b 3f75 e43a 02dc 50bc
00000220: d23e 6e3b 1d81 863b 8c04 ffba c802 0f3c
00000230: 5888 42bc 4a98 da3b 8624 953b 759d fb3b
00000240: b5b3 52bb f8a6 0f3c fe0f 213c 108f 963b
00000250: c015 deb9 a6ea ecbb 9af4 2ebc 714c 7abc
00000260: 506a 983c 00e3 453c c336 51bb 3ec2 95bb
00000270: 8c5e 99bb 5924 013c 91aa 2c3b 382d 303c
00000280: 21d5 fabb 4511 b43b 4000 3f3c 738c bbbb
00000290: f272 9d3b 52de c5bb 5756 f63b 6fdb 4fbb
000002a0: d0a2 74ba 5332 61bc 0ede 50bb a729 623c
000002b0: e339 f4bb 79b3 4e3c 843c ebbb d0c6 e83b
000002c0: b5ed 833b 0517 ee3c 8188 9ebb da0b cabb
000002d0: 22c2 74bb 5e16 083c 9880 813c f283 073c
000002e0: 12a7 1abc 9a24 c53c b43b c23a 39d3 18bc
000002f0: e1c1 b73b ef1d 9e3c b95a d53b fd6c 1ebb
00000300: 0364 1bbd e592 7c3d 85d6 4fbd d583 0cbc
00000310: beb6 cdbc 776b f93c ac66 14bc fa8f 323d
00000320: f990 4f3d 3a7c 013d 1756 a13d 984c b93a
00000330: 4b19 06bc 2fba 18bc b11b 74bd f279 9dbc
00000340: 8cfe cb3a 45e3 f53b 8eb6 283d c921 33bd
00000350: 156d d5ba 090b 4c3d 0d32 28bd 0009 103d
00000360: 9084 403d bc71 6d3c 7e18 9cbd 6dc2 bf3c
00000370: b7e6 cabc cff4 c7bc 1195 a1bd cb08 fcbc
00000380: 8dd4 6a3d 6e60 8bbb 7a02 27bd 6bdf 5fbc
00000390: bdcb 21bd fcaa fbbc 28ce f53c cb1a 363d
000003a0: 66e1 fb3b e5ef 423d 8de9 3b3d d213 3d3c
000003b0: 0e9d 693d 85b7 483c b7b3 e83c 26cd 10bd
000003c0: c1ee e3bc ea57 36bb e3df bc3b 5786 2fbd
000003d0: 4b7d a53a c4b8 05bd 12e6 b0bc 75c7 ba3c
000003e0: 4f23 09bc bc3c 623d 23ae 79bd e2da 28bd
000003f0: dd5f e2bb 580a 2a3b 0519 26bd c9c0 c1bd
-0.008903028 -0.008710036 0.011184996 0.017919095 0.0059212586 0.0075190095 0.01038089 -0.014215872
0.010449419 0.0059080524 -0.008287629 0.014023551 -0.018777682 0.008036869 0.009657471 0.007095492
-0.0071681216 0.0071335607 0.010888483 0.006460368 -0.008060477 -0.0068978495 -0.014308791 -0.008027772
0.020531692 0.007648282 0.020343188 -0.009119486 -0.010667354 0.010823012 0.011049522 0.009758748
-0.0059705204 0.009137204 0.018132206 -0.008867961 0.009532762 -0.004919424 0.0068200575 -0.00870422
-0.008737796 -0.013297407 0.010588994 0.019802699 -0.0078089465 0.014011762 -0.012605655 0.0089436015
0.008354312 0.022487266 -0.010463293 0.0080103595 -0.008200618 0.009642847 0.0075955745 0.0056979223
-0.008431409 0.018482422 0.009180917 0.015392935 0.0079462845 0.01516967 0.011541151 0.0030903607
-0.011925663 -0.009691908 0.011034588 0.013953457 0.009129536 0.011223898 0.013281856 -0.013693296
0.013381322 0.010167952 -0.009941831 0.010492462 -0.020029388 0.0073485146 0.011436048 0.010024191
-0.008948979 0.011624524 0.009506229 0.013733939 -0.008153585 -0.010731548 -0.0071920077 -0.012394727
0.014131129 0.009892777 0.013744012 -0.0121312905 -0.009584209 0.012580324 0.011115314 0.009675296
-0.013416019 0.010275247 0.010918804 -0.0122699 0.011700881 -0.011895647 0.010753216 -0.008062279
-0.011045183 -0.0147987725 0.010136217 0.011748713 -0.009552953 0.012761981 -0.012999918 0.012632769
0.011575547 0.014527497 -0.0109702395 0.013148027 -0.009404911 0.0116481865 0.011113707 0.005699076
-0.013362126 0.013701745 0.010547634 0.030904252 0.008863495 0.014412285 0.011548677 0.008381286
-0.007044481 -0.005157421 0.0069933226 0.012451565 0.005693605 0.004955548 0.0017429962 -0.012747766
0.0036353362 0.004104747 -0.0019456311 0.00872869 -0.011873327 0.0066709863 0.004551473 0.0076786825
-0.003215057 0.008767836 0.009830473 0.004594691 -0.00042359345 -0.0072301207 -0.010678435 -0.015277014
0.018605381 0.012078047 -0.003192351 -0.0045702746 -0.0046804603 0.007882201 0.0026346783 0.0107529685
-0.0076548015 0.0054952228 0.011657774 -0.00572353 0.0048049623 -0.0060384655 0.0075176167 -0.0031716486
-0.0009332122 -0.013744908 -0.0031870636 0.013803876 -0.0074531897 0.012616032 -0.007178845 0.0071037784
0.0040261396 0.029063711 -0.00483805 -0.0061659636 -0.0037347157 0.008306114 0.015808389 0.008271204
-0.009439247 0.024065305 0.0014818818 -0.009327703 0.005607829 0.019301383 0.006511059 -0.0024173849
-0.037937175 0.061663527 -0.05074169 -0.008576353 -0.025111552 0.030446751 -0.009057682 0.043594338
0.050675366 0.031612612 0.078777485 0.0014137207 -0.008184741 -0.009321733 -0.05959672 -0.019223187
0.0015563532 0.0075038993 0.041189723 -0.043733392 -0.0016283119 0.04981521 -0.041063357 0.035164833
0.04700142 0.014492448 -0.07621859 0.02340814 -0.024768217 -0.024408726 -0.0788976 -0.030765912
0.05733161 -0.0042534387 -0.040773846 -0.013664107 -0.03950094 -0.03072118 0.03000553 0.044459146
0.0076867817 0.047592063 0.04587703 0.01154037 0.057034545 0.012250786 0.028406007 -0.035351895
-0.027823808 -0.0027823397 0.005763994 -0.042852726 0.0012625841 -0.03264691 -0.021594081 0.022800187
-0.008370235 0.055233702 -0.060957085 -0.041224368 -0.0069084004 0.0025946107 -0.040551204 -0.09460599

lstm.bias_ih_l0 f4 [256]
00000000: 8e73 90bb 9b31 a93c 5320 cb3c 9a5d 2e3d
00000010: 1b98 3bbd 383b 5f3c 4428 b03c 418b 8bbd
00000020: 07b4 9b3c 03ce b8bb 56fc afbd 6fa1 cc3c
00000030: e7ec f33c 1bf1 07bd e290 003c 3090 79bb
00000040: 6d0e d63b c37b 24bc af09 efbc 8256 babb
00000050: 4ed7 09bd e4ad 873b 630f cdbc 9bad 1abd
00000060: 81fc 38bd e24a 0b3d 8a3b 5ebc 7fde 0dbc
00000070: 9436 8d3d b173 1e3d e6a4 2c3d 1c54 12bd
00000080: f454 97b8 6ab9 98bb cc0a 04bd f2f5 9ebc
00000090: 8b61 14bc 5586 59bc 97ce 4dbc f873 ed3b
000000a0: d224 e53b fa8a 8fbd 5951 1bbd 6733 943d
000000b0: 6661 d9bc 3d18 883c df51 843d dcf2 9ebb
000000c0: 9e9f a0bb cd64 9c3c e218 60ba ff6e 7bbc
000000d0: 895a 71bc b182 c5bd b93b 52bd 0165 be3d
000000e0: 628c 3abd acf0 09bd d01a 5dbc ac0e 7c3d
000000f0: f272 88bc 7ec2 c63c ca3b b5bc 9be4 733c
00000100: 1646 7f3a e2dc 6c3c 7d66 5a3d 818c 2bbc
00000110: 133a c1ba c47b fcbc 3075 32bd f432 afbc
00000120: 27d6 70bd f08a e2bb 8cf0 53bd 2d95 3cbd
00000130: e2fa df3b f868 9cbc 9bca 2cbd 9fb1 01bc
00000140: 6910 e9bb c1af ccbb c062 00bd 9e6a 05bd
00000150: fb20 34bd 6010 25bb 7b99 313d f443 c8bd
00000160: e3f6 de3d a6b6 2ebd 40a0 fe3c 43dd fdbb
00000170: e580 73bd 8ec9 adbb 946e 7dbc 54ab 9fbd
00000180: eff7 43bc 176a 95bb 2620 b13d 5dae 0ebd
00000190: a7d7 04bc f65e cbbc 9598 763b bed7 cfbc
000001a0: 9755 0d3c e144 b4bd 1264 b8bc d748 d9bc
000001b0: 4f3d d93b 9743 82bd 7616 223d 19b0 bebc
000001c0: 5a88 28bc c927 ba3d b410 6fbc 769b dc3c
000001d0: fb03 83bc 5354 70bd ff59 8abd d1e6 2e3d
000001e0: 5074 2138 2346 88bc 8ed9 29bb 3c34 763d
000001f0: 0293 9bbc afdd bc3d 9626 aabc f7f5 363c
00000200: bff0 20bd faf6 7d3d 7bd6 0f3d aa51 58bd
00000210: cb7a ac3d 794c 883d bf49 423d 96f8 c13d
00000220: 6bd5 6a3d e992 67bd 455e acbd 2b67 c83d
00000230: 7d7d 5b3d 88aa 90bd 7b38 6cbd 6172 9cbc
00000240: 94ff 7d3d 1357 3c3b cf18 b8bd 70e1 58bd
00000250: 053c 1ebd 7d0a c6bd 8ca7 4a3c abf0 9f3d
00000260: c76e 51bd 8e23 52bd 0fe2 983d 2729 4abd
00000270: 32c9 4cbd b505 dc3c 55df 1f3d 3716 133c
00000280: f005 50bd e26b 383c b18c 263d 6915 17bd
00000290: 9517 1ebd d00e 453d fc87 683d 3844 6f3d
000002a0: d24b b3bb 3503 aebd 36df b639 ffd8 f73c
000002b0: 89ef e2bd 5c7e 3cbd 9310 8e3d 7daa 90bd
000002c0: 4e72 923c 0c2f 933c 5515 663d d50b 41bc
000002d0: 1468 7a3c 15ed 603d 583a 803d df11 ca3d
000002e0: 7102 68bd 8f89 ce3d c8b6 9ebd c2af 51bc
000002f0: 3296 f23b e533 a63d f51f f6bc fb4c 513d
00000300: 0b61 ae3c 3233 873c 97d8 573d 0422 a2bd
00000310: 48a3 a6bd bfd0 8a3a fb1d ac39 9fae 3ebc
00000320: 28e7 44bd 2c9a cbbb 7836 d33b 99c4 1ebc
00000330: af56 ae3c cf3e 2abd 3831 e23c 783d 80bc
00000340: 908e d3bc 59c9 4ebc a868 9dbc a0f8 0abc
00000350: c915 bfbd 94a2 62bc 35e9 8d3d 497a 113d
00000360: 7f6b c63d 3bfa 8abd 58b5 bebb 3743 53bd
00000370: a10d 11bd 442c 06bd 1bc8 5d3c abc0 53bd
00000380: 9521 533c 9394 dfbb 3a82 d33d bc74 0abc
00000390: 68f9 8dbc 0d54 5cbb 64a7 16bc 1b10 80bc
000003a0: 1771 9bba c685 0d3d aab0 cb3c f3ca 093b
000003b0: 97d2 c43c 91ec 01bb 1f4f bebd 2c04 8bbc
000003c0: ceac 90bc 9fa3 84bd 8c55 f9bc 6c01 fabb
000003d0: 2599 8bbc 709f 873d 2985 463a 5fdc d8bc
000003e0: 148e 5dbb 614c 4b3d 8763 3fbc b0da 423d
000003f0: 2900 48ba 6dcd ac3c ec8e f8bc d3d9 2a3c
-0.0044083064 0.020653537 0.024795687 0.042569734 -0.045799356 0.013624959 0.021503575 -0.0681367
0.019006742 -0.005639793 -0.08593051 0.024979321 0.02977605 -0.03318892 0.007847043 -0.0038080327
0.0065324814 -0.010039273 -0.029179422 -0.005686582 -0.033652596 0.0041406024 -0.025031751 -0.03776322
-0.04516268 0.03400696 -0.013564 -0.008659004 0.068951756 0.03868455 0.042149447 -0.035724744
-7.216065e-05 -0.004660775 -0.03223686 -0.019404385 -0.009056459 -0.013276656 -0.012561462 0.0072464906
0.0069929147 -0.070089296 -0.037919376 0.07236367 -0.026535701 0.01661312 0.06460928 -0.0048507284
-0.0049018404 0.019091034 -0.00085486297 -0.015346288 -0.014731058 -0.09644068 -0.051326487 0.09296609
-0.045544036 -0.03367679 -0.013495162 0.06153743 -0.016656373 0.024262663 -0.022123236 0.014886047
0.00097379216 0.014456959 0.053320397 -0.01047051 -0.0014742039 -0.030820735 -0.04356879 -0.021386601
-0.05879798 -0.0069135353 -0.051743075 -0.046040703 0.0068353275 -0.019093022 -0.042185407 -0.007915883
-0.007112552 -0.0062465374 -0.031344175 -0.03257238 -0.043976765 -0.0025186762 0.04335926 -0.09778586
0.10886934 -0.042654656 0.031082273 -0.0077473237 -0.059449095 -0.005303568 -0.015468258 -0.0779635
-0.011960967 -0.004559766 0.0864871 -0.034834255 -0.008108056 -0.024825554 0.0037627567 -0.025371429
0.008626363 -0.088022 -0.022508655 -0.02652399 0.006629623 -0.06360548 0.0395722 -0.02327733
-0.010286415 0.0908962 -0.014591385 0.026929598 -0.015993109 -0.058674168 -0.06755447 0.042700592
3.8493716e-05 -0.016635006 -0.0025917026 0.06010841 -0.018990997 0.0922197 -0.020770352 0.011167041
-0.039292093 0.062003113 0.035116654 -0.052812256 0.084218584 0.06655211 0.04743361 0.09471242
0.057332437 -0.05653659 -0.08416418 0.09785303 0.05358647 -0.07063776 -0.05767105 -0.019097509
0.062011316 0.0028738424 -0.08989107 -0.05294937 -0.038631458 -0.09669969 0.012369048 0.07809576
-0.051131036 -0.05130344 0.07464992 -0.049355652 -0.049996562 0.02685819 0.039031345 0.008977464
-0.050786912 0.01125619 0.040661518 -0.036885653 -0.03859671 0.04810983 0.05677031 0.058414668
-0.005471685 -0.084967054 0.0003488005 0.030254839 -0.11080844 -0.046018943 0.06936755 -0.07063768
0.01787677 0.01796677 0.056172688 -0.011782606 0.015283603 0.0549136 0.06261128 0.0986669
-0.056642953 0.10084831 -0.077497065 -0.012798252 0.0074031586 0.08115367 -0.030044535 0.051098805
0.021286508 0.016503904 0.05269679 -0.07916644 -0.08136612 0.0010590776 0.00032828734 -0.011638313
-0.04807201 -0.006213447 0.006445702 -0.009690427 0.021281568 -0.041563805 0.02761136 -0.01565431
-0.025824815 -0.012621247 -0.019214943 -0.008482128 -0.09330327 -0.013832707 0.06929246 0.03551701
0.09688472 -0.06786009 -0.0058199577 -0.051577773 -0.03541339 -0.03275706 0.013536478 -0.051697414
0.012886425 -0.0068231313 0.10327573 -0.008450683 -0.01733084 -0.0033619434 -0.0091951825 -0.01563268
-0.0011859265 0.034551404 0.024864513 0.0021025508 0.024026198 -0.0019824842 -0.09292435 -0.016969763
-0.017660525 -0.06476521 -0.0304363 -0.007629564 -0.017040798 0.06622207 0.0007572943 -0.026472269
-0.003380661 0.049633387 -0.011681444 0.047571838 -0.00076294184 0.021094048 -0.030341588 0.01042791

lstm.bias_hh_l0 f4 [256]
00000000: 89de ebbc 2e88 e2bb 9991 6d3d b5f9 d0bd
00000010: 8c97 453d 9cd4 8538 f267 5bbd 1c99 a1bc
00000020: a9cd 863b d5bd 90bc 4540 9bbd 56b0 c4bc
00000030: f5b7 3b3a 3364 e6bb 89ed 2ebd 5cd7 96bb
00000040: cba6 9ebc 5005 0a39 43f3 8cbc a2af 633c
00000050: b37e 5bbb d259 053c 0589 94bd c966 20bd
00000060: 2977 00bd 971c 82bd d10a 023d 0cb8 30bc
00000070: f2dc 49bd c0a3 b9bc 0923 8d3c 57df b1bd
00000080: 38a7 f5b9 6563 e5ba 641f 08bc 17d3 cdbc
00000090: 07a9 22bc 6e9b b6bc 627d 67bc a3e5 e8bc
000000a0: cfe5 823c ca50 92bd a4db 8ebb 6c70 693d
000000b0: 2790 a8bc 2c1e 943c e950 863d e8de 223b
000000c0: 145d 273a c0f1 33bc c95f 01bd b8ae 18bd
000000d0: f584 46bc 5a59 6fbd e22a 26bd 3ab1 84bd
000000e0: 5ac6 e2bc feed 2f3c 77c0 a6bb a3b1 a13d
000000f0: 156d 1a3c c3ec 1b3d 0e32 aebb 9ed8 c9b9
00000100: 836e 1abd 4ec4 033d 9fbd ba3c 44ae 13bd
00000110: a5dc afbc 1efe 7cbb 95ca 73bc 7623 60bd
00000120: 3df7 9d3c e5e4 27bc 602a adbc ad93 17bd
00000130: 35f1 3c3d 8f7f 11bd 74d7 e1bc 8ff2 dfbb
00000140: 5c2f febc 8fc5 a03b d319 853d 1140 973c
00000150: 847a dabc 5bad 24bc 5b69 743d 0d49 dc3b
00000160: 452d 4b3d e502 633d 1a70 4b3d f5cb 82bb
00000170: 6774 b9bc fa08 e4bb d248 56bd 189f 56bd
00000180: ab8b 59bc 5230 92bb 4832 e73d c2cb 8abc
00000190: 782b f4bb e76a 98bb e82d 8cbb 3683 8f3b
000001a0: 320e 79bc 2ff9 863c fbba 853d 71a8 aabc
000001b0: 1220 4d3d 6027 19bd 41b4 8bbb 82da 0ebd
000001c0: 2dcd 70bc 602b 8dbc c579 d2ba 3c84 f23b
000001d0: 775a 5fbc f806 babd 4e03 adbd b235 8e3d
000001e0: 1ff0 403c 05a9 4bbd cf1e d6bc 46d1 bd3b
000001f0: 036d 39bd de09 1c3d 8d2b 40bb 6d47 81bc
00000200: ca2b 813d 2840 8b3b 061a a3bd e07e c73c
00000210: cc66 9c3d e055 473c 85b4 7e3d 1f19 84bd
00000220: e14f 8ebd e7cb 4f3d d54c 57bd d28c 7c3d
00000230: a460 f23c a315 023d c843 c23c c653 273d
00000240: 8826 073d e27a bc3d 32ea 363d 79a7 2f3d
00000250: 383e 783d f48e b9bc f62c cbbd 154e 35bd
00000260: 7e0b 7f3d ffb6 b2bd 42e4 bcbc ec99 b53d
00000270: 3282 8d3d d679 21bd a641 b4bd ab58 96bd
00000280: d057 bc3c dd60 4e3d 4869 743d 2804 843d
00000290: 5c5d 033d ab6f 7abd 2126 8fbc fea0 723d
000002a0: a996 4f3a 27dc 823d c1a4 85bd 1dc6 343d
000002b0: e1ec fa39 afa4 a33d 9d0e d7bd 8fea a4bd
000002c0: 2dec 53bc ab49 cebd 63cd 8d3d 34ce afbd
000002d0: b91b ecbc d681 28bd 478a 1b3d 93fc b93d
000002e0: 4f6c 633d 1b4e 7bbb df2a 2abd bd13 743d
000002f0: e215 893d 2b2f acbd 52d3 e4bb 7a6b 49bd
00000300: 7925 f1bc 95e5 53bd 9ec0 403c 1021 a23d
00000310: 9592 65bd b63d 07bd 1ce4 f1bc fe20 2d3c
00000320: ebd4 a5bd fe74 9dbc 56e1 0d3c 530d f0bc
00000330: fd31 21bd 2780 b9bb 06d9 073d f3a6 1339
00000340: a13e 5dbd 5c4e 85bb 2c92 a1bd 98cc 5fbd
00000350: f417 a3bc e457 d5bb f780 b63d aa33 2f3d
00000360: 7ca0 16bc 3df4 f53c 412e 3b3c 90ce 1bbb
00000370: 1472 85bd 2bf9 a4bc 24a8 dbbc 52b7 593d
00000380: 58d7 07bb 4390 01bc 60e0 ef3d 5433 09bb
00000390: 9a19 fabb 0eb3 5bbc ca15 d6bc 2538 01bd
000003a0: 49b5 b4bc d8d5 de3c 4637 aa3c 485c 75bc
000003b0: 3813 a4bd 97a0 2d3b 8b59 af3d 5102 89bb
000003c0: 4864 29bc 9998 a73d e6ef 29bc 09fe 92bc
000003d0: 071d bdbc 9533 d1ba b8e0 24bb 6697 873d
000003e0: 4571 8139 79fb f33d abcd 0abd d7a5 da3c
000003f0: 181a 00bc 0174 ee3c 8ed8 36bc 6ea0 85bc
-0.028792636 -0.0069132065 0.05800018 -0.10203878 0.04824023 6.381536e-05 -0.053565927 -0.019726329
0.004113872 -0.017668644 -0.07580618 -0.024009865 0.00071608956 -0.0070309876 -0.042707 -0.0046033096
-0.019366642 0.00013162685 -0.01720584 0.013896855 -0.0033492267 0.008139091 -0.07252697 -0.039160524
-0.03136364 -0.06353109 0.031748597 -0.010786068 -0.049282975 -0.02266109 0.01722862 -0.08685177
-0.0004685463 -0.0017500935 -0.008308265 -0.02512507 -0.009927995 -0.022290912 -0.014129015 -0.028429812
0.015978722 -0.071443155 -0.0043596793 0.05699198 -0.02057655 0.018080793 0.06558401 0.00248521
0.0006384414 -0.010982931 -0.03158549 -0.037276 -0.01211666 -0.05843482 -0.04056824 -0.06479116
-0.027682472 0.010737894 -0.0050888616 0.0789521 0.009425421 0.03806759 -0.0053160256 -0.000384991
-0.03770305 0.032169633 0.022795497 -0.036054865 -0.021467516 -0.0038603614 -0.014879842 -0.05472132
0.019282931 -0.010247444 -0.02113837 -0.03700607 0.04612847 -0.03552204 -0.027568556 -0.006834335
-0.031028442 0.0049063633 0.06499066 0.018463166 -0.026669748 -0.010051097 0.059670787 0.0067225755
0.04960372 0.055422682 0.049667455 -0.0039915987 -0.022638513 -0.006959078 -0.05231554 -0.052397817
-0.013277928 -0.0044613266 0.11288887 -0.016942862 -0.007451471 -0.0046514156 -0.0042779334 0.0043796552
-0.015201138 0.016476242 0.06529804 -0.020832272 0.050079413 -0.037391067 -0.0042634313 -0.034876354
-0.014697355 -0.017232597 -0.0016058019 0.0074010175 -0.013632408 -0.090833604 -0.08447896 0.06943835
0.011775999 -0.049721736 -0.026137738 0.0057927696 -0.045269977 0.038095348 -0.0029322833 -0.015781129
0.0630718 0.0042495914 -0.07963948 0.02435249 0.076367944 0.01216647 0.062183876 -0.06450104
-0.069488294 0.050731566 -0.052563507 0.061657734 0.029587097 0.031758916 0.023713961 0.040851377
0.03299573 0.092031255 0.04465694 0.042884324 0.06060621 -0.022651173 -0.09920685 -0.044263918
0.06226682 -0.0872631 -0.02305806 0.08867249 0.069095984 -0.039422832 -0.08801584 -0.07341131
0.022991091 0.050385345 0.059670717 0.06446105 0.032071456 -0.06114165 -0.017474236 0.059235565
0.00079188735 0.06389647 -0.06525565 0.044134248 0.00047860204 0.07990395 -0.10500834 -0.08052551
-0.012934727 -0.10072645 0.0692394 -0.08584252 -0.028821813 -0.041139446 0.03797367 0.09081378
0.055523213 -0.0038346115 -0.04154479 0.059589136 0.06693627 -0.08407434 -0.006983199 -0.049174763
-0.029436814 -0.05173262 0.0117646735 0.079164624 -0.056047995 -0.033017837 -0.029527716 0.010566948
-0.080972515 -0.019220825 0.008659681 -0.029303228 -0.039354313 -0.005661029 0.033165954 0.00014081206
-0.054014806 -0.004068179 -0.07889208 -0.054638475 -0.019908883 -0.0065107215 0.08911317 0.04277388
-0.009193536 0.030023688 0.011424602 -0.0023774244 -0.06515899 -0.020138344 -0.026813574 0.053153343
-0.002072772 -0.00790793 0.11712718 -0.0020935135 -0.0076324465 -0.013409389 -0.026133437 -0.031547684
-0.0220591 0.027201578 0.02077831 -0.014975615 -0.08011478 0.0026493424 0.08562001 -0.0041811843
-0.01033885 0.081834026 -0.010372138 -0.017943399 -0.02308513 -0.0015960807 -0.0025158357 0.06620674
0.0002468919 0.11913199 -0.033887547 0.026690407 -0.007818721 0.02910805 -0.011160029 -0.01631185

lstm.weight_ih_l1 f4 [256, 64]
00000000: ff35 8abc d98f 64ba 2d1f 0f3b 1cc8 793c
00000010: 0f49 203a f7a2 bf3b 7149 f0ba 4a41 b4bb
00000020: 2a2b 2c3c 8b48 2f3c 6cba bab9 a067 5a3c
00000030: 8d97 5fbc 4692 f13b 610b dfbb 78f3 5c3b
00000040: 055a 2aba 2f74 923a c43c 43bb 852f 403c
00000050: 65a9 e9bb accd 65bb b468 6c3a 1d4d aa3a
00000060: 65d2 8bbc e85e 703c 06dc 9f3c d0e4 07bc
00000070: 98f3 40bc a066 b4bb 4d77 383c 8c23 2f3b
00000080: 1644 1abc 2a89 193b ee39 133b 8dc0 d6bb
00000090: 6569 ab3b 0851 ebbb 4f03 9d3b 329b d6bb
000000a0: a75f 31bc 2825 633b 9819 9e3c 3a3d 4e3c
000000b0: 0c5d 37bc 71b7 f3bb 88a8 dbbb a453 b93b
000000c0: 4936 2b3b 1c89 153c 2742 93bb 64ba c6b8
000000d0: b244 12bc f791 1e3b a1ca 03bc da32 643c
000000e0: eda6 a5bb 7566 8d3c c3d6 2c3c 4314 c83c
000000f0: e205 853c c95b 953b 4090 0d3c c788 f43c
00000100: dcf5 0cbc 1669 9ebb 71a8 4f3c dc81 783c
00000110: 040e 8b3b 1a91 873b 6fb9 8e3c 1f24 5abc
00000120: 6f1d dd3b 1369 563c 7f58 05bc bd5c 933b
00000130: 373e 44bc 5458 d53b 5db2 3bbb c5e0 7f3a
00000140: 9764 4ebb 5828 123b 6856 27bb 3579 503c
00000150: 24a2 cebb c6ef fcbb 860a 8f3b 1e1f 0b3a
00000160: 0dc5 253c 7d7c 9e3c c709 bbba f964 5bbc
00000170: 3cdb f4bb cfe8 b23b c744 cbbb c1dc d73b
00000180: fb10 70bc 339d 153b e453 ed3b 5cc1 02bb
00000190: b8b9 c83b 5354 2dbc 9e38 373b c784 98bb
000001a0: 63dd 23bc 95d7 68bc c89e b13c bbd7 873c
000001b0: 57a5 27bc aec2 4ebb 5d39 9dbc 9b4f ea3b
000001c0: 78a4 a1b8 8977 203c ac17 dfbb 54da c2ba
000001d0: db31 6dbb 25ec 593c 7bb1 7d3c 802a 043b
000001e0: 498d 8fbb 2507 123c 5c4f 693c 3ee7 803c
000001f0: 3555 623b c7a0 553b 1924 0f3c 8675 e03b
00000200: bd9f 00bc 905c ab38 2fbd 763c aae1 1b3c
00000210: fb3e 71ba 9750 073c 706a 3d3b 7be8 73bc
00000220: e49d 693c 1b03 553c 2177 1cbc 1258 03b8
00000230: 4e3b 5fbc a029 933a d4e7 63bb d745 3e3b
00000240: 7256 0ebb 4f62 093b c585 ed39 a6eb 4e3c
00000250: ac20 c5bb 1468 05bc d870 ebb9 a825 9bbc
00000260: 5542 063d fa48 663c cae0 9f3c b1a7 33bc
00000270: 7e25 0abc 3225 313c 970f a9b9 2976 8539
00000280: 29d6 03bc 5b31 0a3b 55c9 b03b 1082 c6bb
00000290: c6c6 bf3b 94eb 1dbc 8823 7c3c eb0f 95bb
000002a0: 59b6 f2bb 1598 72bc 57d5 2bbc 41f1 c03a
000002b0: aead 37bc 46c8 063c 3ed0 8dbc 9b85 c63b
000002c0: 0fb8 e93a 25e1 053c b18b 1fbc 9a05 3f3c
000002d0: 9ac7 52bb 64ff 6a3b 2a2c bd3c efeb c43c
000002e0: 7680 afbb 48eb 643c 564d bbb9 c6a7 dbbb
000002f0: 72c0 643c 49a1 c33b e3a9 af3b 5d66 da3b
00000300: b60f a8b8 81fc 3fbc 10ce 0c3c d09f deba
00000310: d374 0d3b 8a92 473b 0e7c ce3b b61a 1ebc
00000320: 9557 f639 b0b6 2e3c eb7d 84bb eb59 793c
00000330: e096 41bc b1f9 933b 8092 c23a 89cb f53a
00000340: 36cd 17bb c7b6 f438 b318 21ba 4a33 033c
00000350: f293 0abc 8dfa f1b8 17de dbba 1f64 0dbc
00000360: cdce 67bc 13bb 493c 79de 163c f4f1 12bc
00000370: 629a 0bbc ffc6 873b 853d 0d3c ba7e 723b
00000380: dfbd 88bb dfe6 c139 0f58 613b d7c7 a2bb
00000390: d844 623b 0db9 bebb f7a1 463b e8e2 25bb
000003a0: 1d59 abbb 91da 273b dc02 bd3c eaae 1f3c
000003b0: 3bea ebbb f14c ab3b 4f10 3fbc 6c8e fa3b
000003c0: 3942 563a 5b23 113c cdf6 a4bb 2001 7dbb
000003d0: 724c 7abb f4d1 8e3b 58e4 393c 5f5e 7c3c
000003e0: 9dfa 8fbb 6655 1b3c ffc2 d7ba e613 fd3c
000003f0: 3afc ed39 d181 a13b 64af 3a3b 3b3a 8f3c
-0.01687145 -0.0008718945 0.002183865 0.015245464 0.0006114402 0.0058482843 -0.0018332434 -0.005500947
0.010508338 0.010698448 -0.0003561558 0.01333037 -0.013646972 0.0073721735 -0.0068067764 0.0033714455
-0.00064983993 0.0011173541 -0.0029790858 0.01173008 -0.007130789 -0.0035065217 0.00090182875 0.0012992952
-0.017068097 0.014671065 0.019514095 -0.008294299 -0.011776827 -0.005505398 0.011258912 0.0026724068
-0.009415647 0.0023427703 0.0022464949 -0.0065537156 0.00523107 -0.0071812905 0.004791654 -0.0065492624
-0.010826028 0.0034659598 0.019299313 0.01258784 -0.011191618 -0.0074376394 -0.00670344 0.0056557227
0.0026124886 0.009126928 -0.00449397 -9.476094e-05 -0.008927511 0.0024195889 -0.008043916 0.01392814
-0.0050552995 0.01726077 0.01054925 0.024423724 0.016238157 0.004558061 0.008640349 0.029850377
-0.008603539 -0.0048343046 0.012674437 0.01516768 0.004243614 0.0041371705 0.017422406 -0.013314276
0.0067478935 0.013086575 -0.008138775 0.0044971392 -0.011977724 0.0065107737 -0.0028640248 0.00097609713
-0.0031493062 0.0022301879 -0.002553368 0.0127242105 -0.0063059498 -0.007719013 0.004365268 0.0005307066
0.010117781 0.01934647 -0.0014269882 -0.013390773 -0.007472424 0.005459882 -0.0062032673 0.006587595
-0.014652486 0.0022829294 0.0072426666 -0.0019951677 0.006125655 -0.0105791865 0.002795733 -0.0046545
-0.010001513 -0.014211555 0.021682158 0.01658236 -0.010232291 -0.0031549144 -0.019192392 0.007150603
-7.707713e-05 0.009794124 -0.006808242 -0.0014866092 -0.0036193046 0.01330093 0.015484209 0.0020166934
-0.004380856 0.008912836 0.014240112 0.015735265 0.003453565 0.0032597051 0.008736634 0.0068499474
-0.007850585 8.1711565e-05 0.015059753 0.009514252 -0.0009202805 0.00825896 0.0028902553 -0.014886971
0.014258835 0.013001229 -0.009549887 -3.1314856e-05 -0.013624979 0.0011227615 -0.0034775632 0.0029033327
-0.0021719006 0.0020963138 0.0004530383 0.012629425 -0.0060158577 -0.00814249 -0.00044906768 -0.018938854
0.032778103 0.014055485 0.019516367 -0.010965274 -0.00843179 0.010812091 -0.00032245807 0.00025455773
-0.008046665 0.0021086547 0.0053950944 -0.006057985 0.005852553 -0.009638686 0.015389331 -0.0045490167
-0.0074069914 -0.014806767 -0.010487876 0.0014720337 -0.011210842 0.00822646 -0.017311212 0.0060584075
0.0017831343 0.008171354 -0.009737895 0.01165905 -0.0032162429 0.003585779 0.023092348 0.024038283
-0.00535589 0.013972111 -0.0003572504 -0.0067033498 0.013961898 0.0059701544 0.0053608282 0.0066650347
-8.013791e-05 -0.0117179165 0.008594051 -0.0016984884 0.0021584525 0.0030452334 0.0063014096 -0.009649923
0.0004698603 0.010663673 -0.004043331 0.015219192 -0.011815757 0.0045158495 0.0014844686 0.0018752675
-0.0023163087 0.000116688716 -0.0006145343 0.008007834 -0.0084581245 -0.00011538444 -0.0016774562 -0.008629828
-0.014148426 0.012312668 0.009208315 -0.008968819 -0.008520694 0.004143595 0.008620624 0.0037001804
-0.004173025 0.0003698384 0.0034384762 -0.0049676704 0.0034525897 -0.0058203996 0.003030894 -0.0025312249
-0.005229129 0.0025612453 0.023072653 0.009746293 -0.0071995533 0.005227678 -0.011661603 0.0076463725
0.000817332 0.008858527 -0.0050343038 -0.0038605407 -0.0038192538 0.0043585245 0.011345945 0.015403359
-0.004393889 0.00948081 -0.0016461312 0.030893277 0.00045392086 0.0049288054 0.0028485889 0.017483821

lstm.weight_hh_l1 f4 [256, 64]
00000000: e53a a5bb 09d6 4ab9 a1e3 d8b8 927e 2b3b
00000010: 3540 cfba 1aab ce3a abca 3e39 dc9b 8a3b
00000020: 3412 873b dfb2 993b 925a 71ba 6c99 4dbb
00000030: b59d 263b 95d3 9e3b 0e65 19bb 9b52 01bc
00000040: c5fb 073b edcb 6fbb 70cc 41bc 066d ddba
00000050: b444 1f3b 09b2 59bb 1ec6 0abb b84f 0e3c
00000060: e6a8 6fba c995 a0bb 04a4 2fbc adba e6bb
00000070: 32a7 b63b 6ee7 42b8 1162 07bc 1cc5 8837
00000080: 5888 ccbb f2dc e73b 7651 123c e0d3 29bc
00000090: bbf3 4cbc ade8 2fbb ab4e 41bc d0da 9638
000000a0: 9a28 213a a593 87bb ac8f 5f39 83c4 253b
000000b0: d950 8aba 054f 543c e849 77b9 1ab1 8ebb
000000c0: 6104 a23b 8990 2dbb 651c a93b 2e53 87ba
000000d0: e8b8 2bbc b771 56bb 5331 38bb 2b46 7fbb
000000e0: 3b09 e938 362e 943b f9b3 7d3a e559 b5bb
000000f0: 5a11 01b9 74f4 a33b 4d84 2fbb a21f c8bb
00000100: 3b02 543a 5ebb a7ba 2d86 8d38 ce3d 0db9
00000110: 0275 a33a 5224 af3b 911f bc3b 1aff 533b
00000120: 49e4 b93b 8cdf 313a 1a8f ab3a bdfc 963a
00000130: 690c edba f21b 4c3b 605d 4dbb 5b0d 95bb
00000140: 766a ae3b 9b39 b23b b8f9 0c3b 3873 4fbb
00000150: 87c2 8c3a 7df5 683a e420 f7ba 7eba 053b
00000160: b68b 78ba 2db0 133b 06f3 53bb fe67 a7bb
00000170: 50bf 933b 9497 7dba 22eb e2bb 9352 0e3a
00000180: 211a 34bc f6a8 fc3b 0dac 043c 1397 a23b
00000190: 6af5 27bb 8fca deba 5c9a adba b5f1 57bb
000001a0: a91f b03a 0656 53bb 85f2 3f3b ae5b 723b
000001b0: 9ecf 16ba ce82 9e3b 524b 213b acbd 0abb
000001c0: 9a21 8a39 cee2 e8bb be47 df3b d75a 2fbb
000001d0: 4b6c cebb 5c3b 9abb 5b3e a2ba b8c9 d5bb
000001e0: da6d 0a3a 1ca7 553b bbd7 53ba 3c64 32bb
000001f0: 8f0e 993a 17b0 3e3b 66bc 2bbb 82b5 c4bb
00000200: 5b34 83ba b624 b8ba d3d3 a73a 2236 d13a
00000210: f2ea b9b9 b94f 723a a2fd 4e3b bcf2 9f38
00000220: 91d3 703b 656f 1e3b 7bf9 2b3b 565e cb38
00000230: b038 53ba 01e7 783a d2f8 25bb 2736 cbb9
00000240: d5bb 323b 39e0 8a3b 26aa ba38 2eb3 7fbb
00000250: c170 693b 43e2 ab3b f980 b3ba 31ed 303c
00000260: b797 07bb 8d33 43bc 172b e7bb 1bee 18bb
00000270: 7157 313b 29d3 56ba 9280 2fbb fd94 be3b
00000280: 540a fc3a 6a69 1b3b 9ddd ee3b 983b e43a
00000290: 6a39 833a 4ed4 913a 82f6 20bc 43cd 153b
000002a0: 19ec 2d3b 21f2 8bbb dd46 47ba 79d8 3e3b
000002b0: 3181 953a 0619 5f3b d746 543b 5f88 4c3a
000002c0: 2d5f ebba 068b 2dbb c7eb 5b3b e19e 4dba
000002d0: cdcb df39 7ec1 98bb a579 d7b9 5a3d 683a
000002e0: 6c33 6d39 d353 883b 52f3 c83a e147 71ba
000002f0: 31fa 4b3b 82cd 9b3a 74fc 1cbb 7c65 f2ba
00000300: 11b3 5f3a 91a6 edb9 0641 a639 3079 7c39
00000310: 7748 f4b8 d4a9 163a aa54 123b dafe 7f3a
00000320: 60cd 963b e62d 96ba 5726 33bb 2abe f5ba
00000330: 21c4 b3b8 2201 7637 152e 52bb 8fd3 9639
00000340: 3bb2 813b 0cdf e3ba 00b0 213a ebbd 8dbb
00000350: fd9c 173b e1b3 a3ba 5f8a c6ba b800 be3b
00000360: 6efd a4ba f4ad 4bbb 24e2 72ba e2e2 91bb
00000370: e559 7f3b 4a31 02bb 82c1 45bb c72e 56b8
00000380: 9bda 81b9 8d8c a83b 5881 033c 4982 963a
00000390: 8872 f2ba 008e 0bba 0772 44bb 9633 463b
000003a0: d10a f53a e94e f3ba 54fd 093b 7255 053b
000003b0: 1fbb 07b9 07f8 c83b 0639 08bb db7b e9ba
000003c0: 3900 0f3b 4db1 3abb 2885 763b 5bfe 3a3a
000003d0: d7d1 bcbb e029 39bb 683f 9fb9 215f 14bb
000003e0: fd15 2f39 6326 a13b 1de6 2ab9 9c23 203a
000003f0: 1400 00bb 110c 7c3a 7889 deba 32c4 dab8
-0.005042421 -0.00019343956 -0.00010342082 0.002616797 -0.0015811982 0.0015767545 0.00018195312 0.0042300057
0.004122043 0.0046905125 -0.00092069164 -0.0031371964 0.002542359 0.004847 -0.002340618 -0.00789323
0.0020749432 -0.0036590055 -0.011828527 -0.0016893453 0.0024302425 -0.003321769 -0.0021175216 0.008685999
-0.00091422943 -0.0049006683 -0.010720257 -0.0070412965 0.0055741305 -4.646874e-05 -0.008263127 1.630425e-05
-0.0062418394 0.0070758993 0.008930555 -0.010365456 -0.012509282 -0.0026841566 -0.011798541 7.1933144e-05
0.00061477127 -0.0041374736 0.00021320459 0.0025294132 -0.0010552659 0.012958293 -0.00023583288 -0.0043546082
0.0049443697 -0.0026483855 0.0051608556 -0.0010324472 -0.010481097 -0.0032721588 -0.0028105571 -0.0038951735
0.00011112025 0.0045221103 0.0009678002 -0.005534398 -0.00012308863 0.0050035063 -0.0026781738 -0.0061072866
0.00080874906 -0.0012796929 6.748396e-05 -0.00013469832 0.0012470784 0.005344906 0.0057410677 0.0032348097
0.0056729657 0.0006785325 0.0013088912 0.0011519414 -0.0018085364 0.0031144586 -0.0031336173 -0.0045487112
0.0053227497 0.005438996 0.0021511149 -0.003165437 0.0010739126 0.0008886678 -0.0018854407 0.0020405347
-0.0009481268 0.002253543 -0.0032340898 -0.0051088324 0.00450889 -0.0009673771 -0.0069250027 0.00054291746
-0.010992558 0.0077105714 0.008097661 0.004961857 -0.0025628456 -0.0016997623 -0.0013244855 -0.0032950465
0.001343717 -0.003224732 0.002928884 0.0036980915 -0.0005752983 0.0048373705 0.0024611545 -0.0021170182
0.00026346446 -0.0071071154 0.0068139723 -0.0026757026 -0.0062995306 -0.004706783 -0.0012378203 -0.006524291
0.00052806514 0.0032600826 -0.00080811576 -0.002722039 0.0011677312 0.0029096657 -0.0026204824 -0.0060030827
-0.001001011 -0.0014049027 0.0012804217 0.0015961567 -0.00035460998 0.0009243447 0.0031584282 7.6269236e-05
0.0036747197 0.0024175283 0.0026241231 9.697366e-05 -0.00080574583 0.00094948715 -0.002532531 -0.00038759524
0.00272726 0.004238155 8.900864e-05 -0.0039016712 0.0035620185 0.0052454784 -0.0013695053 0.010798738
-0.0020689794 -0.011914146 -0.0070546973 -0.0023335281 0.0027060176 -0.00081949175 -0.0026779515 0.0058161006
0.0019229152 0.0023713955 0.007289602 0.001741278 0.0010011618 0.0011125894 -0.009824397 0.0022857941
0.002653843 -0.0042708074 -0.0007601807 0.0029120727 0.00114063 0.0034042015 0.0032390857 0.00078023033
-0.0017957442 -0.002648057 0.0033557282 -0.0007843804 0.00042685718 -0.004661738 -0.00041098628 0.000885924
0.00022621237 0.0041603833 0.0015331304 -0.0009204131 0.0031124467 0.0011886808 -0.0023954185 -0.001849338
0.0008533458 -0.00045328264 0.00031710434 0.00024077739 -0.00011648324 0.0005747352 0.0022328296 0.0009765454
0.0046021193 -0.0011457771 -0.0027336085 -0.001874869 -8.571917e-05 1.4663006e-05 -0.0032070924 0.00028767853
0.0039580143 -0.0017385199 0.00061678886 -0.0043256185 0.0023134344 -0.0012489521 -0.0015147439 0.0057984255
-0.0012587735 -0.0031079026 -0.0009265265 -0.0044520954 0.0038963493 -0.0019865804 -0.0030175154 -5.106514e-05
-0.0002476767 0.005143708 0.008026443 0.001148292 -0.0018497268 -0.0005323589 -0.0029975192 0.003024315
0.001869524 -0.0018562946 0.0021055536 0.0020345119 -0.00012944311 0.006133083 -0.0020785942 -0.0017813401
0.00218202 -0.0028487027 0.0037615988 0.0007133239 -0.0057623195 -0.002825372 -0.00030374085 -0.002263971
0.00016697492 0.004917906 -0.00016298187 0.0006108822 -0.0019531297 0.0009614835 -0.0016978225 -0.00010431594
